src/Models/stage_2/1060_critic.pt (torch_old, 374310 bytes, 7 tensors)

fc1.weight f4 [150, 14]
-0.104384035 0.037360955 -0.041208487 0.20290163 -0.025427893 -0.17807879 0.09499379 0.10367681
0.027179897 0.057223767 0.94771034 0.15996212 -0.039577812 -0.05073684 0.22117686 -0.08032836
0.03607642 -0.03718415 -0.41935238 -2.2364197 0.039411306 0.15669064 -0.29383513 0.27445927
0.96869826 0.03154684 -0.009697642 0.09122288 -0.048485853 0.03694043 0.06458803 0.09697557
0.2739469 -0.028791405 -0.03370148 -0.002838925 0.04656146 0.059686523 0.14311771 -0.13531178
0.49754876 -0.17653225 0.012108982 0.11150446 0.12167674 0.18751776 0.21377958 -0.38374937
-0.2383267 -0.19397601 -0.22539929 0.020303532 0.8789596 -0.2636326 -0.16150424 -0.023208838
-0.18643145 -0.6882722 -0.49625087 0.26177892 0.29426324 -0.046851285 0.019795991 -0.0376781
-0.18471977 0.070385315 1.4074389 0.02453195 -0.6482605 -0.0895263 -0.28571415 0.06332633
-0.1561026 0.0017441129 0.033672355 -0.076560445 0.19145715 0.003159283 0.0051750788 0.12945238
0.6094929 -0.2882881 -0.020377375 0.15316822 0.21708569 0.1309706 0.366527 -0.5309668
-0.18449084 -0.65041614 0.088412136 -0.041999355 0.02345325 -0.098736756 -0.91130525 0.087762825
0.7730927 -0.19787061 0.05297947 0.03591386 -0.00010931724 0.09692577 0.381161 0.23551202
-0.34487337 -0.4813084 -0.18481226 -0.004562349 0.37065622 -0.7650597 0.057506066 -0.29840112
-0.21262017 -0.10332962 -1.2764741 -0.6025182 0.4030451 0.024324732 -0.07154455 -0.14292705
0.09872365 0.061747815 1.1778792 -0.23318952 -0.5176567 0.08960131 -0.08104859 -0.028771281
0.021380648 -0.027080864 0.050841868 -0.04933181 0.04594727 -0.021822475 -0.06323434 -0.033080745
0.028225407 0.046655774 0.04905741 -0.035331514 0.033668574 -0.030348802 -0.1374876 0.04472054
0.036913086 0.39931166 0.13628535 0.21076813 -0.021493172 -0.06343641 0.12477638 -0.14098318
-0.14059049 -0.2062712 0.08418169 0.049123812 -0.09972557 0.386527 0.12349017 0.09946724
-0.07982238 0.043628637 -0.24600813 -0.023280215 0.16171792 -0.06712171 -0.097378395 -0.010037798
0.10003718 0.0921384 0.08004717 0.059155166 0.1771713 -0.21331653 -0.40870008 -0.2569157
0.1261079 -0.2260018 0.24467894 0.61306846 0.029611936 -0.06500747 -0.009093537 0.017657813
0.15066074 0.24774793 0.23810308 -0.30223498 0.05562898 0.07609854 -0.22357108 -0.21409653
0.24743217 -0.113402694 0.7084314 -0.07323453 -0.24795549 -0.26965225 -0.40476993 -0.3747859
-0.5082469 0.5508668 -0.057626538 -0.06129653 0.3654828 0.07374519 0.8871746 0.16917561
0.049608488 -0.04167139 0.16899203 0.0012084071 0.120287105 0.2024821 0.093104474 -0.011688982
0.20420547 0.12956469 0.034209877 0.094153166 -0.0033333257 0.020798665 -0.87398434 0.08100395
0.0027257872 -0.017825296 0.044851486 -0.08401756 0.036822513 -0.017143538 0.04596448 -0.059285577
-0.080521226 -0.01664879 -0.029472483 0.06722079 0.019239718 -0.053280924 -0.0231316 0.3338933
-0.077874295 -0.08984535 -0.021361565 0.11484228 0.02959025 0.055540305 0.05306309 0.097506806
-0.069628835 0.06982175 0.28644633 0.0872117 0.1443222 0.038484324 0.12839583 -0.046271082
00000000: 4cc7 d5bd cd07 193d 3bca 28bd 72c5 4f3e
00000010: 284e d0bc 495a 36be 1b8c c23d 8254 d43d
00000020: 60a8 de3c 7863 6a3d 259d 723f 1ccd 233e
00000030: 581c 22bd 6fd1 4fbd 307c 623e 3283 a4bd
00000040: dec4 133d 684e 18bd 5bb5 d6be 8021 0fc0
00000050: c06d 213d 8373 203e 8f71 96be ed85 8c3e
00000060: 9cfc 773f 4237 013d dce2 1ebc 10d3 ba3d
00000070: 1a99 46bd d94e 173d bb46 843d 219b c63d
00000080: c542 8c3e f4db ebbc 900a 0abd 420d 3abb
00000090: 3bb7 3e3d db79 743d 738d 123e 2c8f 0abe
000000a0: b6be fe3e dfc4 34be c064 463c 735c e43d
000000b0: a831 f93d a804 403e 09e9 5a3e cc7a c4be
000000c0: ea0b 74be a6a1 46be 12cf 66be 9853 a63c
000000d0: 7f03 613f dafa 86be 5e61 25be 7620 bebc
000000e0: e3e7 3ebe 9b32 30bf 9814 febe e307 863e
000000f0: aca9 963e 22e7 3fbd 342b a23c 5a54 1abd
00000100: 2e27 3dbe 2d26 903d f526 b43f 3af7 c83c
00000110: 66f4 25bf 9159 b7bd 2049 92be 3cb1 813d
00000120: 5cd9 1fbe b89a e43a 06ec 093d b9cb 9cbd
00000130: 580d 443e f90b 4f3b b593 a93b 2a8f 043e
00000140: ba07 1c3f 7f9a 93be 74ee a6bc 21d8 1c3e
00000150: b64b 5e3e 281d 063e 6da9 bb3e 71ed 07bf
00000160: 2beb 3cbe ac81 26bf 6c11 b53d 8407 2cbd
00000170: 0821 c03c 7f36 cabd 4d4b 69bf ffbc b33d
00000180: 67e9 453f 989e 4abe 0001 593d 691a 133d
00000190: 3f41 e5b8 0581 c63d 8927 c33e 102a 713e
000001a0: 3e93 b0be 0e6e f6be 6d3f 3dbe c27f 95bb
000001b0: a7c6 bd3e f4da 43bf 7b8b 6b3d 08c8 98be
000001c0: 1ab9 59be 7b9e d3bd 8163 a3bf a23e 1abf
000001d0: ed5b ce3e a944 c73c f385 92bd 785b 12be
000001e0: a02f ca3d 47eb 7c3d bfc4 963f 3cc9 6ebe
000001f0: 2685 04bf e480 b73d cefc a5bd c0b1 ebbc
00000200: 7826 af3c b0d8 ddbc 903f 503d 2710 4abd
00000210: 3433 3c3d 0cc5 b2bc 0181 81bd ad7f 07bd
00000220: f838 e73c 201a 3f3d 6cf0 483d c7b7 10bd
00000230: 0fe8 093d 0d9e f8bc 8dc9 0cbe e32c 373d
00000240: 2d32 173d 9472 cc3e 638e 0b3e 9ad3 573e
00000250: 7312 b0bc f3ea 81bd c28a ff3d e55d 10be
00000260: f4f6 0fbe c238 53be 7367 ac3d 0d36 493d
00000270: eb3c ccbd dee6 c53e 6ae8 fc3d 7bb5 cb3d
00000280: ea79 a3bd f1b3 323d 8ee9 7bbe 26b6 bebc
00000290: 6299 253e 1b77 89bd 536e c7bd 9475 24bc
000002a0: 4be0 cc3d 0fb3 bc3d c5ef a33d b04c 723d
000002b0: 656c 353e a66f 5abe 2341 d1be 748a 83be
000002c0: 6e22 013e 046d 67be 1e8d 7a3e 0ef2 1c3f
000002d0: bb94 f23c a322 85bd 0ffd 14bc 1ea7 903c
000002e0: cf46 1a3e a2b1 7d3e 4bd1 733e 8bbe 9abe
000002f0: 37db 633d 8dd9 9b3d d1ef 64be 1f3c 5bbe
00000300: dc5e 7d3e ac3f e8bd c35b 353f fcfb 95bd
00000310: 0be8 7dbe dc0f 8abe 013e cfbe f0e3 bfbe
00000320: 781c 02bf 9b05 0d3f ce09 6cbd 1212 7bbd
00000330: 9020 bb3e b807 973d e01d 633f 5f3c 2d3e
00000340: 4532 4b3d 9faf 2abd 3f0c 2d3e 6a63 9e3a
00000350: 1659 f63d 7857 4f3e 8fad be3d 2583 3fbc
00000360: 3d1b 513e 9bac 043e a81f 0c3d 60d3 c03d
00000370: ed73 5abb f661 aa3c 70bd 5fbf 66e5 a53d
00000380: 1fa3 323b 5b06 92bc 31b6 373d 6611 acbd
00000390: 34d3 163d 9b70 8cbc 4045 3c3d 6fd5 72bd
000003a0: 50e8 a4bd 0b63 88bc 4770 f1bc 0eab 893d
000003b0: 9d9c 9d3c 193d 5abd 7b7e bdbc 10f4 aa3e
000003c0: 8f7c 9fbd d700 b8bd 73fe aebc 6e32 eb3d
000003d0: 4167 f23c 3b7e 633d af58 593d a6b1 c73d
000003e0: 9099 8ebd b5fe 8e3d 18a9 923e 0c9c b23d
000003f0: 33c9 133e bda1 1d3d 327a 033e bf86 3dbd

fc1.bias f4 [150]
-0.07478383 0.72073394 -0.644579 0.44132307 -0.3010958 -0.17334342 -0.110293515 -0.044680584
0.027127003 -0.18955266 -0.53733 0.2960632 0.52024 -0.08223475 0.21550524 -0.058405235
-0.19480208 -0.4215774 0.096287064 -0.599928 -0.19095688 0.23076458 -0.23440783 0.40430456
-0.06636249 -0.393701 0.37301844 -0.32572293 -0.64156026 0.18454976 -0.21128193 0.3096118
0.079331435 -0.31231278 0.2224891 -0.3004127 0.66072345 0.6858594 0.52810055 0.1714955
-0.19208181 0.48662955 -0.06929402 0.0688076 -0.27381054 -0.7337187 -0.17531978 0.20117909
0.55297416 -0.19898522 -0.32690614 0.029191405 -0.65590364 -0.41000012 0.3239868 0.66917247
-0.42961514 0.6265094 0.08943743 0.106385775 0.026248345 0.09519324 0.5505598 -0.17832057
-0.1712915 -0.020632522 -0.28164667 0.35428116 0.55872303 -0.31945166 -0.3901043 -0.16952842
0.056719095 -0.47486874 -0.2147985 0.11375502 -0.15004954 -0.08740747 0.37853873 0.0009175161
-0.33099654 0.35329247 -0.5071212 0.21222335 0.17171033 0.089096904 0.2722582 0.6494869
0.42734367 0.50114334 -0.25800624 -0.37038165 -0.5252057 -0.42648718 -0.21636946 -0.29228225
0.33026776 -0.29540077 -0.1569963 -0.2922152 0.0032835305 -0.17936271 0.22833554 -0.13252163
0.31473184 0.14152403 -0.1570695 0.38807738 0.6764576 -0.06788731 -0.27284712 -0.6099029
-0.260878 -0.2809593 0.6680839 0.26445565 0.022175571 -0.2498331 0.4687395 0.14851655
-0.15277074 -0.2060738 -0.057191532 -0.12680878 -0.28943282 -0.12526156 -0.14522114 -0.77590287
0.16982134 0.1250573 0.035713196 -0.29324374 0.4540829 -0.028380617 -0.30041343 -0.44040903
-0.3753897 -0.28270742 -0.026603654 0.39918634 0.62309706 -0.47194207 0.6288725 -0.012424237
-0.2619193 0.5179233 -0.26940566 -0.15730183 -0.048590876 -0.16643947
00000000: 4428 99bd 0582 383f 2103 25bf 19f5 e13e
00000010: 3b29 9abe f080 31be 91e1 e1bd fd02 37bd
00000020: 7339 de3c 181a 42be 758e 09bf 9995 973e
00000030: 732e 053f b16a a8bd 68ad 5c3e 543a 6fbd
00000040: 327a 47be fed8 d7be 2732 c53d e294 19bf
00000050: 338a 43be 8d4d 6c3e 9b08 70be 0201 cf3e
00000060: 0fe9 87bd 2d93 c9be 46fc be3e 28c5 a6be
00000070: 4b3d 24bf 9dfa 3c3e 4a5a 58be 7085 9e3e
00000080: 8578 a23d 76e7 9fbe 2fd4 633e b2cf 99be
00000090: 2c25 293f 7b94 2f3f 9931 073f 849c 2f3e
000000a0: 18b1 44be 8227 f93e 06ea 8dbd 00eb 8c3d
000000b0: e530 8cbe fdd4 3bbf 0787 33be e401 4e3e
000000c0: b78f 0d3f c8c2 4bbe 3e60 a7be d022 ef3c
000000d0: 4de9 27bf 89eb d1be 99e1 a53e e34e 2b3f
000000e0: 84f6 dbbe ec62 203f f92a b73d c9e0 d93d
000000f0: c506 d73c acf4 c23d 7df1 0c3f ab99 36be
00000100: 0a67 2fbe 8905 a9bc fe33 90be 5764 b53e
00000110: 7908 0f3f 2b8f a3be c0bb c7be dc98 2dbe
00000120: 4852 683d ff21 f3be 23f4 5bbe 64f8 e83d
00000130: 96a6 19be b002 b3bd d4cf c13e 7785 703a
00000140: 6178 a9be c0e2 b43e b2d2 01bf 1451 593e
00000150: d5d4 2f3e 7078 b63d 6d65 8b3e c644 263f
00000160: cacc da3e ee4a 003f 6519 84be aaa2 bdbe
00000170: e173 06bf 875c dabe f58f 5dbe 05a6 95be
00000180: db18 a93e c53e 97be a3c3 20be 3b9d 95be
00000190: 8030 573b dcaa 37be cbd0 693e c0b3 07be
000001a0: 8824 a13e adeb 103e d4d6 20be 14b2 c63e
000001b0: 532c 2d3f 8108 8bbd 9eb2 8bbe 9922 1cbf
000001c0: cd91 85be e6d9 8fbe 8c07 2b3f bb66 873e
000001d0: 8ba9 b53c 40d4 7fbe a0fe ef3e b914 183e
000001e0: ef6f 1cbe 0305 53be ab41 6abd 29da 01be
000001f0: 8a30 94be 9144 00be dab4 14be 92a1 46bf
00000200: a5e5 2d3e 050f 003e 0048 123d 0b24 96be
00000210: 8e7d e83e 787e e8bc cacf 99be 4b7d e1be
00000220: 1433 c0be 07bf 90be e8ef d9bc 2762 cc3e
00000230: 4a83 1f3f 64a2 f1be cafd 203f 078f 4bbc
00000240: 491a 86be 9f96 043f 8aef 89be bb13 21be
00000250: 3a07 47bd 1c6f 2abe

fa1.weight f4 [150, 2]
0.51832247 0.031352505 -0.013751621 0.01794529 0.009664245 -0.03575713 -0.030734884 -0.2868484
0.49775463 -0.09521685 -0.23521851 0.064743824 0.18713047 -0.09535223 -0.011704764 0.19341631
-0.4630687 0.053946022 -0.5447809 0.011096593 -0.0064084902 -0.030762913 -0.064213805 0.057316195
-0.0630439 -0.028973464 -0.050958425 -0.061635274 0.05828631 -0.020507578 -0.018384025 -0.055011027
0.26097116 0.25840992 0.53751296 -0.061512917 -0.015905358 -0.010309408 -0.013329424 0.07350814
-0.040507466 0.01533556 -0.5408061 0.04849356 0.026326034 0.021500096 -1.2589259 -0.09855382
0.44574305 0.035422582 -0.01556493 0.04185372 0.64081836 -0.11272717 0.026671961 -0.05739233
0.062392056 -0.0032079518 -0.062116407 -0.27982152 -0.8604375 0.055057433 0.008530892 -0.012250476
-1.3767062 -0.11730717 0.07283847 -0.056413334 0.3840311 0.10114091 -0.28834546 0.1391575
-0.2709079 -0.33201042 -0.046532173 -0.018959492 0.059323013 0.054240495 0.033041343 0.01140254
-0.02796667 0.00273484 0.80186814 0.19974612 0.28230634 0.07028335 0.34493566 0.024563834
-0.34603518 -0.10344629 -0.24824302 -0.047126893 -0.0011907337 -0.14270142 -0.9168919 0.09301706
-0.020615611 0.07302036 -0.027524572 0.04713145 -0.005704657 0.067464605 0.8100756 0.10978031
0.007592052 0.03759455 0.28434387 -0.0019769429 0.63303256 0.05041127 0.2662528 0.07508963
0.1444817 -0.24410544 0.047087997 0.040514074 -0.017674997 -0.002785802 -0.08044335 0.04324943
0.53986907 0.06525374 0.49977773 0.037368953 -0.03720445 0.20568372 0.295392 0.16147293
-0.043841988 -0.09391236 -0.16154578 -0.23544656 -0.057030268 -0.014435649 0.045278564 0.066997945
-0.40769187 -0.2656938 -1.1980093 -0.10997571 -0.08020601 -0.015208326 0.22457388 0.10855589
0.478451 0.010347293 0.45411268 0.047713358 -0.0040967083 0.001809448 0.16440716 0.06279177
0.049455017 -0.018936343 -0.049398642 -0.028091846 -0.0017261704 -0.0666878 -0.25618416 0.102737665
-0.17039794 -0.109241754 0.15232958 -0.016033113 0.29466012 0.7029776 0.019444533 0.07542141
0.02124064 -0.07509347 0.004149005 0.010298595 -0.019532595 -0.78407174 0.36355826 0.058383532
0.002881825 0.04709014 -0.06769194 0.032557674 -0.054651715 0.058593985 0.29464486 -0.09218857
0.07657041 0.03444177 -0.43579808 0.08156403 -0.5800876 -0.032797217 0.028081037 0.012937634
0.013217486 -0.052406214 -0.07819593 0.064772785 0.41076088 -0.030093675 0.028728878 0.010148831
-0.035712305 0.030797377 -1.1996782 -0.0834662 -0.739641 -1.1799254 0.311506 0.23294902
-0.0097422255 0.05882381 0.7874819 0.18341884 0.044162024 -0.07573735 -0.0048484 0.067349486
0.020152107 -0.045640983 -0.53398186 -0.077695146 0.56086135 0.14327882 0.12720405 -0.052836258
0.5946329 0.096045 -0.11173478 0.20540324 0.07607598 -0.12672919 0.00081192004 0.06853697
0.6700511 0.17117263 0.27161932 -0.08858181 0.34175652 -0.017697979 0.05251092 -0.33197787
0.37339512 0.07371914 0.08747924 0.020315135 0.15013172 0.028995132 0.068166986 0.031373225
0.052593127 0.034332603 0.020764722 -0.023074685 0.0007120669 -0.032315925 0.6918133 0.2063391
00000000: c8b0 043f 7c6b 003d 7b4e 61bc 0002 933c
00000010: c856 1e3c 1176 12bd b9c7 fbbc cbdd 92be
00000020: b2d9 fe3e 0d01 c3bd 1fdd 70be 6998 843d
00000030: 219f 3f3e 0848 c3bd 57c5 3fbc ed0e 463e
00000040: 5717 edbe 81f6 5c3d c376 0bbf 7cce 353c
00000050: 50fe d1bb 8102 fcbc 8782 83bd 63c4 6a3d
00000060: 291d 81bd c259 edbc c8b9 50bd 4575 7cbd
00000070: a0bd 6e3d 82ff a7bc 189a 96bc 3e53 61bd
00000080: 039e 853e 4e4e 843e 739a 093f f8f4 7bbd
00000090: f44b 82bc cbe8 28bc a863 5abc 708b 963d
000000a0: 28eb 25bd 0042 7b3c 4572 0abf 2fa1 463d
000000b0: b2a9 d73c f820 b03c 7c24 a1bf 96d6 c9bd
000000c0: 6f38 e43e 4517 113d 0c04 7fbc ce6e 2b3d
000000d0: ac0c 243f 81dd e6bd 287f da3c 3814 6bbd
000000e0: d08e 7f3d 803c 52bb c66d 7ebd c444 8fbe
000000f0: a245 5cbf e783 613d 28c5 0b3c 38b6 48bc
00000100: e937 b0bf be3e f0bd 562c 953d ab11 67bd
00000110: b99f c43e f722 cf3d 04a2 93be 4e7f 0e3e
00000120: 71b4 8abe 45fd a9be 8598 3ebd f050 9bbc
00000130: b0fc 723d 482b 5e3d 5c56 073d b8d1 3a3c
00000140: 5c1a e5bc 003b 333b 3b47 4d3f 3f8a 4c3e
00000150: 758a 903e b8f0 8f3d 689b b03e 183a c93c
00000160: 862b b1be a6db d3bd 6b33 7ebe 2108 41bd
00000170: 6512 9cba 5220 12be 6db9 6abf ba7f be3d
00000180: 12e2 a8bc b38b 953d 367b e1bc e80c 413d
00000190: 22ee babb e22a 8a3d 1d61 4f3f 80d4 e03d
000001a0: c0c6 f83b befc 193d 8595 913e 998f 01bb
000001b0: 6c0e 223f 0c7c 4e3d 4952 883e 98c8 993d
000001c0: 03f3 133e c7f6 79be 58df 403d 16f2 253d
000001d0: 28cb 90bc 0092 36bb 7cbf a4bd 5026 313d
000001e0: dc34 0a3f c1a3 853d dee2 ff3e 3010 193d
000001f0: b263 18bd c19e 523e 9f3d 973e 2959 253e
00000200: a893 33bd 2055 c0bd 426c 25be e718 71be
00000210: 9298 69bd 8083 6cbc 0476 393d 3836 893d
00000220: fdbc d0be 0509 88be 5e58 99bf f23a e1bd
00000230: 0c43 a4bd 582c 79bc b2f6 653e 8d52 de3d
00000240: 88f7 f43e b187 293c 7581 e83e 156f 433d
00000250: ae3d 86bb 002b ed3a 5a5a 283e f998 803d
00000260: 5891 4a3d 6420 9bbc 3b56 4abd df20 e6bc
00000270: ab40 e2ba 9d93 88bd 922a 83be 2068 d23d
00000280: cc7c 2ebe 24ba dfbd 49fc 1b3e e057 83bc
00000290: b1dd 963e 57f6 333f 244a 9f3c 8a76 9a3d
000002a0: da00 ae3c 9bca 99bd 60f4 873b 70bb 283c
000002b0: d202 a0bc edb8 48bf 4f24 ba3e 9223 6f3d
000002c0: 00dd 3c3b 97e1 403d 12a2 8abd 325b 053d
000002d0: 7ada 5fbd 3f00 703d b1db 963e 5ccd bcbd
000002e0: f2d0 9c3d d012 0d3d ed20 dfbe 0b0b a73d
000002f0: 9f80 14bf 6056 06bd 340a e63c 5ff8 533c
00000300: 288e 583c e6a7 56bd 3025 a0bd 98a7 843d
00000310: 404f d23e 0387 f6bc d358 eb3c 4847 263c
00000320: 1147 12bd c84a fc3c 0e8f 99bf 54f0 aabd
00000330: 1d59 3dbf cc07 97bf b77d 9f3e 308a 6e3e
00000340: db9d 1fbc 3cf1 703d 6a98 493f 26d2 3b3e
00000350: 3de3 343d 2f1c 9bbd 54df 9ebb 87ee 893d
00000360: 0816 a53c 0af2 3abd 09b3 08bf a21e 9fbd
00000370: 9c94 0f3f afb7 123e c741 023e d56a 58bd
00000380: dd39 183f 3eb3 c43d 34d5 e4bd 3a55 523e
00000390: b9cd 9b3d 4cc5 01be 08d7 543a 1c5d 8c3d
000003a0: 7888 2b3f e147 2f3e b011 8b3e 616a b5bd
000003b0: b6fa ae3e 5afb 90bc b115 573d 01f9 a9be
000003c0: a52d bf3e 0ffa 963d 5128 b33d ed6b a63c
000003d0: 21bc 193e 3387 ed3c 229b 8b3d 3681 003d
000003e0: e46b 573d 58a0 0c3d c71a aa3c 1f07 bdbc
000003f0: 00aa 3a3a b45d 04bd ad1a 313f 8f4a 533e

fa1.bias f4 [150]
0.7592958 -0.33479366 -0.3127206 1.026469 0.5409218 0.16620095 0.994167 0.36729646
0.58617926 0.55797076 -0.21985087 -0.5220238 -0.6755683 -0.6473817 -0.63535345 -0.28239554
0.51325047 0.80060345 -0.35165095 -0.67614454 -0.37505654 0.22427155 -0.45844015 -0.15416196
0.34202895 -0.46241364 0.59191376 -0.34516954 -0.5101211 0.9715779 0.33119902 -0.38573292
-0.17059815 -0.69384503 0.610708 0.39055634 0.8669431 -0.15002322 -0.60965484 -0.42200214
-0.22013518 0.76651585 0.9845962 0.30249554 0.96172035 0.749369 1.0514036 0.2935021
-0.16641086 -0.54294294 -0.4022989 0.5667002 -0.1991688 0.9572987 0.8108567 0.86953884
0.5159574 -0.47124726 -0.3303394 -0.20063347 1.0516753 0.8098525 0.9055433 0.8532103
0.8974971 0.6663844 -0.3016779 -0.5996007 0.79508805 -0.1745172 -0.6288992 0.93819267
0.8661743 0.32984185 -0.08325976 1.0498147 -0.5533007 -0.35245588 -0.20487127 0.9868549
0.83204174 0.9540745 0.12303564 -0.6217619 1.0526979 -0.5984451 0.16768444 0.87811583
-0.48279828 -0.06873882 -0.6973937 0.7355834 -0.16125238 0.90986204 0.5623178 -0.30431855
-0.40744773 -0.20861486 1.0095348 -0.3215028 -0.5196526 -0.113186955 -0.073916234 0.92383957
-0.36335498 0.66391784 -0.22229841 1.0068077 -0.61128336 0.6632777 1.1324738 0.9862045
0.5106916 0.31702733 1.0155648 -0.67417616 0.65955126 0.3222662 0.3363272 0.801968
0.42948318 0.65272564 0.85108835 -0.45656577 -0.6615307 -0.07673153 -0.120198786 0.78322333
0.6846971 0.85554403 0.9239129 0.37618795 0.88195366 0.713856 -0.14907044 0.12020922
0.72431153 0.71084446 -0.5153452 1.0603976 0.60971713 -0.27767843 0.057790793 0.28585804
1.024634 -0.58394253 -0.2306208 -0.19102791 0.877854 -0.14644447
00000000: 3661 423f 136a abbe ea1c a0be 5663 833f
00000010: da79 0a3f 9530 2a3e ba81 7e3f 480e bc3e
00000020: d80f 163f 2cd7 0e3f 9620 61be 5aa3 05bf
00000030: 0bf2 2cbf cfba 25bf 86a6 22bf 2696 90be
00000040: 6264 033f 59f4 4c3f 980b b4be cf17 2dbf
00000050: 6907 c0be 71a7 653e abb8 eabe a2dc 1dbe
00000060: 6b1e af3e 7bc1 ecbe a987 173f 10ba b0be
00000070: 4c97 02bf 54b9 783f eb92 a93e c97e c5be
00000080: 48b1 2ebe d49f 31bf 5c57 1c3f 00f7 c73e
00000090: fcef 5d3f b09f 19be 5712 1cbf aa10 d8be
000000a0: 1e6b 61be 623a 443f 7f0e 7c3f b2e0 9a3e
000000b0: 4e33 763f a6d6 3f3f 6594 863f e845 963e
000000c0: 9c67 2abe 4ffe 0abf 1ffa cdbe 4413 113f
000000d0: e8f2 4bbe 8711 753f 4e94 4f3f 199a 5e3f
000000e0: c915 043f 5247 f1be 3f22 a9be dc72 4dbe
000000f0: 4c9d 863f 7e52 4f3f b0d1 673f fd6b 5a3f
00000100: 5fc2 653f 2b98 2a3f 8775 9abe 6e7f 19bf
00000110: e48a 4b3f a3b4 32be 8aff 20bf 652d 703f
00000120: 99bd 5d3f 08e1 a83e 1884 aabd 5460 863f
00000130: 1da5 0dbf 1975 b4be c6c9 51be 86a2 7c3f
00000140: b000 553f 3a3e 743f 1cfa fb3d ca2b 1fbf
00000150: cebe 863f b333 19bf 78b5 2b3e 33cc 603f
00000160: 5631 f7be f0c6 8cbd 6588 32bf 324f 3c3f
00000170: 581f 25be b8ec 683f 0ff4 0f3f a4cf 9bbe
00000180: fd9c d0be 229f 55be 7038 813f 049c a4be
00000190: f407 05bf 90ce e7bd 6561 97bd c080 6c3f
000001a0: aa09 babe 85f6 293f 32a2 63be 13df 803f
000001b0: 117d 1cbf 91cc 293f e7f4 903f e677 7c3f
000001c0: afbc 023f 6851 a23e 07fe 813f cf96 2cbf
000001d0: 5ad8 283f 1300 a53e 1433 ac3e c64d 4d3f
000001e0: 38e5 db3e 0719 273f ede0 593f fdc2 e9be
000001f0: 135a 29bf 6c25 9dbd c82a f6bd 5381 483f
00000200: 4f48 2f3f ef04 5b3f 8e85 6c3f b59b c03e
00000210: b7c7 613f 44bf 363f eca5 18be 4030 f63d
00000220: 7b6c 393f e7f9 353f aaed 03bf 1cbb 873f
00000230: 6c16 1c3f de2b 8ebe 0ab6 6c3d fc5b 923e
00000240: 3527 833f 427d 15bf dc27 6cbe d29c 43be
00000250: 0abb 603f 8af5 15be

fca1.weight f4 [300, 300]
-0.030653792 0.016819732 0.011093592 -0.065736465 -0.056703977 -0.042522874 -0.026673362 -0.055173017
0.023350194 0.0016812496 -0.0023852643 -0.05520393 -0.028988251 0.030358713 0.026484972 -0.049998514
-0.03184271 0.007880844 -0.036389 -0.04761342 -0.006798975 -0.04072726 -0.03441424 -0.0059252214
-0.020477945 0.004872693 -0.031355318 0.023505183 0.009100653 -0.034995545 0.055224694 0.023380667
-0.00063730025 0.055362266 -0.049921557 0.049890164 0.05071708 -0.008903752 0.0027323796 -0.08031812
0.054257914 0.018789949 -0.036402807 0.017931804 -0.0073797037 -0.06994575 0.020619337 -0.04491843
-0.05149921 -0.040569067 -0.03302897 -0.04642359 0.032598123 0.049110256 0.036681645 -0.072709985
-0.02284535 -0.013487639 0.001316511 0.003222005 -0.015224304 -0.06613777 -0.055475954 0.050577104
-0.045518853 0.003936817 -0.020968545 -0.036147214 -0.07261154 0.020942502 0.005120516 0.020456765
-0.07604565 -0.028978605 -0.020076267 -0.08291375 0.018117253 -0.0508964 0.010333623 0.03969661
0.05028736 0.027128845 0.0026541464 0.0022931038 -0.082722455 -0.041539386 -0.029827854 -0.056715436
-0.0074549927 -0.045295015 -0.03895798 -0.01934853 0.00073230267 0.04872732 0.012352899 0.030577146
-0.061088935 -0.0072930483 0.02675017 0.02203662 0.002905605 -0.0069357865 0.01129812 -0.03573531
-0.030064706 0.008668551 -0.02273482 0.03784418 0.002834311 -0.019820452 0.037028592 -0.056007333
-0.014781814 0.04573462 -0.0011654701 -0.017924964 0.023713104 -0.023695145 0.03262465 -0.039439708
0.025927044 -0.020381555 0.019741785 -0.024106381 0.052865982 -0.060478102 -0.0011564419 -0.0057035275
0.024458352 -0.0041835452 0.0055820793 -0.012395777 -0.005198263 0.011029147 0.05609852 -0.030507727
-0.05797785 0.03310944 0.010210805 -0.061732113 -0.055586897 -0.05419187 -0.020075822 0.017891869
0.0083276555 -0.045089632 0.029486984 -0.022348389 -0.048882715 -0.048136063 -0.012018408 0.022921711
-0.036139045 0.02204008 -0.060365703 -0.02539915 0.0009866062 -0.07062486 -0.04760572 0.00030472077
0.012743294 0.034386735 0.033339128 0.034831956 0.018645234 0.0034920424 0.019424919 -0.05989838
-0.0402432 -0.031277448 -0.055419996 -0.0032915852 0.019941643 0.030289095 0.00055520626 -0.00735702
-0.07011888 -0.0013840215 0.034148872 0.026320446 0.0035474272 -0.0053510442 -0.047536362 0.05275189
-0.05331788 0.017102629 0.0151583245 0.017025016 0.03655052 -0.039925136 -0.044401426 -0.052591022
0.019265948 -0.03317283 -0.019385925 -0.00024387141 -0.03800317 -0.012516258 -0.032575093 -0.051323414
0.03998059 -0.05630506 -0.013107138 -0.07454901 -0.04374883 -0.006402754 -0.034503493 -0.025408108
0.034481525 0.04774315 0.00040561077 -0.008082345 -0.07955665 -0.041152388 -0.017586697 -0.0071841017
0.04132086 -0.03420047 -0.063643135 0.010989973 -0.010608367 -0.030048624 -0.010982105 -0.061027393
0.029620238 -0.039628286 -0.055593513 -0.052518845 0.006666459 -0.07690359 -0.06279226 -0.05356478
-0.00042058527 0.055397645 -0.022856047 0.029783852 -0.0850493 -0.02411956 0.039807543 -0.00975161
-0.023975346 -0.02743246 0.04555638 -0.054276317 -0.08090604 -0.00940242 -0.029279716 0.051654756
-0.07543598 -0.025207538 -0.017254103 -0.08024341 -0.059606414 -0.052909605 0.041132152 -0.07749825
00000000: a91d fbbc 89c9 893c e6c1 353c d7a0 86bd
00000010: 6e42 68bd 772c 2ebd 1882 dabc 1afd 61bd
00000020: e848 bf3c 605d dc3a 1852 1cbb 841d 62bd
00000030: c578 edbc d6b2 f83c 03f7 d83c 3ecb 4cbd
00000040: 806d 02bd a81e 013c a20c 15bd 4a06 43bd
00000050: f0c9 debb a1d1 26bd f2f5 0cbd 5c28 c2bb
00000060: 5dc1 a7bc 1dab 9f3b 6f6e 00bd f18d c03c
00000070: e81a 153c 7d57 0fbd 4a33 623d d088 bf3c
00000080: 7f10 27ba 8bc3 623d 8c7a 4cbd a159 4c3d
00000090: b6bc 4f3d 0be1 11bc b911 333b d47d a4bd
000000a0: 8c3d 5e3d 61ed 993c 1c1b 15bd b8e5 923c
000000b0: 71d1 f1bb b83f 8fbd e2e9 a83c 63fc 37bd
000000c0: d6f0 52bd c02b 26bd 6349 07bd aa26 3ebd
000000d0: 9c85 053d d627 493d 7e3f 163d f9e8 94bd
000000e0: 2c26 bbbc 42fb 5cbc c78e ac3a 4628 533b
000000f0: 5c6f 79bc 3d73 87bd c13a 63bd f029 4f3d
00000100: fa71 3abd 6a00 813b 3ac6 abbc 1a0f 14bd
00000110: 5cb5 94bd 9c8f ab3c 00ca a73b f294 a73c
00000120: d2bd 9bbd 8a64 edbc fc76 a4bc afce a9bd
00000130: a26a 943c be78 50bd 5b4e 293c ea98 223d
00000140: 1efa 4d3d 503d de3c 30f1 2d3b e647 163b
00000150: 646a a9bd 3425 2abd 8b59 f4bc 724e 68bd
00000160: 0349 f4bb 4487 39bd 6792 1fbd cf80 9ebc
00000170: 00f8 3f3a 4c96 473d d063 4a3c ec7c fa3c
00000180: 6438 7abd 86fa eebb 2c23 db3c 2486 b43c
00000190: f66b 3e3b 9845 e3bb c01b 393c 305f 12bd
000001a0: 424a f6bc 8a06 0e3c 603e babc 8002 1b3d
000001b0: d9bf 393b 805e a2bc 4bab 173d f267 65bd
000001c0: 6c2f 72bc 3a54 3b3d b0c2 98ba 60d7 92bc
000001d0: fc41 c23c 521c c2bc 6da1 053d 888b 21bd
000001e0: f464 d43c 38f7 a6bc 86b9 a13c bf7a c5bc
000001f0: 008a 583d e3b7 77bd c093 97ba a8e4 babb
00000200: e25c c83c 1f16 89bb e0e9 b63b a817 4bbc
00000210: 3156 aabb 98b3 343c 90c7 653d 57eb f9bc
00000220: 2f7a 6dbd c49d 073d 384b 273c d0da 7cbd
00000230: 16af 63bd 4bf8 5dbd 0d76 a4bc f891 923c
00000240: b870 083c e8af 38bd b08e f13c f813 b7bc
00000250: 3e39 48bd 522a 45bd dbe8 44bc 50c6 bb3c
00000260: 8906 14bd 668d b43c 0742 77bd e111 d0bc
00000270: 0351 813a c4a3 90bd 37fe 42bd eec2 9f39
00000280: 40c9 503c 1bd9 0c3d 9c8e 083d f4ab 0e3d
00000290: e4bd 983c c0da 643b 0221 9f3c 0158 75bd
000002a0: 0ed6 24bd c81c 00bd 1400 63bd a3b7 57bb
000002b0: a85c a33c d620 f83c 438b 113a 2813 f1bb
000002c0: 7d9a 8fbd 0e68 b5ba b0df 0b3d fa9d d73c
000002d0: f47b 683b d057 afbb 7db5 42bd 5e12 583d
000002e0: d963 5abd d01a 8c3c 9f5a 783c 0c78 8b3c
000002f0: 00b6 153d 8a88 23bd 45de 35bd af69 57bd
00000300: 9fd3 9d3c 3ce0 07bd 3bcf 9ebc bcb7 7fb9
00000310: 36a9 1bbd fe10 4dbc 766d 05bd 8038 52bd
00000320: b0c2 233d 22a0 66bd 52bf 56bc 27ad 98bd
00000330: f931 33bd 32ce d1bb 8953 0dbd aa24 d0bc
00000340: 803c 0d3d 528e 433d 28a8 d439 d06b 04bc
00000350: 99ee a2bd 688f 28bd fa11 90bc 9d68 ebbb
00000360: 1040 293d cb15 0cbd 5557 82bd 4a0f 343c
00000370: b7ce 2dbc 8828 f6bc 49ee 33bc dcf7 79bd
00000380: 24a6 f23c 4551 22bd 06b6 63bd 001e 57bd
00000390: 5072 da3b a17f 9dbd 3a99 80bd be66 5bbd
000003a0: 0082 dcb9 a4e8 623d 9b3c bbbc 44fd f33c
000003b0: 542e aebd 6296 c5bc 3c0d 233d 38c5 1fbc
000003c0: f267 c4bc 0aba e0bc 5499 3a3d d850 5ebd
000003d0: 11b2 a5bd 9c0c 1abc 04dc efbc f093 533d
000003e0: 2e7e 9abd 0a80 cebc 7a58 8dbc a856 a4bd
000003f0: db25 74bd beb7 58bd 307a 283d 67b7 9ebd

fca1.bias f4 [300]
-0.04930556 -0.036351588 0.027116878 0.03572712 0.040538386 0.04868011 -0.023000278 0.09624701
0.042672087 0.023228932 0.06857008 0.018197345 -0.056892015 -0.011253933 0.09176714 0.040332444
0.052933816 -0.0442126 0.027960474 0.03893165 -0.044679947 0.095535405 0.020489838 0.019082114
0.0006605497 0.027513918 0.09142758 -0.034495812 -0.011466126 -0.005388209 0.078666404 0.041854575
0.1425095 -0.19465427 0.040945176 0.03989708 0.004473993 -0.066958085 0.05208967 -0.10421428
0.09041474 -0.08877854 -0.08628477 0.058953445 0.05731154 -0.027466124 0.030844478 0.4861813
-0.009692817 0.021912735 -0.07695431 -0.018261336 0.07608795 0.12732477 0.013617131 0.07307226
-0.06812095 -0.03829089 0.67042017 0.005836636 -0.038791314 0.09849366 0.07313755 -0.04681807
-0.05305981 -0.01397115 -0.053254526 0.09865388 -0.07761708 0.08114287 0.0563266 -0.05566587
0.0511653 0.076432414 0.05990455 0.034941588 -0.06476468 0.001849645 -0.0104370015 0.04004931
0.02265285 0.09153875 -0.03910432 0.03504073 0.13183632 -0.11215691 0.0395327 -0.045398835
0.07238406 0.08730668 0.13084994 0.041324228 0.0077706124 -0.0045296787 0.07464449 0.045019433
0.095138 0.031352688 0.022786172 -0.064428896 0.05407723 0.034451727 0.022718044 0.004396981
0.002079349 0.020688016 0.033598755 -0.077422425 0.056332223 -0.06656506 0.044771172 -0.045305993
-0.0458049 0.071057424 0.088103496 0.058411483 0.10354456 0.08122679 -0.045182213 -0.037246954
-0.055090256 0.039708916 0.014617579 -0.04276149 -0.0486125 0.078636 0.5290779 0.012715566
0.023695946 -0.028736291 -0.0151337385 0.029105913 0.17266805 0.085368775 -0.01927931 0.04897124
0.057079695 0.00054367 -0.013015866 -0.01442884 0.10873395 0.058440074 0.08824597 -0.07940333
-0.048163038 0.03333993 -0.010735614 0.090735085 0.06009823 0.036372457 0.08369092 0.078601144
0.07117577 0.025450286 0.00039934737 -0.07852641 -0.056843363 0.00075116014 0.015475895 -0.03808674
-0.009668894 0.07049346 -0.03848098 0.079645105 0.0045588426 0.034216776 0.06482189 -0.08806177
0.03534924 0.0055917385 0.035496473 0.08842546 -0.041469518 0.019977203 0.12393123 -0.06383079
-0.0045264424 -0.039872065 -0.054196008 -0.0065422924 0.011963459 -0.033470437 0.039573412 -0.06597678
0.053499 0.05372133 0.0065164384 0.60826075 0.062328454 -0.04274857 0.030062407 0.026133018
-0.08675195 0.014238314 -0.074656226 0.10287325 0.029109018 0.04765934 0.093083106 0.018584056
0.110665664 0.010549277 0.07653245 0.02614163 -0.03853537 0.0805195 -0.08234861 0.027576866
0.005496871 -0.005592978 -0.17032409 -0.022787467 -0.070865124 0.010138879 0.098570816 -0.06514115
0.0133846365 0.01590509 0.02149427 -0.026803453 0.031644024 0.5959709 -0.04425981 -0.06837426
0.042768206 -0.070077345 0.016498672 0.11879842 -0.013589568 0.13565841 0.018522793 -0.060621936
-0.041698165 0.039631467 -0.008930456 -0.013413547 -0.0061604395 0.0349163 -0.04283953 0.032901768
0.07564425 -0.028920002 0.042198896 0.04292848 -0.06012409 -0.028593987 0.008237921 -0.05745403
0.06842511 -0.050074138 0.048793256 0.063149214 -0.06841018 0.08693835 -0.14577277 -0.06655233
00000000: a0f4 49bd 67e5 14bd 3724 de3c 9a56 123d
00000010: 940b 263d cc64 473d 146b bcbc 271d c53d
00000020: edc8 2e3d 9a4a be3c 786e 8c3d 9912 953c
00000030: 9a07 69bd 6b62 38bc 69f0 bb3d a233 253d
00000040: 21d1 583d 4518 35bd 5d0d e53c cb76 1f3d
00000050: 5202 37bd 11a8 c33d 4eda a73c 1852 9c3c
00000060: bd28 2d3a de64 e13c 623e bb3d 7b4b 0dbd
00000070: 6bdc 3bbc 938f b0bb da1b a13d b46f 2b3d
00000080: 03ee 113e 7353 47be 21b6 273d 1f6b 233d
00000090: 939a 923b 5221 89bd fa5b 553d 4c6e d5bd
000000a0: 5d2b b93d 86d1 b5bd 12b6 b0bd 2b79 713d
000000b0: 81bf 6a3d a300 e1bc 8fad fc3c c1ec f83e
000000c0: 9fce 1ebc 5682 b33c 399a 9dbd cc98 95bc
000000d0: 00d4 9b3d 6d61 023e 631a 5f3c e9a6 953d
000000e0: ff82 8bbd e9d6 1cbd a8a0 2b3f 4041 bf3b
000000f0: a4e3 1ebd 0bb7 c93d 24c9 953d 4ec4 3fbd
00000100: 3e55 59bd 40e7 64bc 6b21 5abd 0c0b ca3d
00000110: b4f5 9ebd 3c2e a63d b9b6 663d e501 64bd
00000120: b592 513d 9988 9c3d 795e 753d e91e 0f3d
00000130: 58a3 84bd ca6f f23a f5ff 2abc bf0a 243d
00000140: 7892 b93c ab78 bb3d da2b 20bd de86 0f3d
00000150: 1a00 073e 86b2 e5bd 0aed 213d 21f4 39bd
00000160: 183e 943d d8cd b23d 87fd 053e 9843 293d
00000170: 9fa0 fe3b b36d 94bb 36df 983d 4c66 383d
00000180: b6d7 c23d ad6b 003d 11aa ba3c 4cf3 83bd
00000190: 1680 5d3d 411d 0d3d 311b ba3c 8d14 903b
000001a0: b045 083b ea79 a93c d99e 093d a68f 9ebd
000001b0: 9ebc 663d 4353 88bd fa61 373d c792 39bd
000001c0: eb9d 3bbd 8e86 913d 9b6f b43d e140 6f3d
000001d0: 2c0f d43d 3b5a a63d fc10 39bd 4390 18bd
000001e0: 52a6 61bd d1a5 223d 927e 6f3c ac26 2fbd
000001f0: e71d 47bd e90b a13d a671 073f f354 503c
00000200: 001e c23c 5f68 ebbc 80f3 77bc 866f ee3c
00000210: e5cf 303e d3d5 ae3d a5ef 9dbc 1196 483d
00000220: 66cc 693d 1385 0e3a 8040 55bc f166 6cbc
00000230: e8af de3d dc5e 6f3d 4eba b43d 379e a2bd
00000240: 9b46 45bd 738f 083d 6ee4 2fbc 51d3 b93d
00000250: 9029 763d 49fb 143d 2566 ab3d a3f9 a03d
00000260: 9ac4 913d 1e7d d03c 7f5f d139 74d2 a0bd
00000270: 96d4 68bd 81e9 443a 9c8e 7d3c d700 1cbd
00000280: 486a 1ebc e05e 903d 3b9e 1dbd f91c a33d
00000290: 5862 953b e426 0c3d 57c1 843d bb59 b4bd
000002a0: 5dca 103d e73a b73b c064 113d 6818 b53d
000002b0: f1db 29bd 3ba7 a33c a8cf fd3d b8b9 82bd
000002c0: 8d52 94bb e450 23bd a2fc 5dbd ba60 d6bb
000002d0: 6202 443c 4c18 09bd bb17 223d d61e 87bd
000002e0: c421 5b3d e60a 5c3d d987 d53b fab6 1b3f
000002f0: 1f4c 7f3d 2019 2fbd 7045 f63c e914 d63c
00000300: 02ab b1bd d147 693c 5de5 98bd 36af d23d
00000310: 0976 ee3c 7136 433d 5ba2 be3d 973d 983c
00000320: aea4 e23d e0d6 2c3c 0cbd 9c3d f926 d63c
00000330: 44d7 1dbd 68e7 a43d 63a6 a8bd e1e8 e13c
00000340: 191f b43b 4d45 b7bb 7069 2ebe c8ac babc
00000350: bc21 91bd 8a1d 263c 7fdf c93d b968 85bd
00000360: 3c4b 5b3c 644b 823c c014 b03c ea92 dbbc
00000370: 2a9d 013d 8d91 183f c649 35bd ce07 8cbd
00000380: b72d 2f3d b684 8fbd 3928 873c 964c f33d
00000390: c8a6 5ebc 0aea 0a3e 1dbd 973c b54e 78bd
000003a0: b2cb 2abd 9b54 223d 0c51 12bc 7ec4 5bbc
000003b0: 83dd c9bb 6504 0f3d 8178 2fbd 01c4 063d
000003c0: 5feb 9a3d a4e9 ecbc c0d8 2c3d c6d5 2f3d
000003d0: ae44 76bd f03d eabc 58f8 063c eb54 6bbd
000003e0: 7722 8c3d 8a1a 4dbd 70db 473d 6054 813d
000003f0: a31a 8cbd bc0c b23d 7545 15be 974c 88bd

fca2.weight f4 [1, 300]
0.00266561 -0.005143918 -3.750361 3.8351864e-06 -0.0059590796 -2.968192 -0.0039963843 -3.4865081
-3.1755633 -3.4350224 -2.9283328 0.025390975 0.023583757 -0.0002624181 -3.3071847 -3.5601609
-3.5468962 -0.005050489 0.0032571503 -0.0046136784 -0.0036313122 -3.2804193 -3.3261786 -0.006167271
-2.9704123 -3.1430569 -3.5959516 0.015083157 -0.006059792 -3.4278765 -3.7952 -3.8070674
-3.9103553 -1.0655218 -0.005313992 -3.9250762 -0.005760771 -0.94182485 -3.2094758 -1.2332094
-3.4486942 0.029473945 -1.6667016 -3.1794512 -3.6690886 -0.005679848 -3.508122 0.48410332
-3.510712 -3.6165073 0.025940463 0.0032412182 -3.8365724 -3.511456 -3.4464314 -3.434495
-0.019938577 -0.030978983 1.0182797 -0.00036176387 0.0026435312 -3.5713806 -3.291226 0.028800592
-0.0062392494 -0.019642778 -0.00029971456 -4.011206 -0.85616714 -3.7085142 -3.8247802 0.04725033
-3.8470595 -3.8295128 -4.0033336 -4.0188236 -1.2358042 -3.4186616 0.002610289 -2.9603202
-0.0024211204 -3.3097653 -1.4585268 -3.8671453 -3.4237258 -1.0250671 -3.6606085 -0.0030564799
-3.6126823 -3.6189137 -3.8674524 -3.47625 -3.370867 -3.7086432 -3.9895356 0.00011138544
-3.8938324 -2.5202358 -0.0063985074 -0.0028027853 -3.6711085 -2.805043 0.030751737 0.010295706
0.0013805353 -3.4127352 -0.0061489595 -1.2419082 -3.5748265 -0.020333828 -3.8824844 -0.0027656564
-0.0047186245 -3.827085 -3.7101302 -3.801154 -3.245488 -3.6324847 0.026100965 -0.0038266217
-0.024913507 -0.0053336015 -3.585197 -0.004678607 -1.7446307 -3.6983845 0.48187536 -3.2642496
0.0040823864 -2.9247825 0.0016969163 0.0047843205 -3.8306708 -3.8253074 -3.4776661 -3.619517
-3.3112967 -3.3906136 -0.0070232637 0.020381112 -3.7946093 -3.099408 -3.3570073 -0.028403929
0.02692209 -3.735674 0.028745776 -3.6888325 -3.5932472 -3.635451 -3.3349407 -3.5227396
-3.3015325 -3.6417484 -0.0044250037 -0.029889321 0.00048039225 0.016473683 -3.7505896 -0.004740318
0.024671638 -3.3569438 -0.0036906854 -3.6492357 0.0086116055 -2.8947363 -3.641024 -1.271336
-3.4734643 0.017568348 -3.7210588 -3.8410347 -3.2190351 -3.7841628 -3.953525 -1.0371782
-0.010280946 -0.0040675285 0.03126636 -3.1681025 -0.0035231458 0.0010514151 -2.5841796 3.2945776
-3.629841 -2.8307414 -3.1167254 0.9748648 -3.1767247 -0.004200101 -3.3823829 -3.666288
0.029514926 -0.0063656503 0.016129784 -3.6716084 -3.6228936 -3.701323 -3.2592814 -0.005867031
-3.658135 -3.6379657 -3.0607138 0.018594975 0.019082114 -3.799131 0.017973827 -3.8358908
-3.291965 0.0039394763 -1.3015349 -0.0126319695 0.02244827 -0.304984 -3.5525022 -0.0015041272
-0.96439195 -1.5552797 0.023561833 -0.0042116204 -0.008739231 0.5242025 -0.019858038 0.025810936
-3.520081 0.027067378 0.022997444 -3.6793158 -0.0007624802 -3.6310878 0.0077962657 0.59618354
0.0024734228 -3.6432488 -0.012912489 0.02568714 -3.7872653 -3.5018508 0.017884418 -3.0527146
-3.2116568 -1.5377781 -3.6132388 -3.766831 0.005513138 -0.0023482873 -3.492538 -0.025398426
-2.246511 0.03849206 -3.2485275 -3.084045 -0.004100631 -3.668429 -1.5687455 -1.121621
00000000: 84b1 2e3b 508e a8bb ea05 70c0 00b0 8036
00000010: 6244 c3bb dcf6 3dc0 1af4 82bb f322 5fc0
00000020: 6e3c 4bc0 68d7 5bc0 ce69 3bc0 bc00 d03c
00000030: b932 c13c 2995 89b9 eaa8 53c0 add9 63c0
00000040: 5900 63c0 937e a5bb ea75 553b 572e 97bb
00000050: 4ffb 6dbb 64f2 51c0 1ce0 54c0 d216 cabb
00000060: 3c1b 3ec0 d827 49c0 1224 66c0 591f 773c
00000070: 3891 c6bb 5462 5bc0 8fe4 72c0 fea6 73c0
00000080: 4343 7ac0 0563 88bf ff20 aebb 7334 7bc0
00000090: dac4 bcbb 6f1b 71bf 0d68 4dc0 ced9 9dbf
000000a0: 68b7 5cc0 5873 f13c 7a56 d5bf 217c 4bc0
000000b0: 59d2 6ac0 051e babb 1285 60c0 64dc f73e
000000c0: 81af 60c0 db74 67c0 1881 d43c 9e6a 543b
000000d0: 678a 75c0 b2bb 60c0 5592 5cc0 c4ce 5bc0
000000e0: 3a56 a3bc a3c7 fdbc fd56 823f 20ab bdb9
000000f0: 183f 2d3b 8091 64c0 72a3 52c0 38ef eb3c
00000100: 9e72 ccbb e4e9 a0bc 0223 9db9 cd5b 80c0
00000110: c52d 5bbf 4c58 6dc0 33c9 74c0 9089 413d
00000120: 3936 76c0 bd16 75c0 4f1b 80c0 349a 80c0
00000130: d52e 9ebf 5acb 5ac0 6211 2b3b e375 3dc0
00000140: a9ab 1ebb 32d3 53c0 02b1 babf 4f7f 77c0
00000150: 531e 5bc0 6635 83bf 6947 6ac0 394f 48bb
00000160: 3036 67c0 489c 67c0 5784 77c0 e17a 5ec0
00000170: 49bc 57c0 695a 6dc0 8d54 7fc0 9a97 e938
00000180: 8d34 79c0 8b4b 21c0 92aa d1bb efae 37bb
00000190: 71f3 6ac0 d385 33c0 11eb fb3c 52af 283c
000001a0: 14f3 b43a 416a 5ac0 367d c9bb d9f6 9ebf
000001b0: f5c9 64c0 2193 a6bc a07a 78c0 0440 35bb
000001c0: b19e 9abb f6ee 74c0 c672 6dc0 1b46 73c0
000001d0: 13b6 4fc0 a17a 68c0 b1d1 d53c 0fc8 7abb
000001e0: 6917 ccbc 7ec5 aebb de73 65c0 004f 99bb
000001f0: 0f50 dfbf 55b2 6cc0 5eb8 f63e 77e9 50c0
00000200: 8ac5 853b a32f 3bc0 106b de3a cac5 9c3b
00000210: b629 75c0 d6d1 74c0 1592 5ec0 2ba6 67c0
00000220: 49ec 53c0 d0ff 58c0 6823 e6bb 4af6 a63c
00000230: e1da 72c0 b35c 46c0 35d9 56c0 5baf e8bc
00000240: b78b dc3c 4815 6fc0 437c eb3c d515 6cc0
00000250: c3f7 65c0 3bab 68c0 ab6f 55c0 9174 61c0
00000260: 4f4c 53c0 6812 69c0 9fff 90bb 73da f4bc
00000270: 28dd fb39 d1f3 863c a909 70c0 ab54 9bbb
00000280: 2d1c ca3c 2bd8 56c0 6ddf 71bb 148d 69c0
00000290: b117 0d3c 5c43 39c0 8a06 69c0 23bb a2bf
000002a0: 3d4d 5ec0 7feb 8f3c d425 6ec0 83d3 75c0
000002b0: ac04 4ec0 b92f 72c0 8e06 7dc0 41c2 84bf
000002c0: 6a71 28bc e748 85bb 2811 003d 31c2 4ac0
000002d0: 94e4 66bb a3cf 893a 3363 25c0 5cda 5240
000002e0: 514f 68c0 de2a 35c0 6e78 47c0 bd90 793f
000002f0: 754f 4bc0 00a1 89bb f678 58c0 76a4 6ac0
00000300: 49c9 f13c f296 d0bb 9c22 843c a2fb 6ac0
00000310: 7ddd 67c0 7ae2 6cc0 1198 50c0 3940 c0bb
00000320: e21e 6ac0 6ed4 68c0 bce2 43c0 7d54 983c
00000330: 1852 9c3c f624 73c0 d93d 933c 3c7f 75c0
00000340: 8eaf 52c0 b916 813b b298 a6bf 52f6 4ebc
00000350: 6fe5 b73c dd26 9cbe 325c 63c0 2226 c5ba
00000360: 64e2 76bf 6813 c7bf bf04 c13c a201 8abb
00000370: fe2e 0fbc 2332 063f 53ad a2bc 7571 d33c
00000380: 0249 61c0 68bc dd3c 2365 bc3c e979 6bc0
00000390: 2ee1 47ba be63 68c0 d177 ff3b 7c9f 183f
000003a0: 2619 223b fd2a 69c0 e78e 53bc d66d d23c
000003b0: 8e62 72c0 531e 60c0 5882 923c ad5f 43c0
000003c0: c98b 4dc0 ead5 c4bf 4e3f 67c0 c213 71c0
000003d0: 8ea7 b43b b9e5 19bb be85 5fc0 5c10 d0bc
000003e0: d6c6 0fc0 daa9 1d3d e0e7 4fc0 fe60 45c0
000003f0: 965e 86bb 8ac7 6ac0 a7cc c8bf 4791 8fbf
