src/Models/stage_2/120_actor.pt (torch_old, 382508 bytes, 6 tensors)

fa1.weight f4 [300, 14]
0	0x3c52b565	0.012860631
1	0x3d680fdc	0.05665575
2	0x3d03ddd0	0.03219396
3	0xbd26a5f9	-0.040685628
4	0xbcf3d182	-0.029762987
5	0x3ce9ead6	0.028554361
6	0xbc9a4776	-0.018832903
7	0xbc696b93	-0.014246839
8	0x3ce44065	0.027862737
9	0xbd24ddb4	-0.040250495
10	0x3c952f40	0.018211007
11	0x3d819d05	0.06328777
12	0xbea152bf	-0.31508443
13	0x3cfd4539	0.030916797
14	0x3d6de489	0.058079276
15	0xbbeb6f5b	-0.0071849055
16	0x3cb28331	0.021791073
17	0xbc7be179	-0.015373581
18	0x3d63248e	0.055454783
19	0x3c064a8f	0.008196487
20	0x3d035466	0.03206291
21	0xba7b584e	-0.00095880486
22	0xba8d30f3	-0.0010772034
23	0xbc9c5a04	-0.019085892
24	0x3d9bee34	0.07613793
25	0xbca85458	-0.02054803
26	0x3f04ece1	0.5192395
27	0x3ca3c100	0.01998949
28	0xbd962e8c	-0.07333097
29	0xbd5327ae	-0.051551513
30	0xbc9084bc	-0.017641418
31	0xbd204bad	-0.03913467
32	0xbd35dff6	-0.04440304
33	0xbd66691f	-0.056252595
34	0xbd092c06	-0.03348925
35	0x3a6c9737	0.00090252183
36	0xbd8c7b5b	-0.06859466
37	0xbdbac394	-0.09119335
38	0xbd9b594a	-0.0758539
39	0xbda12566	-0.07868461
40	0x3db0d883	0.08635046
41	0xbb070474	-0.002060202
42	0xbd4a549c	-0.049397096
43	0x3d6deb06	0.058085464
44	0x3c305a89	0.010763773
45	0x3d30e109	0.04318336
46	0xbc1110bb	-0.0088540865
47	0x3d16b57e	0.03679418
48	0x3c764465	0.015030955
49	0xbc04dc9b	-0.008109237
50	0xbc1a8f54	-0.009433586
51	0x3d35f03b	0.044418555
52	0x3d223453	0.03960068
53	0xbd553bdc	-0.05205904
54	0xbea50845	-0.32232872
55	0x3d53ae41	0.051679853
56	0x3bf42691	0.0074508865
57	0xbd87ce58	-0.06631154
58	0x3d079e6a	0.03311006
59	0x3b845ded	0.004039517
60	0xbd29bd53	-0.04144032
61	0xbcad8a71	-0.021184178
62	0xbda5781e	-0.08079551
63	0x3bbf7a42	0.0058434317
64	0x3c37bc9c	0.011214402
65	0xbd53b972	-0.051690526
66	0xbd848257	-0.06470173
67	0xbc9f44ce	-0.019441988
68	0x3e8eac07	0.2786562
69	0xbc9af2e4	-0.018914647
70	0xbdb3cbd9	-0.08779115
71	0xbbbcca47	-0.005761418
72	0x3bce9a7c	0.006305037
73	0xbd6b0364	-0.05737628
74	0xbc8866dc	-0.01665061
75	0xbca0ffd5	-0.01965324
76	0xbcf00cbb	-0.029302945
77	0xbc7f0dc2	-0.015567245
78	0xbd37f0c7	-0.044907358
79	0xbc997af1	-0.01873538
80	0xbc42edd6	-0.011897525
81	0xbcf0eff5	-0.029411295
82	0x3e8d9271	0.27650788
83	0xbd645ab1	-0.055750553
84	0xbd401bff	-0.0469017
85	0xbce990cd	-0.02851143
86	0xbd5cd687	-0.053915527
87	0x3ba09835	0.004900957
88	0x3d152426	0.036411427
89	0xbc4e7472	-0.012601005
90	0x3c40c714	0.011766214
91	0x3b028995	0.001991843
92	0x3cd47178	0.025933012
93	0xbcb3a99e	-0.021931466
94	0x3c5f06a2	0.013612421
95	0x3c6260bd	0.0138170095
96	0x3b807fac	0.0039214697
97	0xbc60ae57	-0.013713441
98	0xbc858fdd	-0.01630395
99	0xbd7c1441	-0.061542753
100	0xbd0e9b19	-0.03481588
101	0xbcac4bdc	-0.021032266
102	0xbde6188e	-0.11235152
103	0xbdbf775e	-0.09348939
104	0xbca6281f	-0.020282803
105	0x3c51e0b1	0.012809918
106	0xbd9a0a21	-0.07521463
107	0x3c27d1f6	0.01024293
108	0xbcf50119	-0.02990775
109	0xbb168540	-0.0022967607
110	0x3dd63022	0.10458399
111	0x3bc34f15	0.005960355
112	0xbd7a6afd	-0.06113719
113	0xbbef351e	-0.0073000332
114	0xbd533ede	-0.051573627
115	0x3d20deb9	0.039274905
116	0x3cc449cc	0.02396097
117	0xbd2a7cdf	-0.041622993
118	0x3cddb371	0.027063103
119	0x3d32dbe7	0.043666746
120	0xbd668c5d	-0.056286205
121	0xbd864888	-0.06556803
122	0x3b6c9ae4	0.0036103064
123	0xbd0c1c2b	-0.03420655
124	0xbc4942e4	-0.012284014
125	0xbcc21a18	-0.023694083
126	0x3cc0d480	0.023538828
127	0xbd3e52f4	-0.04646583
128	0x39b169ec	0.0003383899
129	0xbd6fa072	-0.058502622
130	0x3d29b636	0.041433536
131	0xbd2871c0	-0.041124105
132	0xbbed5580	-0.0072428584
133	0xbd2e3222	-0.04252828
134	0x3cccee40	0.02501595
135	0xbcdd73a7	-0.027032686
136	0x3bba8f91	0.005693384
137	0xbba88a9f	-0.005143478
138	0xbc236f10	-0.00997521
139	0xbceb9109	-0.028755682
140	0xbd0e5fbd	-0.034759272
141	0xbd166673	-0.036718797
142	0x3b84c73d	0.0040520714
143	0xbd0d4712	-0.034491606
144	0x3c48b038	0.012249045
145	0x3d2167f4	0.039405778
146	0x3d035521	0.032063607
147	0xbd71e2ca	-0.059054174
148	0x3c5511a0	0.01300469
149	0xbd4e608c	-0.050385043
150	0x3d0656a4	0.03279747
151	0xbd0c89d9	-0.03431115
152	0xbccc3be1	-0.024930896
153	0x3d2c410a	0.042054214
154	0xbcd26544	-0.025683053
155	0xbc23f9d2	-0.010008292
156	0xbcda0020	-0.026611388
157	0xbd982df6	-0.07430641
158	0xbcc69eb3	-0.024245596
159	0x3d098273	0.03357167
160	0x3d03e53c	0.032201037
161	0x3d47b04f	0.048752125
162	0x3b9acfb8	0.004724469
163	0xbd16b794	-0.036796167
164	0x3ba94d50	0.005166687
165	0x3cd2e3d5	0.025743404
166	0x3e3864bb	0.18007176
167	0xbd06cc86	-0.032909892
168	0x3c5ab15f	0.013347953
169	0x3abecc42	0.0014556723
170	0x3b666905	0.0035157811
171	0x3c9b9d1c	0.018995814
172	0x3c2f2bd1	0.010691599
173	0xbc193286	-0.009350425
174	0xbc8376a2	-0.01604778
175	0x3c3fed16	0.011714241
176	0xbb2a408d	-0.0025978417
177	0x3c84aba7	0.016195131
178	0x3c559b3e	0.013037501
179	0xbd41147d	-0.04713868
180	0xbe988b4b	-0.29793772
181	0x3c3648c6	0.011125749
182	0x3d93b249	0.072117396
183	0x3d9fd532	0.07804336
184	0x3cbac4d8	0.02279894
185	0x3c03d990	0.008047476
186	0x3ce02f76	0.027366381
187	0xbbe52fd5	-0.0069942274
188	0xbc46b319	-0.012127661
189	0x3d1ed8a5	0.038780827
190	0x3d1eebeb	0.038799208
191	0x3c2bd8f6	0.010488739
192	0x3d67846b	0.056522768
193	0x3cbd1962	0.023083393
194	0xbeb7f379	-0.35927942
195	0x3a9afa21	0.0011823812
196	0xbd49c1ec	-0.049257204
197	0xbd0c824f	-0.03430396
198	0x3c59055c	0.013245907
199	0x3cda0865	0.026615331
200	0xbc97eb9b	-0.018544963
201	0x3d350665	0.04419555
202	0xbd3736e7	-0.044730093
203	0xbd3bca76	-0.04584738
204	0x3ccf981e	0.02534109
205	0xbd3298a5	-0.043602604
206	0x3d3e6373	0.04648156
207	0x3d091ff8	0.033477753
208	0xbc90a5c7	-0.017657174
209	0xbd02763d	-0.031851042
210	0x3c241fb2	0.010017322
211	0x3c0ff34e	0.008786036
212	0xbd2309c8	-0.03980425
213	0xbc585445	-0.013203685
214	0xbd63b303	-0.05559064
215	0x3c642d4f	0.013926818
216	0x3c891d70	0.01673767
217	0xbcf7eee7	-0.030265285
218	0xbc4a9079	-0.0123635465
219	0xbd019e06	-0.031644844
220	0xbd2064a5	-0.039158482
221	0x3c24f19f	0.010067373
222	0x3e889f94	0.26684248
223	0x3d3666d1	0.044531647
224	0xbd8a2503	-0.06745341
225	0x3da28f5b	0.07937499
226	0x3d770ae7	0.06031313
227	0xbbd63268	-0.0065367706
228	0x3d62e3a0	0.05539286
229	0xbd407d50	-0.046994507
230	0x3d5dcf81	0.05415297
231	0x3bd81f9a	0.006595564
232	0x3c95c068	0.018280223
233	0xbc6ac661	-0.014329524
234	0x3d9e6d57	0.07735699
235	0xbc46944e	-0.0121203195
236	0xbe7d912e	-0.24762413
237	0xbd7ca414	-0.061679915
238	0x3d509889	0.05092672
239	0xbcef7225	-0.029229233
240	0x3bb9f4d0	0.005674936
241	0xbd7db15b	-0.061936717
242	0x3d211b82	0.039332874
243	0x3d4e96a7	0.050436642
244	0xbdc44a80	-0.09584522
245	0xbcd611cc	-0.026131533
246	0x3bfb4b4c	0.007668888
247	0x3d660a0f	0.056161936
248	0x3c6634d6	0.014050683
249	0x3df66799	0.120314784
250	0xbe5637e1	-0.20919754
251	0xbbcea7e3	-0.0063066348
252	0xbc9e152e	-0.019297209
253	0xbd513c9d	-0.051083196
254	0x3cced729	0.02524908
255	0x3c64db52	0.013968306

fa1.bias f4 [300]
0	0x3dac05a7	0.083995156
1	0xbe8867ea	-0.2664178
2	0x3db55ae1	0.088552244
3	0x3dc540c0	0.09631491
4	0x3de4cf63	0.111723684
5	0x3e6036cf	0.21895908
6	0xbe21bcd5	-0.1579469
7	0x3e1fd51b	0.15608637
8	0xbe7ffb07	-0.24998103
9	0xbc374923	-0.011186871
10	0xbe8109a1	-0.2520266
11	0xbe314db6	-0.173148
12	0x3ea49fea	0.32153255
13	0xbd80765d	-0.06272576
14	0xbe73b9f5	-0.23801406
15	0xbe31bc91	-0.17357089
16	0x3d77f060	0.060531974
17	0xbdce94fc	-0.1008701
18	0x3d7f7884	0.062370792
19	0xbe04853d	-0.12941451
20	0x3dd7631d	0.10516951
21	0xbd680ade	-0.05665099
22	0xbe15a801	-0.1461487
23	0xbda74cc0	-0.08168936
24	0x3bbf53e3	0.0058388575
25	0xbe7bcea5	-0.24590547
26	0xbe8ca1b7	-0.2746713
27	0xbdd7bc0d	-0.10533915
28	0xbe754b99	-0.2395462
29	0xbcff4fdc	-0.03116601
30	0xbe64188c	-0.22274989
31	0x3e37b329	0.17939438
32	0x3e678c56	0.22612128
33	0xbd34e48a	-0.044163264
34	0x3e0ad6f5	0.13558562
35	0x3e51a04a	0.20471302
36	0xbe1f0389	-0.15528692
37	0x3dfd6c1f	0.12374138
38	0xbe59610b	-0.21228425
39	0xbe6ede4c	-0.23326987
40	0x3da8797f	0.082262985
41	0xbe16c081	-0.14721872
42	0x3c635f91	0.013877765
43	0xbe2d5504	-0.16926962
44	0x3d8a2999	0.067462154
45	0xbd565807	-0.052330043
46	0x3d8bf27f	0.06833362
47	0xbd41961f	-0.047262307
48	0x3d06edda	0.032941677
49	0xbdb88e05	-0.09011463
50	0xbe1c5a85	-0.15268905
51	0x3d6865b4	0.056737617
52	0xbc4e9c9f	-0.012610584
53	0x3e79c288	0.24390614
54	0xbe83f4f0	-0.2577281
55	0xbe708954	-0.23489887
56	0xbe87c6e3	-0.26518926
57	0xbdc151dc	-0.094394416
58	0xbd7598f7	-0.05996033
59	0xbd3c7792	-0.04601247
60	0x3ec10c8c	0.37704885
61	0x3d9436da	0.072370246
62	0x3ea09d5e	0.31370062
63	0x3e022a0d	0.12711354
64	0xbd82c79c	-0.06385729
65	0xbc4a1f10	-0.012336507
66	0xbe05fcd5	-0.13084729
67	0xbd9552cb	-0.07291182
68	0xbe6d5c75	-0.23179801
69	0x3e4edd05	0.202015
70	0x3e2879e1	0.16452743
71	0xbd9c8fd0	-0.076446176
72	0xbe023e25	-0.12719019
73	0x3dcc7060	0.09982371
74	0xbe8d3bdb	-0.2758473
75	0xbde1a576	-0.11017887
76	0x3c8d98b6	0.017284732
77	0x3e0ffcf2	0.14061335
78	0xbd40f6a9	-0.047110233
79	0xbe8156ca	-0.25261527
80	0x3c8d4fb6	0.017249923
81	0x3e4c8f28	0.19976485
82	0x3e3cf35f	0.18452214
83	0xbbb8e2b0	-0.0056422576
84	0xbbde4907	-0.006783608
85	0xbd477e6b	-0.048704546
86	0xbe0d33a3	-0.13789229
87	0x3d55c593	0.052190375
88	0xbe5fd1e9	-0.21857418
89	0xbcc33d29	-0.023832874
90	0x3dc187a7	0.09449702
91	0xbda6b885	-0.08140663
92	0xbd976906	-0.073930785
93	0x3e3d4523	0.18483405
94	0xbd95e43a	-0.073189214
95	0xbe36081a	-0.17776528
96	0x3c9ff1c4	0.019524463
97	0xbe56736d	-0.20942469
98	0xbe849e1f	-0.25901887
99	0xbc9d3f70	-0.019195288
100	0x3e0bbdf9	0.13646688
101	0x3d9eaf9c	0.077483386
102	0xbe8525d8	-0.26005435
103	0xbe68818a	-0.22705665
104	0xbda4bfa3	-0.08044364
105	0xbde26517	-0.110544376
106	0xbe70c983	-0.2351437
107	0xbe778fba	-0.24175921
108	0x3eb84915	0.35993257
109	0x3cc5e50d	0.024157071
110	0xbe5546f3	-0.20827846
111	0xbeaa5338	-0.33266616
112	0xbe83562d	-0.25651684
113	0xbe175f4f	-0.14782451
114	0xbe3dcea6	-0.18535861
115	0x3e2727eb	0.16323821
116	0xbe2bfc35	-0.16795428
117	0x3e53b05a	0.20672742
118	0x3eb23ce8	0.34812093
119	0xbe9aeab7	-0.30257198
120	0x3be15517	0.0068765986
121	0x3cba611d	0.022751385
122	0xbdfb29a7	-0.12263804
123	0xbe3e11ae	-0.18561432
124	0xbdc8cf1e	-0.098051295
125	0x3ea48170	0.32130003
126	0x3e5a97c5	0.21346958
127	0x3c64c588	0.013963111
128	0xbe536969	-0.2064568
129	0xbd017798	-0.031608194
130	0x3d587949	0.05285004
131	0x3bdcaaa1	0.0067342077
132	0xbe19ffd8	-0.15039003
133	0xbe2b1d94	-0.16710502
134	0x3d3772d4	0.044787243
135	0xbdeda85a	-0.11604376
136	0xbdf7fc52	-0.12108673
137	0xbda7b85e	-0.08189462
138	0xbe03acdb	-0.12858908
139	0xbb7c9fdd	-0.0038547434
140	0xbe87fbfc	-0.26559436
141	0x3e2e4a49	0.17020525
142	0xbd24cfd4	-0.040237263
143	0x3e77b360	0.2418952
144	0x3eb85910	0.3600545
145	0xbd35df55	-0.04440244
146	0x3eb8ed5a	0.36118585
147	0xbba4d7d6	-0.0050306125
148	0xbbf5eaab	-0.0075047812
149	0xbe7a5f06	-0.24450311
150	0x3e6cea3d	0.2313623
151	0xbe450450	-0.19239926
152	0x3e091316	0.13386187
153	0x3d766741	0.060157064
154	0xbe464b5e	-0.19364688
155	0x3e3eded3	0.18639688
156	0x3d7e59dc	0.062097415
157	0xbe65dd10	-0.2244761
158	0xbe0bb0a1	-0.13641597
159	0xbe4c7316	-0.19965777
160	0xbde0385e	-0.10948251
161	0xbe88d9a8	-0.2672856
162	0x3d11b228	0.035570294
163	0xbdf3d960	-0.11906695
164	0x3c18f2f4	0.009335268
165	0xbe605e88	-0.21911061
166	0xbeb20822	-0.3477183
167	0xbc78ceee	-0.015186055
168	0xbc09794d	-0.008390737
169	0xbd0f5e0f	-0.03500181
170	0xbddbebb0	-0.10738313
171	0xbdbe30d6	-0.092866585
172	0xbe03b154	-0.12860614
173	0x3e65509c	0.22394031
174	0xbe797742	-0.243619
175	0xbeaeb35a	-0.3412121
176	0x3cabf4b6	0.02099071
177	0x3d5053bd	0.05086111
178	0xbe2a2f50	-0.16619611
179	0x3e117733	0.14205627
180	0xbd979fab	-0.07403501
181	0xbd67c790	-0.056586802
182	0xbe9c7158	-0.30555224
183	0x3da4910c	0.08035478
184	0x3d757d1a	0.05993376
185	0xbeb79251	-0.35853818
186	0x3e2ea2d9	0.17054309
187	0x3d1e4cd5	0.03864749
188	0x3dac0b67	0.08400612
189	0xbe22cc88	-0.15898335
190	0xbe433fa5	-0.19067247
191	0xbe2bbad2	-0.16770485
192	0xbe181daa	-0.14855066
193	0xbd9d361a	-0.07676335
194	0xbe3abcd8	-0.182361
195	0xbe375a80	-0.17905617
196	0xbe82203f	-0.25415227
197	0xbe331b78	-0.17490947
198	0x3e000662	0.12502435
199	0x3d9bee71	0.076138385
200	0xbdf08f60	-0.117460966
201	0x3e272f87	0.16326724
202	0xbe4fc05e	-0.20288226
203	0x3e699358	0.22810113
204	0xbd5f01be	-0.05444502
205	0xbafd013b	-0.0019302735
206	0xbd058af4	-0.03260322
207	0xbe78b60d	-0.24288197
208	0x3e59a2a2	0.21253446
209	0x3e0aa5b3	0.13539772
210	0xbe456e9f	-0.1928048
211	0x3d98c1ab	0.07458814
212	0xbe467e99	-0.1938423
213	0xbe82d176	-0.2555043
214	0xbdb82263	-0.08990934
215	0xbe8a5be0	-0.2702322
216	0xbe5db387	-0.21650515
217	0xbe0122b7	-0.12610899
218	0xbe8a5b22	-0.27022654
219	0x3e0a9a3f	0.13535403
220	0x3e2cf765	0.16891249
221	0xbdd17b7f	-0.10228633
222	0x3e862882	0.2620278
223	0xbdda7c9b	-0.10668298
224	0xbe3ac4c7	-0.18239127
225	0x3e1b3113	0.15155439
226	0xbdb6b10d	-0.089204885
227	0x3d17a4a8	0.037022263
228	0xbe313450	-0.17305112
229	0x3d8bf8d5	0.0683457
230	0xbe7163e1	-0.23573257
231	0xbe726971	-0.23673035
232	0x3c032e7a	0.008006686
233	0xbe77976f	-0.24178861
234	0x3ea9b62b	0.33146796
235	0xbcbc47fb	-0.022983542
236	0xbdf44d49	-0.119288035
237	0x3e22ac94	0.15886146
238	0x3d916997	0.07100218
239	0x3d2fc725	0.04291453
240	0x3d22141d	0.039569963
241	0x3ebdc227	0.3706219
242	0xbe623a55	-0.22092564
243	0x3c5a1256	0.013310036
244	0xbcc9b6cd	-0.024623299
245	0xbe1931fd	-0.14960475
246	0x3e5084ce	0.20363161
247	0x3e9cbbde	0.3061208
248	0x3e49b5ef	0.19698308
249	0xbe648507	-0.22316371
250	0xbe37146f	-0.17878889
251	0xbe48ed0d	-0.19621678
252	0xbc30c756	-0.010789713
253	0xbe46214c	-0.19348639
254	0x3decc41c	0.115608424
255	0xbe06ca4e	-0.1316311

fa2.weight f4 [300, 300]
0	0xbb815a34	-0.0039475206
1	0x3c36b421	0.0111513445
2	0xbcb9b9b1	-0.022671552
3	0x3bdaf5e7	0.006682146
4	0xbd04e356	-0.032443367
5	0x3cfef011	0.031120332
6	0x3d029fe3	0.03189076
7	0x3d3671ae	0.044542007
8	0xbcc96f1a	-0.02458911
9	0x3ca8ed19	0.02062087
10	0x3bc16b99	0.005902719
11	0x3c3e8541	0.01162845
12	0xbd570b57	-0.05250105
13	0x3cda3306	0.026635658
14	0x3d0d8cf7	0.034558263
15	0x3d3c12f0	0.045916498
16	0xbd7315e3	-0.059347045
17	0xbab465c7	-0.0013763242
18	0xbd13b98a	-0.036065616
19	0x3b8a0ae8	0.004212726
20	0x3bb5b35c	0.005545063
21	0x3c200b17	0.009768269
22	0xbc41c1d1	-0.011825995
23	0x3cf5a1ac	0.029984318
24	0xba200fac	-0.0006105851
25	0x3bd5f838	0.006529834
26	0xbb62dd1c	-0.0034616655
27	0xbd2ba612	-0.041906424
28	0xbcf2f3eb	-0.029657325
29	0xbcc2b5c0	-0.023768306
30	0x3c69e1d2	0.014275031
31	0xbc9394f0	-0.018015355
32	0x3cff90b8	0.031196937
33	0x3d6b60ab	0.057465237
34	0xbc95f070	-0.018303126
35	0xbc876f3d	-0.016532535
36	0x3bb631dd	0.0055601434
37	0x3d2ddd26	0.04244723
38	0x3d501834	0.050804332
39	0x3b20d280	0.002453953
40	0x3d2ba7ed	0.041908193
41	0x3d659cb5	0.05605765
42	0xbd35d07d	-0.044388283
43	0x3cb10ec2	0.021613482
44	0x3c190656	0.0093398895
45	0xbd6ceb2c	-0.057841465
46	0x3cc36985	0.023854027
47	0xbcfa94de	-0.030588564
48	0x3d64926d	0.055803705
49	0xbc75ad74	-0.014994968
50	0xbc42f853	-0.011900025
51	0xbc47246b	-0.012154679
52	0x39a871c1	0.0003212821
53	0xbd00e255	-0.031465847
54	0xb6dc5f80	-6.5676286e-06
55	0x3d19af46	0.03752067
56	0xbcf4ca5d	-0.02988165
57	0xbca04a85	-0.019566784
58	0xbcd6fafd	-0.026242727
59	0xbc23f0f1	-0.010006175
60	0xbd74dae7	-0.059779074
61	0x3d658886	0.056038402
62	0xbde011ea	-0.10940917
63	0x3d5da35e	0.054110877
64	0xbcf7c7e0	-0.030246675
65	0xbc31ccf8	-0.010852091
66	0xbce44133	-0.02786312
67	0x3c20679f	0.00979033
68	0x3d33d76b	0.04390661
69	0x3d28302f	0.041061576
70	0x3b34a0d5	0.0027561684
71	0x3d6b8f83	0.05750991
72	0xbd16e65c	-0.03684078
73	0xbcda8558	-0.026674911
74	0x3cef7654	0.029231228
75	0xbc86d684	-0.01645971
76	0xbd6987fa	-0.057014443
77	0xbc5e142b	-0.013554613
78	0x3d4f647b	0.050632935
79	0xbb813282	-0.0039427886
80	0xbdb7421e	-0.08948158
81	0xbd3d819a	-0.046266176
82	0x3d5e1a28	0.054224163
83	0xbc0db7c4	-0.00864977
84	0xbdb5891f	-0.088640444
85	0x3cb2f9d5	0.021847645
86	0x3bedf637	0.007262017
87	0xbcdcce1f	-0.026953755
88	0x3d2fd26a	0.042925276
89	0xbbf50deb	-0.007478466
90	0x3cedf8b5	0.029049257
91	0xbcb174a7	-0.02166207
92	0x3c92efb8	0.017936572
93	0x3c94dc0b	0.01817133
94	0xbcb6a2c1	-0.022294404
95	0xbc15a148	-0.009132691
96	0xbd3c6239	-0.04599211
97	0x3d6990a4	0.057022706
98	0x3d53beff	0.05169582
99	0xbc5232b2	-0.0128294695
100	0xbc08b278	-0.0083433315
101	0x3c41adfb	0.011821265
102	0xbd0f86ff	-0.03504085
103	0xbb014bcb	-0.0019729014
104	0x3d7ea670	0.062170446
105	0xbc678bde	-0.014132468
106	0xbd2d6b23	-0.0423385
107	0x3cb1952e	0.02167758
108	0xba193705	-0.00058446854
109	0x3b6bdd3d	0.0035990023
110	0xb9cb9fdc	-0.00038838282
111	0xbd4aa751	-0.04947597
112	0x3d766e56	0.06016382
113	0xbc8ea31c	-0.017411761
114	0xbd4a840a	-0.04944233
115	0x3c779534	0.015111256
116	0x3cf3418e	0.029694345
117	0x3c54735a	0.012966955
118	0x3c646cdd	0.013941971
119	0x3d52e5d2	0.051488705
120	0x3d1a3eb5	0.03765746
121	0x3cc9ba0d	0.024624849
122	0xbd29da34	-0.04146786
123	0xbd33f7b9	-0.04393742
124	0x3d1c8e32	0.038221546
125	0xbdd66c40	-0.10469866
126	0x3ce0084c	0.027347706
127	0xbdb0f6f9	-0.08640856
128	0x3bc7f7e4	0.006102549
129	0x3c07715b	0.008266772
130	0x3d1d02d5	0.03833278
131	0x3caa0b06	0.02075721
132	0x3d5cf147	0.053941038
133	0xbca1f667	-0.019770814
134	0xbd071e47	-0.03298786
135	0xbd50da77	-0.050989594
136	0xbd4b5da2	-0.049649842
137	0xbd0611ea	-0.032731928
138	0x3d7b67d1	0.061378304
139	0x3c9be7c5	0.019031415
140	0x3d163f86	0.036681674
141	0xbc67bd70	-0.0141442865
142	0x3d41be7d	0.047300804
143	0x3a4bf93a	0.0007780973
144	0xbb904377	-0.0044025737
145	0xbcf52ee8	-0.029929593
146	0x3c6d8bf2	0.014498698
147	0x3d28b0e0	0.041184306
148	0x3ba27812	0.004958161
149	0xbd2dbf44	-0.042418733
150	0xbd4ab8b0	-0.049492538
151	0xbd393cdb	-0.045224052
152	0xbc8c5833	-0.0171319
153	0x3bea98ed	0.0071593435
154	0x3d289fcc	0.04116802
155	0x3d5ae9bd	0.053445566
156	0x3c7493b7	0.014927796
157	0x3c998380	0.018739462
158	0xbd245aa5	-0.040125508
159	0x3d0f5041	0.034988645
160	0x3d378420	0.04480374
161	0x3c70bdbf	0.0146936765
162	0xbcc3db51	-0.02390829
163	0xbcd9d213	-0.026589429
164	0x3d1e54dd	0.03865515
165	0x3c42c240	0.011887133
166	0xbc88c238	-0.016694173
167	0xbd569a95	-0.052393515
168	0xb81cbcc8	-3.7369115e-05
169	0xbd7992d0	-0.060931027
170	0xbd3522ef	-0.04422277
171	0xbce50caf	-0.02796015
172	0xbd31de28	-0.043424755
173	0xbcb15b28	-0.021649912
174	0x3b5f26e0	0.003405027
175	0x3d13fb44	0.036128297
176	0xbccae983	-0.02476955
177	0xbd28f3d5	-0.04124816
178	0x3c9514eb	0.018198451
179	0x3d228c54	0.03968461
180	0x3aab3722	0.0013062696
181	0x3c0ed57c	0.008717891
182	0x3d132669	0.035925303
183	0xbbb0d878	-0.005396899
184	0xbc650366	-0.013977861
185	0x3ce22812	0.027606998
186	0x3d2ed52d	0.04268377
187	0x3d4815e4	0.048849
188	0x3d34a805	0.04410555
189	0xbc070503	-0.008240941
190	0xbae49a0d	-0.001744093
191	0xbd40bb47	-0.0470536
192	0xbbf5e01f	-0.007503524
193	0xbd2a13d0	-0.0415228
194	0xbc941da8	-0.018080547
195	0xbb7c7409	-0.003852131
196	0xbcc321c6	-0.023819815
197	0xbc9235e8	-0.01784797
198	0x3d0c77d2	0.034293957
199	0xbcf58ef4	-0.029975392
200	0x3d22e85b	0.039772373
201	0x3c3e8eeb	0.011630754
202	0x3d1af287	0.03782895
203	0xbdac90c1	-0.08426047
204	0x3b87da7a	0.0041459175
205	0x3b9d1578	0.004793819
206	0xbd1740a6	-0.036926888
207	0xbca7869c	-0.020449929
208	0x3d45750c	0.048207328
209	0xbd3bc72b	-0.04584424
210	0x3cc5089a	0.024051953
211	0x3d175fa6	0.03695645
212	0xbbdbca15	-0.0067074397
213	0xbd620022	-0.055175908
214	0xbd3e2db3	-0.0464303
215	0xbce48211	-0.027894052
216	0xbcac5059	-0.021034406
217	0xbd219cf1	-0.03945631
218	0xbd310719	-0.04321966
219	0xbd3a3d4b	-0.04546861
220	0xbc68940a	-0.0141954515
221	0x3c904bb0	0.017614216
222	0x3a8bf86c	0.0010678894
223	0xbcf485f8	-0.029849038
224	0xbc1a6110	-0.009422556
225	0xbd817c2e	-0.063225135
226	0x3d6e109a	0.0581213
227	0xbae9dab8	-0.0017841673
228	0xbca6fb59	-0.020383524
229	0x3d145332	0.036212154
230	0x3d0facc6	0.03507688
231	0xbc9461d5	-0.018113056
232	0x3dbe8dba	0.09304376
233	0x3d0e7520	0.034779668
234	0xbd2762c8	-0.04086569
235	0xbd08adb8	-0.033368796
236	0x3cb0efe8	0.021598771
237	0x3bc630b9	0.0060482887
238	0xbd1dcd2e	-0.038525753
239	0x3d7f11d7	0.062272873
240	0xbcb954d9	-0.022623466
241	0xbc81d5ae	-0.01584896
242	0x3d022838	0.031776637
243	0xbd514e54	-0.05110009
244	0xbd496f71	-0.049178544
245	0xbcdd6ee0	-0.027030408
246	0xbd69eb0d	-0.057108928
247	0x3ce967ac	0.028491817
248	0x3cdc4f62	0.026893321
249	0xbd0048cc	-0.031319425
250	0xbcb06922	-0.021534506
251	0xbc0d62d0	-0.008629516
252	0xbc8031d6	-0.015648764
253	0xbca6e15c	-0.020371132
254	0xbd5a288a	-0.053261317
255	0xbbb725da	-0.005589229

fa2.bias f4 [300]
0	0x3ba7cc45	0.0051207864
1	0xbd6a0325	-0.057131905
2	0xbd056498	-0.032566637
3	0xbc97ae76	-0.018515807
4	0xbe08386f	-0.13302778
5	0x3d0ad23f	0.033891913
6	0x3d402c0c	0.046917006
7	0xbc1463ad	-0.009056968
8	0xbdf8f13c	-0.12155387
9	0x3bb6af2e	0.0055750823
10	0xbd6be693	-0.05759294
11	0x3cb0f760	0.021602333
12	0xbe42e309	-0.1903192
13	0x3d500edc	0.05079542
14	0xbce959e4	-0.028485246
15	0xbe60f118	-0.2196697
16	0xbd5e97b6	-0.0543439
17	0xbd4a6eef	-0.0494222
18	0xbd58c2f5	-0.0529203
19	0x3b6b9857	0.0035948956
20	0xbd35ac42	-0.04435373
21	0x3d2613d1	0.040546242
22	0xbd3efb6a	-0.046626486
23	0xbc3f02b7	-0.011658362
24	0xbc7d4aa2	-0.015459688
25	0x3d2e1f9f	0.042510625
26	0x3ca2bc5f	0.019865213
27	0xbd8a4ad6	-0.06752555
28	0xbcb68d07	-0.022284044
29	0xbe74c4bd	-0.23903175
30	0xbd0703ad	-0.03296249
31	0x3d004bbd	0.03132223
32	0x3cb077ef	0.021541564
33	0xbd17e689	-0.03708509
34	0xbceb3de6	-0.028716039
35	0xbd2684d3	-0.040654015
36	0x3cc30ebc	0.023810737
37	0xbd1365a9	-0.035985623
38	0xbd2316fb	-0.039816838
39	0xbd9827ff	-0.07429504
40	0x3d3b3e60	0.045713782
41	0x3dce2d2e	0.10067211
42	0x3d6ea1d0	0.058259785
43	0x3db45443	0.08805134
44	0x3cde510f	0.027138261
45	0xbd4eea61	-0.05051649
46	0xbcbff3b4	-0.023431636
47	0x3d0a2b18	0.033732504
48	0xbd347075	-0.04405256
49	0x3f318232	0.6933929
50	0xbd030876	-0.03199049
51	0x3d1d4f2e	0.03840559
52	0x3dab523e	0.08365296
53	0xbd97f155	-0.07419077
54	0x3ccc049b	0.02490454
55	0x3c90205c	0.017593555
56	0x3e07ce97	0.13262402
57	0xbe77a0f9	-0.241825
58	0x3c8041f0	0.015656441
59	0xbcf7363f	-0.030177234
60	0xbc39762a	-0.011319676
61	0xbcb2ff6a	-0.021850307
62	0x3d278d7d	0.040906418
63	0xbd99dac9	-0.07512433
64	0x3c06457e	0.008195279
65	0xbd882740	-0.06648111
66	0x3d140fc6	0.036147855
67	0xbb905f97	-0.0044059264
68	0x3cf7be5b	0.030242136
69	0x3c6c8e67	0.014438248
70	0x3d6b1958	0.057397217
71	0xbd0a6f93	-0.03379781
72	0x3d28906f	0.041153368
73	0xba9019e2	-0.0010994042
74	0xbcb90322	-0.022584502
75	0x3c904652	0.017611656
76	0xbd260554	-0.040532425
77	0xbcfe95a1	-0.031077208
78	0xbd2e2975	-0.042520005
79	0xbc858465	-0.016298482
80	0xbd8e45e0	-0.06946921
81	0xbd50ff79	-0.051024888
82	0xbe3c135c	-0.1836676
83	0x3c311b6e	0.010809762
84	0xbd8ae306	-0.067815825
85	0xbc1828e8	-0.009287097
86	0xbc323309	-0.010876426
87	0xbcbd4545	-0.02310432
88	0xbe35a283	-0.17737775
89	0xbc8acb21	-0.016942563
90	0xbe31e1d3	-0.17371301
91	0xbd5c408a	-0.053772487
92	0xbd8d0253	-0.06885209
93	0xbd457fe0	-0.048217654
94	0x3ce961b6	0.028488975
95	0x3cbbb834	0.022914983
96	0xbc3792b1	-0.011204408
97	0x3a6f5d21	0.0009131004
98	0x3cf74969	0.030186372
99	0xba37ae75	-0.0007006892
100	0x3de5cf2e	0.11221157
101	0xbe67c531	-0.22633816
102	0xbe3df6d2	-0.18551186
103	0xbc3ccbb2	-0.011523174
104	0xbe64c536	-0.22340855
105	0xbd717223	-0.05894674
106	0x3cabdcd0	0.020979315
107	0xbc45b608	-0.012067325
108	0xbd6000ce	-0.054688267
109	0xbb239914	-0.0024963068
110	0xbc4005db	-0.011720146
111	0xbd5eb313	-0.054369997
112	0xbc474192	-0.012161629
113	0xbce3c790	-0.02780512
114	0xbe3e1226	-0.1856161
115	0xbcf1138b	-0.029428264
116	0xbc8a7602	-0.016901974
117	0xbd739fd7	-0.059478607
118	0x3cd9c56c	0.026583396
119	0x3ced3595	0.028956214
120	0xbd4ba826	-0.049720906
121	0x3d04a455	0.03238328
122	0x3ca122f8	0.019669995
123	0xbc8b18d5	-0.016979614
124	0xbd9ad17f	-0.075594895
125	0x3b47f772	0.003051248
126	0xbd9128dc	-0.070878714
127	0xbd721f39	-0.059111807
128	0xbd2e99d8	-0.042627186
129	0xbc63da38	-0.013907008
130	0xbd5ba2c9	-0.05362204
131	0xbdbd8b7c	-0.0925512
132	0x3d068d32	0.032849498
133	0xbd255558	-0.040364593
134	0x3a20bd56	0.0006131729
135	0xbc70b3f0	-0.014691338
136	0xbd91913a	-0.07107778
137	0xbcdb386d	-0.026760304
138	0x3cf76af3	0.030202365
139	0xbca0aad0	-0.0196127
140	0xbe5fcb28	-0.21854842
141	0x3bb0853b	0.005386976
142	0xbc172664	-0.009225462
143	0xbd0f00bd	-0.034912813
144	0xbe3c0d19	-0.18364371
145	0xbd49a432	-0.049228854
146	0xbd88ac2a	-0.06673463
147	0xbd22a878	-0.039711446
148	0x3d4a0708	0.04932311
149	0xbc3d246b	-0.011544327
150	0xbcf0eff0	-0.029411286
151	0x3d031ceb	0.03201
152	0xbe7f4935	-0.2493027
153	0xbad24dc9	-0.001604491
154	0xbd08b5da	-0.033376552
155	0xbd82993d	-0.06376884
156	0xbc19120e	-0.0093426835
157	0xbcda9d45	-0.02668632
158	0x3c9b7337	0.018975837
159	0xbd33cba9	-0.043895397
160	0x3d3a82d5	0.045534927
161	0xbc830bfb	-0.015996924
162	0xbd46c7cb	-0.04853038
163	0xbdb90107	-0.09033399
164	0x3d0af94a	0.033929147
165	0x3cab8e79	0.02094196
166	0xbd8e39ff	-0.069446556
167	0xbd57fbb1	-0.052730266
168	0xbd08b577	-0.033376183
169	0xbcd4c642	-0.025973443
170	0x3d1a6671	0.037695352
171	0xbb9556d1	-0.0045574685
172	0x3d698406	0.057010673
173	0xbd87d3df	-0.06632208
174	0xbd2f8821	-0.042854432
175	0x3d17e72e	0.037085705
176	0xbcbbf30b	-0.02294304
177	0xbd913b85	-0.070914306
178	0xbdfb216b	-0.12262233
179	0xbcaf4049	-0.021392958
180	0xbd24c59d	-0.04022752
181	0xbdadc6a4	-0.08485153
182	0xbc5da009	-0.013526925
183	0xbd29c38c	-0.041446254
184	0x3c355e9f	0.011069923
185	0x3b34c92e	0.0027585733
186	0xbd6697ce	-0.056297116
187	0x3cd59110	0.026070148
188	0x3c7f3ea4	0.0155788995
189	0xbc0f537a	-0.00874793
190	0xbd5b4122	-0.053528912
191	0xbcd347da	-0.025791097
192	0x3b9c8e90	0.004777737
193	0xbcfaf220	-0.030633032
194	0xbdb23d44	-0.08703092
195	0xbde1abb3	-0.11019077
196	0xbe35d555	-0.17757161
197	0xbc7a5538	-0.015279107
198	0x3b825f85	0.003978672
199	0x3c39c25c	0.011337843
200	0xbc612afb	-0.0137431575
201	0xbd4a9570	-0.04945892
202	0xbc5ff54c	-0.013669323
203	0xbc966ae2	-0.018361513
204	0xbe5eae80	-0.21746254
205	0x3caef268	0.021355823
206	0xbe1f7089	-0.15570273
207	0xbc9f57bf	-0.01945102
208	0xbdbe0b05	-0.092794456
209	0xbe82ece3	-0.25571355
210	0xbd7560c9	-0.059906755
211	0xbd5b68db	-0.053566795
212	0xbd7f4e74	-0.062330678
213	0x3cedf425	0.029047081
214	0xbd2fd34c	-0.042926118
215	0xbd3ca656	-0.046057068
216	0xbe16bf8b	-0.14721505
217	0x3bd5abee	0.0065207398
218	0xbd56e51b	-0.052464586
219	0x3ca25886	0.019817602
220	0x3d82fd42	0.06395961
221	0xbd1e3ce5	-0.038632292
222	0xbd48cae2	-0.04902161
223	0x3c903f8d	0.017608428
224	0x3d13fd63	0.03613032
225	0x3db564ed	0.08857141
226	0xbccfca64	-0.025365062
227	0x3c784c92	0.015154975
228	0xbd772d4f	-0.060345944
229	0xbc274aa8	-0.0102106705
230	0xbd0db840	-0.034599543
231	0xbc7c28c1	-0.015390576
232	0xbcaeb148	-0.021324769
233	0x3cd1e402	0.025621418
234	0x3cf9b6b8	0.030482635
235	0xbe34f4fd	-0.1767158
236	0xbe52c44c	-0.20582694
237	0xbd312702	-0.04325009
238	0xbe42ef53	-0.19036607
239	0xbd1cf1ac	-0.038316414
240	0x3d0d11be	0.03444075
241	0xbd3d5c6b	-0.046230715
242	0x3d086ad5	0.033305008
243	0x3aeb02e3	0.0017929937
244	0xbd6496b5	-0.055807788
245	0xbd5b0328	-0.053469807
246	0xbd834cdd	-0.06411145
247	0xbd932b46	-0.07185988
248	0xbe44862f	-0.19191812
249	0x3cc538c8	0.024074927
250	0xbda5e8bc	-0.08101031
251	0xbc2d61fe	-0.010582445
252	0xbd938811	-0.07203687
253	0xbe28cb2d	-0.16483755
254	0xbc3bedf6	-0.0114703085
255	0x3d1f1097	0.03883418

fa3.weight f4 [2, 300]
0	0x3c1c3886	0.009534961
1	0xbc321e67	-0.010871506
2	0xbbb6c3b7	-0.0055775302
3	0x3c2288bd	0.009920296
4	0x3f06c046	0.52637136
5	0x3b880916	0.0041514738
6	0xbc995830	-0.018718809
7	0x3bdfc0e0	0.0068284124
8	0x3ee61042	0.4493428
9	0x3c4d763d	0.012540397
10	0x3f1ec8ef	0.6202535
11	0x3ffcb8eb	1.9743932
12	0x3de5bc7c	0.11217591
13	0xbcabec26	-0.020986628
14	0x3c8e9eda	0.01740973
15	0x3df0a895	0.117509045
16	0xbc806851	-0.015674742
17	0xbb1c2e6b	-0.0023831378
18	0x3ca80a46	0.020512711
19	0x3d5285bc	0.05139707
20	0xbccf8f74	-0.025336958
21	0xbcd895c6	-0.026438605
22	0x3b063818	0.0020480212
23	0xbc35fb66	-0.011107301
24	0x3a658e15	0.00087568286
25	0xbc813026	-0.01577003
26	0xbc2d032e	-0.01055984
27	0x3eaca1d3	0.33717212
28	0x3db4efff	0.08834838
29	0x3dfbc7ec	0.122939914
30	0xbb9f0d88	-0.004853908
31	0x3eab3ac6	0.33443278
32	0x3cb34a86	0.021886121
33	0xbc83ea3b	-0.0161029
34	0x3c8d6478	0.017259821
35	0x3e13b3ac	0.14424008
36	0x3cf1b61c	0.029505782
37	0xbcb16610	-0.021655113
38	0xbbe15cb2	-0.006877505
39	0xbbeadd67	-0.0071675065
40	0x3cfdb9ee	0.030972447
41	0x3ee9d118	0.45667338
42	0x3c99846a	0.018739898
43	0x403a5308	2.9113178
44	0x3998f4f9	0.00029174218
45	0x3cba5c53	0.022749102
46	0x3abcd841	0.001440771
47	0x4003e73f	2.0609891
48	0x3e40adeb	0.18816344
49	0x3fd81b49	1.6883327
50	0x3c43cc53	0.01195057
51	0x3bd16e3f	0.006391316
52	0x4043d77f	3.0600278
53	0x3b1aca6a	0.0023619183
54	0x3d058da9	0.0326058
55	0x3eb3c764	0.3511306
56	0x3eec84e3	0.46195135
57	0x3e01c375	0.12672217
58	0xbce3fb99	-0.027829932
59	0x3bec56bc	0.007212488
60	0xba8b2823	-0.001061682
61	0xbbfc26ad	-0.00769504
62	0x3f13ee76	0.5778574
63	0x3d107ad0	0.035273373
64	0xba0f0929	-0.0005456382
65	0x3c7440b2	0.014908003
66	0x3c78fd73	0.015197146
67	0xbc992387	-0.018693699
68	0xbc73b41d	-0.014874485
69	0xbac9af87	-0.0015387394
70	0x3e9e58e5	0.30927196
71	0x3d2cb5fb	0.042165738
72	0xbc78aa11	-0.015177266
73	0x3c642362	0.013924452
74	0x3c65019a	0.013977433
75	0xbcbc31a2	-0.022972886
76	0x3bd30d8f	0.0064408253
77	0xbb8ad962	-0.00423734
78	0x3ed4b4b4	0.41544116
79	0x3b265b24	0.0025383914
80	0x3d4ce50e	0.05002313
81	0x3ecd342a	0.4007886
82	0x3dd64df9	0.10464091
83	0xbbf7a54d	-0.007557547
84	0x3e518404	0.20460516
85	0x3eba8443	0.36429033
86	0x3c990776	0.018680315
87	0xbc07fb8f	-0.008299722
88	0x3ded6366	0.11591224
89	0x3e3bbc0c	0.18333453
90	0x3dec1c15	0.11528794
91	0x3d457897	0.048210707
92	0x3c568251	0.013092593
93	0x3c090e6e	0.008365257
94	0x3cc9d7c4	0.024639018
95	0xbccd0bad	-0.025029982
96	0x3d89eed9	0.0673501
97	0xba4f1e63	-0.00079009513
98	0xba2a0f83	-0.0006487297
99	0x3d4fbf8b	0.05071978
100	0x3ecfdfa0	0.406003
101	0x3ddac900	0.10682869
102	0x3dd8b9f9	0.105823465
103	0x3bdbbebe	0.006706088
104	0x3df0ebc8	0.11763722
105	0xbc5239cb	-0.012831162
106	0x3c74a706	0.0149324
107	0x3f3c0dfa	0.73458827
108	0xbcb9b31d	-0.022668416
109	0x3d14eb2b	0.036357086
110	0xbcac6600	-0.021044731
111	0x3c83f0b4	0.016105987
112	0x3b832d5d	0.0040032105
113	0x3cf2012c	0.029541574
114	0x3df0e4e0	0.117624044
115	0xbbe382b9	-0.0069430736
116	0x3c0a5d50	0.008445099
117	0x3ba6f718	0.005095374
118	0xbc8df653	-0.01732937
119	0xbca73ba3	-0.02041418
120	0x3bee9868	0.007281352
121	0x3b40a232	0.002939355
122	0x3cb6699d	0.022267157
123	0xbc81c44e	-0.015840676
124	0x3d3b3644	0.04570605
125	0xbb461efc	-0.003023087
126	0xbba90684	-0.0051582474
127	0x3b5c1d41	0.0033586773
128	0xbc25d5f2	-0.010121809
129	0x3e5796a5	0.2105356
130	0xbb59bc1e	-0.00332237
131	0x3c95181c	0.018199973
132	0x3e330b5b	0.174848
133	0x3d2f6041	0.042816404
134	0x3b330ee4	0.0027322108
135	0x3b35328f	0.0027648543
136	0xbcbe6ea5	-0.023246119
137	0x39e5ea2e	0.0004385276
138	0x3e94e272	0.29079014
139	0x3c3fb840	0.0117016435
140	0x3de1a195	0.110171475
141	0xbb9a23d4	-0.004703978
142	0x3bc1e978	0.005917724
143	0x3c20c1df	0.0098118475
144	0x3decb1de	0.11557363
145	0xbc1f81d1	-0.0097355405
146	0x3ca461c5	0.020066151
147	0x3cecd49b	0.028909972
148	0x3d66f83a	0.05638907
149	0x3eae23e1	0.34011748
150	0xbc03f3bc	-0.008053716
151	0x3e331a50	0.17490506
152	0x3defd64c	0.11710796
153	0xbcd563a9	-0.026048498
154	0x3c340193	0.010986703
155	0x3b14cd67	0.0022705437
156	0xbad3be2e	-0.00161547
157	0xbc207235	-0.009792854
158	0xba18c3ac	-0.0005827497
159	0xbb8d467c	-0.004311381
160	0x3c8069af	0.015675394
161	0xbccdf2a8	-0.025140122
162	0xbcb089f1	-0.02155015
163	0xbb7b9a83	-0.0038391657
164	0x3da10c38	0.07863659
165	0x3e68b7ca	0.2272636
166	0x3b9d8101	0.004806638
167	0x3adb7dc4	0.0016745855
168	0x3ba3fbab	0.0050043664
169	0x3d097b6e	0.033564977
170	0x3cc722d6	0.024308603
171	0x3b4a86dc	0.0030903136
172	0x402475c0	2.569687
173	0xbc204865	-0.009782885
174	0xbcb7bdc5	-0.022429356
175	0xbc1daea8	-0.009624161
176	0xbb3347a3	-0.0027355931
177	0x3b0aea85	0.0021196913
178	0x3deb65d1	0.11494029
179	0xbcb5fad9	-0.02221434
180	0x3c11e700	0.008905172
181	0x3c0a419e	0.008438496
182	0xbc85855e	-0.016298946
183	0xbb588101	-0.0033035877
184	0x3c85f5c8	0.01635255
185	0xbc06eb6b	-0.008234839
186	0x3c893f0b	0.016753694
187	0x3d7a0dca	0.061048307
188	0xbccd3138	-0.025047883
189	0xbcc32122	-0.02381951
190	0xbc9d1796	-0.019176286
191	0xbc4a26c6	-0.012338346
192	0x3a8d4304	0.0010777419
193	0x3cddfbf8	0.027097687
194	0x3e6fa03a	0.23400965
195	0x3e15552a	0.14583269
196	0x3def73dc	0.1169202
197	0xbcdf7642	-0.02727807
198	0xb9b61ff2	-0.00034737546
199	0x39bc1f05	0.00035881266
200	0x3b8cb795	0.0042943456
201	0x3cb35f32	0.021895979
202	0xbc8b47d8	-0.017002031
203	0xbbafe4ff	-0.0053678746
204	0x3de9f4ed	0.11423669
205	0x3e220820	0.15823412
206	0x3de3f20a	0.1113015
207	0x3e83cfe3	0.25744542
208	0xbc185fc7	-0.009300179
209	0x3debec2d	0.11519656
210	0xbaab3b6a	-0.0013063971
211	0x3be6ad7f	0.0070397253
212	0xbc901494	-0.017587937
213	0x3bd4720c	0.006483322
214	0x3defd605	0.11710743
215	0xbc1becd5	-0.009516914
216	0x3de8fdb5	0.11376516
217	0x3f7341f6	0.95022523
218	0xbc68e1cf	-0.014213993
219	0xbcc9cbf0	-0.024633378
220	0x3eb969a9	0.36213425
221	0xbc0c26fb	-0.008554216
222	0xbc8fc161	-0.017548265
223	0xbb5800c0	-0.0032959431
224	0xbc8c1e27	-0.017104222
225	0x3eba03ce	0.36331028
226	0x3b0e74b1	0.0021737034
227	0xbace3bfa	-0.0015734427
228	0x3d5660c9	0.052338395
229	0x3bdce4c0	0.0067411363
230	0x3c39c2c6	0.0113379415
231	0x3c4b1785	0.012395744
232	0xbc648089	-0.013946661
233	0xbc01543a	-0.007893616
234	0x3c7bee6d	0.015376669
235	0x3df65f59	0.12029905
236	0x3e07db5d	0.13267274
237	0xb85a65fb	-5.2070227e-05
238	0x3de9d527	0.11417609
239	0x3dcbccec	0.09951195
240	0x3c202e33	0.00977664
241	0x3e82eaed	0.2556986
242	0xbc3e2355	-0.0116051035
243	0xbcdd9f94	-0.027053632
244	0xbbbe790f	-0.005812771
245	0xbbf9ff53	-0.007629314
246	0xbcd66051	-0.026168974
247	0x3d1545a9	0.036443386
248	0x3de8066d	0.113293506
249	0x3d10e881	0.035377983
250	0x3f4e7c78	0.80658674
251	0x3bc56856	0.0060244007
252	0xbadfeba7	-0.001708378
253	0x3de904c3	0.11377861
254	0x3c3a6007	0.011375434
255	0x3da55c22	0.080742136

fa3.bias f4 [2]
0	0x3f15cf5b	0.58519524
1	0xbd11ff8b	-0.035644095
