src/Models/stage_2/140_actor.pt (torch_old, 382508 bytes, 6 tensors)

fa1.weight f4 [300, 14]
000000 1d 14 fc 3b 86 71 5c 3d 31 26 fa 3c 6b 8e 3e bd
       0.0076928274 0.053819202 0.03053579 -0.04652254
000010 e3 e7 05 bd d9 b3 d9 3c b5 44 a4 bc 18 b7 85 bc
       -0.032691848 0.026575016 -0.020052293 -0.016322657
000020 f1 9b c3 3c 7f 19 2e bd 92 3c 99 3c 50 1d 77 3d
       0.02387807 -0.042504784 0.01870564 0.06033069
000030 47 62 a3 be 8d 18 dd 3c c9 78 78 3d 4d 99 08 bc
       -0.31910917 0.026989246 0.060662065 -0.008337331
000040 f7 0f be 3c f8 6d 8c bc 80 d3 61 3d e7 d0 fe 3b
       0.023200972 -0.017142281 0.055133343 0.007776368
000050 62 d9 02 3d 91 30 2d ba 2d 6e 32 ba 51 59 a3 bc
       0.031945594 -0.0006606663 -0.00068065786 -0.01994005
000060 3a 3c a2 3d 6f af bc bc c1 06 07 3f 5d 2f bb 3c
       0.079216436 -0.023032872 0.5274468 0.022849733
000070 8c 2e 96 bd ae 27 53 bd bc 84 90 bc ad 4b 20 bd
       -0.07333097 -0.051551513 -0.017641418 -0.03913467
000080 f6 df 35 bd 1f 69 66 bd 06 2c 09 bd 37 97 6c 3a
       -0.04440304 -0.056252595 -0.03348925 0.00090252183
000090 5b 7b 8c bd 94 c3 ba bd 4a 59 9b bd 66 25 a1 bd
       -0.06859466 -0.09119335 -0.0758539 -0.07868461
0000a0 83 d8 b0 3d 74 04 07 bb a0 b2 74 bd ea 58 62 3d
       0.08635046 -0.002060202 -0.059740663 0.055260576
0000b0 db ce a3 3b 28 f6 20 3d 9f e3 36 bc 5c be 1c 3d
       0.0049990243 0.039297253 -0.011162668 0.03826748
0000c0 4f b9 85 3c a7 35 13 bc 8f 99 36 bc c6 f0 2b 3d
       0.016323714 -0.00898496 -0.01114501 0.041977666
0000d0 91 0a 14 3d 41 8c 85 bd fb 5a a8 be 09 82 31 3d
       0.03614289 -0.06520892 -0.32881913 0.0433369
0000e0 0f 1b ab 3b b2 25 8a bd 9b 4b ff 3c 24 58 36 39
       0.0052217315 -0.06745471 0.031163981 0.00017389708
0000f0 a7 eb 42 bd 75 88 d9 bc c5 4d af bd 8d 32 81 3b
       -0.047588017 -0.026554326 -0.08559755 0.0039427937
000100 71 98 1b 3c 79 60 55 bd 63 91 89 bd bf a8 7b bc
       0.009496794 -0.052093957 -0.067171834 -0.015360056
000110 14 16 8e 3e 82 a4 8f bc 44 3a b9 bd b9 04 16 bc
       0.2775122 -0.017534498 -0.090443164 -0.009156399
000120 46 0b 43 3b 5f 3d 78 bd e5 ab 9d bc 90 49 bb bc
       0.0029761358 -0.060605403 -0.019247005 -0.022862226
000130 ea 67 03 bd 7b 82 92 bc 2f d8 44 bd 45 94 aa bc
       -0.032081522 -0.017884484 -0.04805773 -0.020822654
000140 e5 29 7f bc eb 3e de bc d3 08 8c 3e b9 e8 6c bd
       -0.015573953 -0.027129611 0.27350482 -0.05783913
000150 ff 1b 40 bd cd 90 e9 bc 87 d6 5c bd 35 98 a0 3b
       -0.0469017 -0.02851143 -0.053915527 0.004900957
000160 26 24 15 3d 72 74 4e bc 14 c7 40 3c 95 89 02 3b
       0.036411427 -0.012601005 0.011766214 0.001991843
000170 78 71 d4 3c 9e a9 b3 bc a2 06 5f 3c bd 60 62 3c
       0.025933012 -0.021931466 0.013612421 0.0138170095
000180 ac 7f 80 3b 57 ae 60 bc 7c cd ad bc a7 4f 83 bd
       0.0039214697 -0.013713441 -0.021216147 -0.06411677
000190 4c 6b 1c bd 44 cb d9 bc 5f 64 f5 bd 29 19 ce bd
       -0.038188264 -0.026586182 -0.11982035 -0.10063393
0001a0 71 a0 c4 bc b0 5f 2a 3c a3 13 97 bd fb 7e 2a 3c
       -0.024002286 0.01039879 -0.07376792 0.010406251
0001b0 72 2b 00 bd 71 8b c2 b9 2c c0 d7 3d 82 63 a6 3b
       -0.031291433 -0.00037106455 0.10534701 0.00507778
0001c0 fd 6a 7a bd 1e 35 ef bb de 3e 53 bd b9 de 20 3d
       -0.06113719 -0.0073000332 -0.051573627 0.039274905
0001d0 cc 49 c4 3c df 7c 2a bd 71 b3 dd 3c e7 db 32 3d
       0.02396097 -0.041622993 0.027063103 0.043666746
0001e0 5d 8c 66 bd 88 48 86 bd e4 9a 6c 3b 2b 1c 0c bd
       -0.056286205 -0.06556803 0.0036103064 -0.03420655
0001f0 e4 42 49 bc 18 1a c2 bc 4b c5 be 3c 94 5a 3f bd
       -0.012284014 -0.023694083 0.023287436 -0.04671724
000200 24 7a b6 38 03 a8 70 bd 95 ae 28 3d 41 79 29 bd
       8.701187e-05 -0.05875398 0.04118212 -0.041375402
000210 0b 92 f5 bb b8 39 2f bd 08 df ca 3c d6 82 df bc
       -0.0074942163 -0.042779654 0.024764553 -0.027284067
000220 00 53 b2 3b 86 c7 b0 bb 93 8d 27 bc 35 a0 ed bc
       0.0054420233 -0.005394879 -0.010226625 -0.029007057
000230 bd 5f 0e bd 73 66 16 bd 3d c7 84 3b 12 47 0d bd
       -0.034759272 -0.036718797 0.0040520714 -0.034491606
000240 38 b0 48 3c f4 67 21 3d 21 55 03 3d ca e2 71 bd
       0.012249045 0.039405778 0.032063607 -0.059054174
000250 a0 11 55 3c 8c 60 4e bd a4 56 06 3d d9 89 0c bd
       0.01300469 -0.050385043 0.03279747 -0.03431115
000260 e1 3b cc bc 0a 41 2c 3d 6c 82 10 bd f8 11 8a bc
       -0.024930896 0.042054214 -0.03528063 -0.016854271
000270 5a 51 04 bd 2f af 9e bd 91 a0 cf bc 6b 0d 20 3d
       -0.032304145 -0.07748257 -0.025345119 0.039075296
000280 13 d6 35 3d 87 4a 5e 3d 17 ee 28 3c 18 37 0b bd
       0.04439361 0.054270294 0.010310671 -0.03398809
000290 40 f2 9e 3b e2 61 a1 3c 10 56 43 3e 50 8b 04 bd
       0.004850656 0.019699994 0.19075799 -0.03235942
0002a0 f0 87 f2 3b a6 06 ec 38 85 e1 e9 3a 5c ba 95 3c
       0.007401459 0.00011254595 0.0017843699 0.01827734
0002b0 3b 0d 09 3c aa d1 cc bb 2d 45 83 bc 88 76 46 3c
       0.008364971 -0.00625058 -0.016024197 0.012113221
0002c0 75 e8 ae bb 24 b8 74 3c 71 14 51 3c c5 ef 40 bd
       -0.0053377696 0.014936481 0.012761221 -0.047103662
0002d0 ef ec 9b be c1 14 80 3b 1b f2 83 3d b8 f0 97 3d
       -0.30454203 0.003908724 0.06442662 0.0741896
0002e0 9b a1 7e 3c 6b b2 a3 3b ef 60 c5 3c db 11 88 bb
       0.015541459 0.0049956343 0.024094073 -0.004152519
0002f0 46 1f 08 bc 81 c2 26 3d 71 8a 20 3d 4d 46 1e 3c
       -0.008308237 0.040712837 0.039194528 0.009660316
000300 7c 57 5e 3d a1 eb 04 3d d8 82 bb be fd d8 b6 bb
       0.05428265 0.032451276 -0.36623263 -0.0055800662
000310 ec c1 49 bd 4f 82 0c bd 5c 05 59 3c 65 08 da 3c
       -0.049257204 -0.03430396 0.013245907 0.026615331
000320 9b eb 97 bc 65 06 35 3d e7 36 37 bd 76 ca 3b bd
       -0.018544963 0.04419555 -0.044730093 -0.04584738
000330 1e 98 cf 3c a5 98 32 bd 73 63 3e 3d f8 1f 09 3d
       0.02534109 -0.043602604 0.04648156 0.033477753
000340 c7 a5 90 bc 3d 76 02 bd ee dd 17 3c 01 2e 10 3c
       -0.017657174 -0.031851042 0.009269221 0.008800031
000350 95 18 2a bd df 38 79 bc b2 4b 6e bd 13 77 7f 3c
       -0.04152735 -0.015211313 -0.058177657 0.015592354
000360 34 8d 94 3c 59 17 01 bd bc 6a 2e bc 15 d3 10 bd
       0.018133737 -0.031516407 -0.010645565 -0.035357554
000370 28 0f 29 bd 97 75 e8 3b 2a 65 89 3e 1d da 3e 3d
       -0.04127422 0.007094096 0.26834995 0.046594728
000380 91 a0 9c bd 76 6d a7 3d e2 39 80 3d d3 f8 04 bc
       -0.07647813 0.08175175 0.0626104 -0.008115965
000390 34 2d 49 3d c6 23 4e bd 56 43 69 3d 8e a4 43 3c
       0.049115375 -0.050327085 0.056948982 0.011941088
0003a0 3e ad 66 3c 5a 3d 67 bc 4e c6 a9 3d c5 77 bb bc
       0.01407939 -0.014113748 0.08289777 -0.022884259
0003b0 a9 99 7e be 96 90 87 bd 08 03 69 3d d0 cd 0c bd
       -0.24863304 -0.066193745 0.056887656 -0.034375966
0003c0 ba eb bc 3b b9 2c 80 bd 31 41 1a 3d 2b 69 57 3d
       0.0057654055 -0.0625853 0.037659828 0.05259053
0003d0 7f 9f c9 bd 34 7b 05 bd 2e ea 57 3b 0e f5 6e 3d
       -0.098448746 -0.0325882 0.0032945978 0.05833917
0003e0 e1 f5 83 3c 66 11 02 3e ec 53 59 be ac a6 06 bc
       0.016108455 0.1270195 -0.2122342 -0.008218449
0003f0 f3 d7 c2 bc 66 fd 5c bd 79 6c d3 3c 99 49 46 3c
       -0.023784613 -0.053952597 0.02580856 0.012102508

fa1.bias f4 [300]
000000 09 35 a8 3d 03 5d 89 be e1 5a b5 3d 37 6e c5 3d
       0.08213241 -0.26828775 0.088552244 0.096401624
000010 15 37 dd 3d d1 21 5c 3e d5 bc 21 be c1 1b 1d 3e
       0.10801522 0.21497275 -0.1579469 0.15342619
000020 07 fb 7f be a7 67 3b bc a1 09 81 be 2d 02 32 be
       -0.24998103 -0.011438287 -0.2520266 -0.17383642
000030 d0 b8 a5 3e 9f ff 7e bd f5 b9 73 be 9e 2d 33 be
       0.32367563 -0.062255498 -0.23801406 -0.1749787
000040 1f ae 82 3d 85 9f ca bd bc 4b 71 3d 3d 85 04 be
       0.06380867 -0.09893707 0.058910117 -0.12941451
000050 fc 20 d3 3d f3 c1 6c bd 63 44 11 be c2 91 a8 bd
       0.10309026 -0.057802152 -0.14186244 -0.08230926
000060 19 59 8c 3b 06 1a 7c be d7 ba 8e be de 0b d8 bd
       0.004283082 -0.24619302 -0.27876922 -0.105491385
000070 f3 36 7a be 0d 6d 0e bd 8c 18 64 be e5 fc 34 3e
       -0.24435024 -0.034771968 -0.22274989 0.17674597
000080 15 5d 67 3e 10 12 36 bd 30 53 08 3e 4a a0 51 3e
       0.22594102 -0.04445082 0.13312984 0.20471302
000090 77 e7 21 be 89 c7 fb 3d 0b 61 59 be 4c de 6e be
       -0.15810953 0.12293918 -0.21228425 -0.23326987
0000a0 89 92 a3 3d 88 44 19 be dc 68 2b 3c be 68 2e be
       0.07986934 -0.14967549 0.010462012 -0.17032143
0000b0 99 29 8a 3d d0 e8 5c bd 07 60 87 3d c4 dd 36 bd
       0.067462154 -0.053932965 0.06610113 -0.044645086
0000c0 6c 27 05 3d 71 af c2 bd b8 c6 1f be b4 65 68 3d
       0.0325083 -0.09506119 -0.15603149 0.056737617
0000d0 fe 34 82 bc b4 61 7d 3e b8 28 84 be f6 9c 74 be
       -0.01589441 0.24744302 -0.25812316 -0.23888001
0000e0 76 70 8a be 38 55 c2 bd 22 53 83 bd dc 74 43 bd
       -0.27038926 -0.094889104 -0.06412341 -0.047718868
0000f0 a2 f2 c2 3e d2 83 93 3d 0d 0b a2 3e 87 ce fd 3d
       0.3807574 0.07202877 0.31649056 0.123929076
000100 69 fa 89 bd db e0 7b bc d5 fc 05 be 83 99 97 bd
       -0.06737215 -0.015373434 -0.13084729 -0.07402327
000110 75 5c 6d be 05 dd 4e 3e 7b 4a 29 3e d0 8f 9c bd
       -0.23179801 0.202015 0.16532318 -0.076446176
000120 d5 3f 06 be 5d c7 ca 3d db 3b 8d be 76 a5 e1 bd
       -0.13110287 0.09901307 -0.2758473 -0.11017887
000130 d8 38 84 3c 31 40 0b 3e 1f 24 42 bd 28 cf 83 be
       0.016140386 0.13598706 -0.04739773 -0.25743985
000140 b3 5d aa 3c 58 d9 4c 3e 38 af 3b 3e b0 e2 b8 bb
       0.020796632 0.20004785 0.1832856 -0.0056422576
000150 d5 f2 ae bb 12 31 58 bd 8f 9e 0d be f1 f4 38 3d
       -0.0053390064 -0.052781172 -0.13830017 0.04515547
000160 6d 0c 62 be 13 b1 eb bc a7 87 c1 3d ba 3b a8 bd
       -0.22075053 -0.028770959 0.09449702 -0.08214517
000170 35 c5 a0 bd 8c 8b 3b 3e a6 86 9c bd d3 79 37 be
       -0.07850114 0.18314952 -0.0764287 -0.17917566
000180 ce 9d a5 3c 6d 73 56 be 2f 3e 86 be ec 07 ba bc
       0.020216849 -0.20942469 -0.26219317 -0.022708856
000190 65 bf 09 3e 5b 7c 9d 3d 02 9c 85 be c4 62 6c be
       0.13451917 0.076897345 -0.26095587 -0.23084551
0001a0 99 b9 ac bd ed d3 e9 bd 83 c9 70 be 96 bd 77 be
       -0.084338374 -0.11417375 -0.2351437 -0.24193415
0001b0 c0 f4 ba 3e 5c c6 9c 3c 03 9b 54 be ae 7b ac be
       0.36514854 0.019137554 -0.20762257 -0.3368811
0001c0 c9 20 84 be 4f 5f 17 be a6 ce 3d be 8a fe 27 3e
       -0.25806263 -0.14782451 -0.18535861 0.16405693
0001d0 7f de 2f be 7d e6 57 3e 47 49 b3 3e b7 ea 9a be
       -0.1717472 0.21084018 0.35016844 -0.30257198
0001e0 e9 7f 1a 3b a2 22 aa 3c 23 db 00 be ae 11 3e be
       0.0023574776 0.020768467 -0.12583594 -0.18561432
0001f0 7d 29 cd bd 40 5a a5 3e be 79 5b 3e 76 10 82 3c
       -0.10017679 0.32295418 0.2143316 0.01587699
000200 bb e1 57 be ee a2 ee bc 16 1d 50 3d 50 ae 99 3b
       -0.21082203 -0.029130425 0.05080899 0.004689969
000210 9d 04 19 be 94 1d 2b be 63 bc 39 3d 5a a8 ed bd
       -0.14943166 -0.16710502 0.045345675 -0.11604376
000220 f7 5a f6 bd 82 b9 a8 bd 3b a6 04 be f0 60 fa bb
       -0.12029069 -0.08238508 -0.12954037 -0.0076409504
000230 fc fb 87 be 6a 5d 2c 3e d3 11 10 bd 19 98 7a 3e
       -0.26559436 0.1683251 -0.03517325 0.24472083
000240 7d 18 ba 3e d2 31 42 bd fe 72 b9 3e 54 a3 e8 bb
       0.36346808 -0.047410794 0.36220545 -0.0070995484
000250 54 f8 00 bc 58 24 7e be 54 2a 71 3e 90 21 48 be
       -0.007871706 -0.24818552 0.23551303 -0.19544053
000260 4a c4 07 3e 59 34 7c 3d 5e 4b 46 be cc 57 3c 3e
       0.13258472 0.06157336 -0.19364688 0.18392867
000270 29 c0 7b 3d 10 dd 65 be a1 b0 0b be 3a ce 4d be
       0.061462555 -0.2244761 -0.13641597 -0.200982
000280 a4 47 e4 bd a8 d9 88 be de 07 0b 3d 60 d9 f3 bd
       -0.11146477 -0.2672856 0.03394305 -0.11906695
000290 48 87 c0 3b 88 5e 60 be f8 e4 b3 be c9 56 90 bc
       0.005875502 -0.21911061 -0.35135627 -0.017619507
0002a0 bb 47 80 bc 36 a4 0d bd dd c4 e4 bd 5b d9 c2 bd
       -0.015659204 -0.034580432 -0.11170361 -0.095141135
0002b0 54 b1 03 be f0 1c 65 3e 42 77 79 be 10 5c af be
       -0.12860614 0.2237432 -0.243619 -0.34249926
0002c0 71 80 ad 3c bd 53 50 3d a2 a2 2d be 8d 06 0f 3e
       0.02117941 0.05086111 -0.1695657 0.13967343
0002d0 38 16 95 bd be 00 74 bd 58 71 9c be 53 ed a3 3d
       -0.072796285 -0.05957102 -0.30555224 0.080042504
0002e0 0e 6e 6e 3d 1e b7 b9 be b9 0b 30 3e c2 67 0f 3d
       0.058210425 -0.3627252 0.17191972 0.03501106
0002f0 a8 6d a8 3d ee 43 27 be df 55 48 be d2 ba 2b be
       0.0822404 -0.16334507 -0.19564007 -0.16770485
000300 8e 04 1e be 11 fc a7 bd e9 e7 3d be cc f5 3a be
       -0.15431425 -0.08202375 -0.18545498 -0.18257827
000310 3f 20 82 be 78 1b 33 be 91 35 f7 3d 71 ee 9b 3d
       -0.25415227 -0.17490947 0.12070764 0.076138385
000320 61 43 fa bd 43 d3 26 3e 5e c0 4f be 13 53 69 3e
       -0.12219883 0.16291527 -0.20288226 0.22785597
000330 50 bf 64 bd 98 0b 82 bb ce a0 0f bd 26 4f 7d be
       -0.055846512 -0.0039686672 -0.035065465 -0.24737224
000340 b0 86 59 3e 51 a9 09 3e 30 98 49 be 48 2a 91 3d
       0.21242785 0.13443495 -0.19686961 0.07088143
000350 b6 92 4a be 76 d1 82 be e6 75 c4 bd 22 3b 8c be
       -0.19782528 -0.2555043 -0.095928 -0.27388865
000360 5e 2d 5f be a9 48 04 be 22 5b 8a be 68 dc 08 3e
       -0.2179465 -0.12918343 -0.27022654 0.13365328
000370 fe 40 31 3e 03 e6 db bd 8d 63 87 3e 98 41 d7 bd
       0.17309949 -0.10737231 0.2644314 -0.10510558
000380 c7 c4 3a be e6 6a 19 3e 06 9a b9 bd a8 a4 17 3d
       -0.18239127 0.14982185 -0.09062581 0.037022263
000390 23 bb 33 be f7 ab 8b 3d 8d a4 71 be 34 6f 71 be
       -0.17551856 0.06819909 -0.23597927 -0.23577577
0003a0 97 3b b0 3b 6f 97 77 be b1 96 ab 3e 1b 58 cc bc
       0.0053781974 -0.24178861 0.33513406 -0.024944356
0003b0 b9 31 f9 bd 6a fe 1e 3e 97 69 91 3d 07 8a 25 3d
       -0.12167687 0.15526739 0.07100218 0.040414836
0003c0 32 3a 10 3d 05 35 bd 3e 55 3a 62 be 98 2f 3c 3c
       0.03521175 0.36954513 -0.22092564 0.011485957
0003d0 80 ba c8 bc fd 31 19 be f7 67 53 3e c8 34 9c 3e
       -0.024502993 -0.14960475 0.20645128 0.3050902
0003e0 13 6e 48 3e 07 85 64 be 6f 14 37 be e4 56 4d be
       0.1957324 -0.22316371 -0.17878889 -0.20052677
0003f0 ad 93 28 bc ee 72 4a be 1c c4 ec 3d 4e ca 06 be
       -0.010289115 -0.19770405 0.115608424 -0.1316311

fa2.weight f4 [300, 300]
000000 bd 3a f9 bb a6 80 4a 3c b1 b9 b9 bc 25 d4 55 3a
       -0.007605879 0.012359774 -0.022671552 0.0008156917
000010 1e b7 fe bc 95 8c fc 3c e3 9f 02 3d ae 71 36 3d
       -0.031093176 0.030828753 0.03189076 0.044542007
000020 1a 6f c9 bc 19 ed a8 3c 99 6b c1 3b 00 e9 1f 3b
       -0.02458911 0.02062087 0.005902719 0.0024400353
000030 40 6d 62 bd 77 93 b0 3c f7 8c 0d 3d e9 3c 2c 3d
       -0.05527997 0.021554692 0.034558263 0.042050276
000040 75 c2 88 bd d5 d4 8e 3b 70 67 03 bd e8 0a 8a 3b
       -0.06677715 0.0043588676 -0.032081068 0.004212726
000050 b7 b4 b5 3b c8 e2 23 3c 28 c7 93 bc ac a1 f5 3c
       0.0055452245 0.010002799 -0.018039301 0.029984318
000060 da c9 19 ba 38 f8 d5 3b 0c e0 ad bb 80 dd 35 bd
       -0.0005866565 0.006529834 -0.0053062495 -0.044400692
000070 ae c6 fb bc ff a5 d4 bc d2 e1 69 3c 23 68 a2 bc
       -0.030734386 -0.02595806 0.014275031 -0.019825047
000080 fd 2c fc 3c ab 60 6b 3d 15 ef 95 bc 3d 6f 87 bc
       0.03078317 0.057465237 -0.01830248 -0.016532535
000090 86 99 dc 3b 57 de 2d 3d 34 18 50 3d 80 d2 20 3b
       0.0067321686 0.042448368 0.050804332 0.002453953
0000a0 43 38 07 3d b3 4d 64 3d 2e 38 39 bd c2 0e b1 3c
       0.03301264 0.055738162 -0.045219593 0.021613482
0000b0 56 06 19 3c 2c eb 6c bd 80 f9 cf 3c d9 16 12 bd
       0.0093398895 -0.057841465 0.025387526 -0.03566632
0000c0 6d 92 64 3d 69 5e 6e bc 59 e1 3e bc 6b 24 47 bc
       0.055803705 -0.014548876 -0.011650407 -0.012154679
0000d0 2e fe fe b9 6f 14 11 bd 80 5f dc b6 59 b7 22 3d
       -0.00048636034 -0.035419878 -6.5676286e-06 0.039725635
0000e0 23 58 f4 bc e1 02 83 bc ea cd d5 bc 66 d5 23 bc
       -0.029827183 -0.015992584 -0.026099164 -0.009999609
0000f0 26 db 6e bd 86 88 65 3d 54 1f e6 bd 36 6f 5e 3d
       -0.058314465 0.056038402 -0.11236444 0.054305278
000100 1c 89 f8 bc b4 89 48 bc 33 41 e4 bc 93 dc 9c 3b
       -0.030338816 -0.012239862 -0.02786312 0.0047870367
000110 6b d7 33 3d 2f 30 28 3d 31 43 45 bb 83 8f 6b 3d
       0.04390661 0.041061576 -0.0030099864 0.05750991
000120 08 8d 1b bd 58 85 da bc 54 76 ef 3c 84 d6 86 bc
       -0.037976295 -0.026674911 0.029231228 -0.01645971
000130 fa 87 69 bd e0 38 5d bc 7b 64 4f 3d 04 a4 26 3c
       -0.057014443 -0.01350233 0.050632935 0.01017094
000140 79 7e bf bd 6a 81 61 bd 28 1a 5e 3d c4 b7 0d bc
       -0.093502946 -0.05505506 0.054224163 -0.00864977
000150 3c b3 b9 bd 21 ac ad 3c b4 a4 e9 3b 07 b5 cd bc
       -0.09067389 0.021200242 0.00713023 -0.025110735
000160 75 93 30 3d 4d 98 07 bc b5 f8 ed 3c 51 74 b1 bc
       0.043109376 -0.008276057 0.029049257 -0.02166191
000170 47 9f 98 3c 64 e9 82 3c f5 d6 b2 bc ce cf 01 bc
       0.018630637 0.01598043 -0.021831015 -0.00792308
000180 68 0d 63 bd a4 90 69 3d 4e 90 75 3d a6 71 4f bc
       -0.055432707 0.057022706 0.059952073 -0.012661373
000190 08 a3 08 bc 99 ba 0c 3c ff 86 0f bd a3 56 39 bb
       -0.008339651 0.00858941 -0.03504085 -0.00282804
0001a0 f1 23 80 3d b8 0f 25 bc 23 6b 2d bd 2e 95 b1 3c
       0.06256855 -0.010074548 -0.0423385 0.02167758
0001b0 a8 81 3a ba 2a b3 21 3b ee 9d 65 3b 6f 92 2e bd
       -0.0007114657 0.002467344 0.003503676 -0.04262012
0001c0 17 d5 77 3d 1c a3 8e bc 0a 84 4a bd 60 c7 10 3c
       0.060505953 -0.017411761 -0.04944233 0.008836597
0001d0 bb 19 ed 3c bb c8 51 3c d9 47 4c 3c d2 e5 52 3d
       0.028942933 0.0128042055 0.012468302 0.051488705
0001e0 63 e9 19 3d d3 28 c8 3c e3 68 30 bd b9 f7 33 bd
       0.03757609 0.024433529 -0.043068778 -0.04393742
0001f0 e1 79 fc 3c b5 9a d7 bd f0 02 bd 3c fb 23 b4 bd
       0.030819835 -0.10527555 0.02307269 -0.08795925
000200 e6 de 0b 3c 7e d0 98 3b db 21 1f 3d 31 87 ad 3c
       0.00853703 0.004663526 0.038850646 0.021182628
000210 36 5d 4b 3d 67 f6 a1 bc 61 b9 11 bd 77 da 50 bd
       0.04964944 -0.019770814 -0.03557718 -0.050989594
000220 a2 5d 4b bd b3 78 06 bd d1 67 7b 3d c0 49 ab 3c
       -0.049649842 -0.03282995 0.061378304 0.02090919
000230 86 3f 16 3d ae ec 4c bc 49 32 13 3d 85 05 ee ba
       0.036681674 -0.012507601 0.035936628 -0.0018159604
000240 8b a6 b7 bb 93 02 f4 bc 59 18 19 3c f8 68 27 3d
       -0.0056045703 -0.029786384 0.009344184 0.04087159
000250 1e 6e 58 bb c4 85 3a bd 74 68 60 bd c2 bd 31 bd
       -0.003302462 -0.045537725 -0.054787114 -0.043393858
000260 33 58 8c bc 7e 68 25 bb cc 9f 28 3d bd e9 5a 3d
       -0.0171319 -0.0025239284 0.04116802 0.053445566
000270 c7 f4 cd 3b 80 83 99 3c a5 5a 24 bd 4a 9f 19 3d
       0.0062852832 0.018739462 -0.040125508 0.037505426
000280 f0 1d 43 3d bf bd 70 3c 51 db c3 bc 13 d2 d9 bc
       0.047635972 0.0146936765 -0.02390829 -0.026589429
000290 3e b1 0d 3d 40 c2 42 3c e3 83 ec bc 93 b3 7a bd
       0.03459286 0.011887133 -0.028871482 -0.06120641
0002a0 c8 bc 1c b8 ba b7 81 bd 37 eb 3d bd 1d b0 e4 bc
       -3.7369115e-05 -0.06333871 -0.046366896 -0.027916009
0002b0 28 de 31 bd f2 8c 9f bc e0 26 5f 3b 2e 79 17 3d
       -0.043424755 -0.019476388 0.003405027 0.0369808
0002c0 5a 1f c3 bc d5 f3 28 bd 2e 55 45 3c a4 dc 2f 3d
       -0.02381866 -0.04124816 0.012044234 0.04293503
0002d0 1b a0 2a bc be fd db ba 69 26 13 3d 20 fc b3 bb
       -0.010414149 -0.0016783995 0.035925303 -0.005492702
0002e0 0b 02 65 bc 88 b8 09 3d e6 5a 0f 3d 70 f9 3a 3d
       -0.013977538 0.03362325 0.034998797 0.04564804
0002f0 e5 bd 33 3d 6f 16 08 bc 7b 57 86 bb 47 bb 40 bd
       0.04388227 -0.00830613 -0.004099784 -0.0470536
000300 59 6b 5b bb 16 8a 1c bd e5 d5 a0 bc d8 bc 05 ba
       -0.0033480732 -0.038217627 -0.019633243 -0.0005101687
000310 c6 21 c3 bc e8 35 92 bc b4 ea 15 3d f4 8e f5 bc
       -0.023819815 -0.01784797 0.036600783 -0.029975392
000320 65 87 fe 3c eb 8e 3e 3c 87 f2 1a 3d 91 1b af bd
       0.03107042 0.011630754 0.03782895 -0.0855018
000330 fd 65 c9 bb 63 c8 55 ba b3 f8 18 bd 89 4b dc bc
       -0.006146191 -0.0008155165 -0.037346553 -0.026891487
000340 a4 fb 5a 3d 8d c2 3b bd 30 4b f7 3c b2 ed cf 3c
       0.05346264 -0.045839835 0.03018722 0.025381897
000350 fd 4d f8 bb 22 00 62 bd 36 1d 28 bd eb 64 e2 bc
       -0.0075776563 -0.055175908 -0.041043483 -0.027636012
000360 59 50 ac bc 89 db 13 bd 19 07 31 bd 01 f3 2d bd
       -0.021034406 -0.036098037 -0.04321966 -0.042468075
000370 c1 44 6e bc 60 79 f5 3c ba da 0e 3a a1 e1 ce bc
       -0.014542759 0.029965103 0.0005449463 -0.025254073
000380 10 61 1a bc 9e 2b 82 bd a7 e0 6e 3d b8 da e9 ba
       -0.009422556 -0.063559756 0.058319714 -0.0017841673
000390 13 5b c6 bc 32 53 14 3d c6 ac 0f 3d 41 3b a4 bc
       -0.02421335 0.036212154 0.03507688 -0.020047786
0003a0 c5 f0 be 3d 20 75 0e 3d 19 e5 32 bd 89 b7 2c bd
       0.09323267 0.034779668 -0.043675516 -0.04216722
0003b0 54 92 e8 3c 47 b2 2f 3b 2e cd 1d bd 76 db 7f 3d
       0.028390087 0.0026809142 -0.038525753 0.062465154
0003c0 5f 02 c0 bc ef 69 88 bc 38 28 02 3d c6 05 52 bd
       -0.02343863 -0.016652076 0.031776637 -0.051275037
0003d0 5d 40 62 bd e0 6e dd bc 91 16 69 bd 59 9b b0 3c
       -0.055237163 -0.027030408 -0.056906287 0.02155845
0003e0 62 4f dc 3c cc 48 00 bd 22 69 b0 bc 79 55 5b bb
       0.026893321 -0.031319425 -0.021534506 -0.0033467694
0003f0 f4 a7 d8 bc a8 ee 21 bc 8a 28 5a bd da 25 b7 bb
       -0.026447274 -0.00988356 -0.053261317 -0.005589229

fa2.bias f4 [300]
000000 22 fb 94 3b 25 03 6a bd 47 16 0b bd d3 34 a7 bc
       0.004546539 -0.057131905 -0.033956792 -0.02041093
000010 43 e1 09 be be 9e ef 3c 0b 27 25 3d ad 63 14 bc
       -0.13464837 0.029250499 0.040320437 -0.009056968
000020 e2 37 fb bd 23 d9 b4 3b dc 5a 70 bd 0a 2a a3 3c
       -0.12266518 0.005519049 -0.0586804 0.019917507
000030 78 1d 4d be 2a 74 34 3d b2 d6 04 bd 51 3b 69 be
       -0.20030773 0.044056095 -0.032431312 -0.22776534
000040 4c 5e 6d bd ef 6e 4a bd f5 c2 58 bd 55 58 0b ba
       -0.057951257 -0.0494222 -0.0529203 -0.00053155917
000050 42 ac 35 bd d1 13 26 3d 6a fb 3e bd b7 02 3f bc
       -0.04435373 0.040546242 -0.046626486 -0.011658362
000060 a2 4a 7d bc b6 d7 17 3d 8c 40 a0 3c 5c d7 95 bd
       -0.015459688 0.037070952 0.019562028 -0.07316467
000070 07 8d b6 bc 13 c7 7e be ad 03 07 bd 2d 9f 87 3c
       -0.022284044 -0.24880628 -0.03296249 0.016555393
000080 17 ad ad 3c 24 c5 21 bd 1e 0c ef bc fa 6f 32 bd
       0.0212007 -0.03949465 -0.029180583 -0.04356382
000090 6e aa ae 3c 51 f3 27 bd 0c 10 22 bd ff 27 98 bd
       0.021321502 -0.04100353 -0.039566085 -0.07429504
0000a0 f4 2a 3a 3d b3 7d d4 3d 9a 85 55 3d e1 c8 ae 3d
       0.04545112 0.10375538 0.052129366 0.08534408
0000b0 bd b7 c4 3c e9 a2 4f bd b4 f3 bf bc 47 39 de 3c
       0.024013394 -0.050692473 -0.023431636 0.027126921
0000c0 3d 5f 40 bd 16 47 30 3f 76 08 03 bd a6 22 1c 3d
       -0.046965826 0.6885847 -0.03199049 0.03811898
0000d0 2d 15 9c 3d 55 f1 97 bd e5 e0 b8 3c 99 f4 5b 3c
       0.076212265 -0.07419077 0.022568176 0.013425016
0000e0 3b 05 0b 3e c7 0c 80 be 4a e5 1c 3c 3f 36 f7 bc
       0.13576214 -0.25009748 0.009576151 -0.030177234
0000f0 73 27 38 bc cd e8 db bc d3 6a 33 3d db 38 a1 bd
       -0.011239874 -0.026844407 0.043803047 -0.078721724
000100 7e 45 06 3c 20 f9 88 bd e5 4e 14 3d 97 5f 90 bb
       0.008195279 -0.06688142 0.036208052 -0.0044059264
000110 27 01 f8 3c 67 8e 6c 3c af 1f 5b 3d 0d bc 0f bd
       0.030273987 0.014438248 0.053497013 -0.03509145
000120 6c d9 21 3d f9 ce d4 bb 57 4a e8 bc 52 46 90 3c
       0.03951399 -0.0064943996 -0.02835576 0.017611656
000130 54 50 40 bd a1 95 fe bc 33 a7 2c bd 65 84 85 bc
       -0.046951607 -0.031077208 -0.04215164 -0.016298482
000140 2f d9 8e bd cf 51 62 bd a3 c3 43 be 6e 1b 31 3c
       -0.06975018 -0.0552538 -0.19117598 0.010809762
000150 bf 37 8e bd 44 78 32 bc 09 33 32 bc 45 45 bd bc
       -0.069442265 -0.010892931 -0.010876426 -0.02310432
000160 1a d3 3d be e6 fa 97 bc ad 58 39 be 8a 40 5c bd
       -0.1853756 -0.018552255 -0.18100233 -0.053772487
000170 53 02 8d bd e0 7f 45 bd 6e 30 de 3c d8 e5 87 3c
       -0.06885209 -0.048217654 0.027122702 0.01658909
000180 a4 3e 82 bc 04 34 15 ba ca 4b f7 3c 8e a5 ae ba
       -0.01589901 -0.000569165 0.030187506 -0.0013324486
000190 fb 32 dd 3d af f9 75 be 45 bf 46 be c4 6e 44 bc
       0.108007394 -0.24021028 -0.19408901 -0.011989299
0001a0 b8 1c 6f be 23 72 71 bd 85 eb 94 3c 36 1a 92 bc
       -0.23350799 -0.05894674 0.01817871 -0.017834764
0001b0 ce 00 60 bd a2 4a 38 bb 90 8f 8a bc 13 b3 5e bd
       -0.054688267 -0.0028120656 -0.016914159 -0.054369997
0001c0 92 41 47 bc 85 b5 ea bc 21 4d 47 be 8b 13 f1 bc
       -0.012161629 -0.028651008 -0.19463016 -0.029428264
0001d0 9d c8 8c bc ef ca 74 bd b7 d0 d3 3c 1c fb b8 3c
       -0.017185504 -0.059763845 0.025856359 0.022580676
0001e0 e1 6f 53 bd da 99 f1 3c c1 4e 89 3c d5 18 8b bc
       -0.051620368 0.029492307 0.016761186 -0.016979614
0001f0 8a 01 a3 bd 72 f7 47 3b dc 28 91 bd 39 1f 72 bd
       -0.07959278 0.003051248 -0.070878714 -0.059111807
000200 d8 99 2e bd 5a 6f d0 bc f1 80 5b bd 7c 8b bd bd
       -0.042627186 -0.025443722 -0.053589765 -0.0925512
000210 01 69 f7 3c ad 12 41 bd 65 82 94 bb f0 b3 70 bc
       0.030201437 -0.04713695 -0.004532146 -0.014691338
000220 3a 91 91 bd 6d 38 db bc da d1 d3 3c c5 90 c3 bc
       -0.07107778 -0.026760304 0.025856901 -0.023872742
000230 82 ba 67 be 3f d7 50 3b 64 26 17 bc d5 15 18 bd
       -0.22629741 0.0031866578 -0.009225462 -0.037130196
000240 c6 3f 44 be 32 a4 49 bd 78 b7 8a bd 78 a8 22 bd
       -0.19164953 -0.049228854 -0.06773275 -0.039711446
000250 de d3 47 3d 76 64 06 bc f0 ef f0 bc 40 04 ff 3c
       0.048786037 -0.008202663 -0.029411286 0.031129956
000260 7f 0c 84 be c9 4d d2 ba f1 36 09 bd 3d 99 82 bd
       -0.25790784 -0.001604491 -0.03349966 -0.06376884
000270 0e 12 19 bc 45 9d da bc 29 2d 91 3c eb 8b 39 bd
       -0.0093426835 -0.02668632 0.01772173 -0.04529945
000280 d5 01 39 3d fb 0b 83 bc cb c7 46 bd 07 01 b9 bd
       0.045167763 -0.015996924 -0.04853038 -0.09033399
000290 4a f9 0a 3d 1b f2 dd 3c 3d f6 90 bd c7 4d 5a bd
       0.033929147 0.027092984 -0.07078216 -0.05329683
0002a0 67 d8 12 bd 9b c3 d9 bc 87 f1 14 3d 03 c2 15 bc
       -0.03585091 -0.02658253 0.03636315 -0.009140494
0002b0 09 6e 4b 3d 70 38 93 bd 21 88 2f bd f7 21 15 3d
       0.049665485 -0.07188499 -0.042854432 0.036409345
0002c0 0b f3 bb bc 85 3b 91 bd c5 37 06 be f0 10 de bc
       -0.02294304 -0.070914306 -0.13107212 -0.027107686
0002d0 75 6e 36 bd 8d ce ba bd 09 a0 5d bc cd 43 3c bd
       -0.044538934 -0.09121428 -0.013526925 -0.045963097
0002e0 35 dd 2b 3c 63 7b a8 ba 9d 13 67 bd 62 fe 1c 3d
       0.010489752 -0.0012854155 -0.05641519 0.038328536
0002f0 a7 2f 74 3c 7a 53 0f bc 22 41 5b bd da 47 d3 bc
       0.014903939 -0.00874793 -0.053528912 -0.025791097
000300 90 8e 9c 3b 20 1e 02 bd 73 15 bd bd ee e9 e5 bd
       0.004777737 -0.03176701 -0.09232607 -0.11226259
000310 aa 2c 42 be 38 55 7a bc 3c af a2 3a 5c c2 39 3c
       -0.1896235 -0.015279107 0.0012411843 0.011337843
000320 d4 fe 87 bc f1 20 5b bd d1 53 84 bc 9a 31 a8 bc
       -0.016601004 -0.053498212 -0.016153248 -0.020531464
000330 39 cc 67 be 29 22 a1 3c da 75 28 be 68 a5 a7 bc
       -0.22636499 0.01966961 -0.16451207 -0.020464614
000340 05 0b be bd 59 a2 86 be c9 60 75 bd db 68 5b bd
       -0.092794456 -0.26295736 -0.059906755 -0.053566795
000350 74 4e 7f bd 9f 45 d8 3c 4c d3 2f bd 56 a6 3c bd
       -0.062330678 0.026400385 -0.042926118 -0.046057068
000360 16 31 1f be e0 f5 b2 3a 1b e5 56 bd 86 58 a2 3c
       -0.15546069 0.0013653599 -0.052464586 0.019817602
000370 a8 7d 75 3d e5 3c 1e bd e2 ca 48 bd 8d 3f 90 3c
       0.05993429 -0.038632292 -0.04902161 0.017608428
000380 63 fd 13 3d 7e e2 aa 3d 5c eb ea bc 21 dc 5d 3c
       0.03613032 0.08343981 -0.028676681 0.013541252
000390 4f 2d 77 bd f5 ed 3c bc 24 06 2c bd f8 9a 80 bc
       -0.060345944 -0.011531343 -0.041998044 -0.015698895
0003a0 48 b1 ae bc 02 e4 d1 3c 41 ff e8 3c 59 66 3d be
       -0.021324769 0.025621418 0.028442027 -0.18496074
0003b0 1b ec 5b be 02 27 31 bd fd b0 4b be 50 c0 20 bd
       -0.21476786 -0.04325009 -0.19891734 -0.039245903
0003c0 e7 25 06 3d 38 8d 4b bd f5 57 e8 3c e3 02 eb 3a
       0.03275099 -0.049695224 0.028362254 0.0017929937
0003d0 b5 96 64 bd 28 03 5b bd dd 4c 83 bd 0e b5 93 bd
       -0.055807788 -0.053469807 -0.06411145 -0.07212268
0003e0 33 a0 4e be 04 42 a9 3c 38 1f ad bd d3 ce 59 bc
       -0.20178299 0.020661362 -0.0845322 -0.01329394
0003f0 11 88 93 bd 70 17 33 be ee b0 3e bc 97 10 1f 3d
       -0.07203687 -0.1748941 -0.011638863 0.03883418

fa3.weight f4 [2, 300]
000000 12 cd cd 3c 67 1e 32 bc b7 c3 b6 bb ee 22 27 3c
       0.0251222 -0.010871506 -0.0055775302 0.010201199
000010 46 c0 06 3f a7 fe f2 3b 2b ab 34 bb e0 c0 df 3b
       0.52637136 0.007415611 -0.0027567844 0.0068284124
000020 42 10 e6 3e ca 67 5b 3c ef c8 1e 3f 56 e8 04 40
       0.4493428 0.013391444 0.6202535 2.0766807
000030 f5 ef 08 3e b9 10 79 bc 7a 5e de 3c 73 25 0e 3e
       0.13372786 -0.015201741 0.02714466 0.13881473
000040 51 68 80 bc 6b 2e 1c bb 46 0a a8 3c f7 79 6c 3d
       -0.015674742 -0.0023831378 0.020512711 0.057733502
000050 74 8f cf bc c6 95 d8 bc 18 38 06 3b 66 fb 35 bc
       -0.025336958 -0.026438605 0.0020480212 -0.011107301
000060 15 8e 65 3a 0a c4 80 bc e8 a5 2c bc 81 90 c7 3e
       0.00087568286 -0.015718479 -0.010537602 0.38977435
000070 ff ef b4 3d 0e 22 15 3e 88 0d 9f bb 9f d5 b5 3e
       0.08834838 0.14563772 -0.004853908 0.35514542
000080 20 ec b8 3c 9a b4 63 bc 1c c2 94 3c e0 87 1e 3e
       0.02257353 -0.013898039 0.018158965 0.1548152
000090 48 0f 05 3d a4 89 a7 bc b2 5c e1 bb 67 dd ea bb
       0.032485276 -0.020451374 -0.006877505 -0.0071675065
0000a0 cb de 14 3d 59 d5 19 3f 6a 84 99 3c 1b c6 3a 40
       0.036345284 0.6009117 0.018739898 2.9183414
0000b0 f9 f4 98 39 4e 51 c2 3c 41 d8 bc 3a d8 b2 04 40
       0.00029174218 0.02372041 0.001440771 2.0734158
0000c0 bd a5 50 3e 76 d4 ea 3f 53 cc 43 3c 47 95 da 3b
       0.20375724 1.8346088 0.01195057 0.0066706273
0000d0 73 4e 45 40 6a ca 1a 3b fb 52 33 3d 73 d7 e4 3e
       3.0829132 0.0023619183 0.04378031 0.44695625
0000e0 26 66 1a 3f ba 26 1c 3e f2 ee de bc bc 56 ec 3b
       0.60312116 0.15249148 -0.027213547 0.007212488
0000f0 43 17 56 ba 9d 34 d7 bb 80 97 38 3f 6a 48 2d 3d
       -0.00081669184 -0.0065675513 0.7210617 0.042305388
000100 29 09 0f ba a7 de 7b 3c 17 f8 b2 3c 87 23 99 bc
       -0.0005456382 0.015372909 0.021846814 -0.018693699
000110 96 41 48 bc 87 af c9 ba d2 a3 c1 3e d1 3c 3b 3d
       -0.012222668 -0.0015387394 0.37820297 0.045712296
000120 11 aa 78 bc 81 67 74 3c 5c b0 82 3c a2 31 bc bc
       -0.015177266 0.014917255 0.015953235 -0.022972886
000130 9c 6c e0 3b 62 d9 8a bb 5e 52 09 3f 24 5b 26 3b
       0.0068488847 -0.00423734 0.5364131 0.0025383914
000140 48 01 59 3d ba 99 06 3f ea 9a 02 3e 4d a5 f7 bb
       0.052979738 0.5257832 0.12754408 -0.007557547
000150 04 84 51 3e 7e ea dd 3e 76 07 99 3c 8f fb 07 bc
       0.20460516 0.43342966 0.018680315 -0.008299722
000160 6c f5 0c 3e e5 b6 4b 3e cd 02 0c 3e 97 78 45 3d
       0.13765496 0.19893987 0.13672943 0.048210707
000170 51 82 56 3c 6e 0e 09 3c d5 31 d7 3c ad 0b cd bc
       0.013092593 0.008365257 0.026268879 -0.025029982
000180 3d 69 a4 3d 63 1e 4f ba be ec 23 ba 1d 4f 5b 3d
       0.08027885 -0.00079009513 -0.0006253234 0.053542245
000190 31 f1 03 3f 7f d0 07 3e 27 8c 01 3e 47 1e e2 3b
       0.51539904 0.13263129 0.1265112 0.006900582
0001a0 b4 57 15 3e cb 39 52 bc ec 16 be 3c 5b 2c 3f 3f
       0.14584237 -0.012831162 0.02320429 0.74677056
0001b0 1d b3 b9 bc a6 be 1c 3d e0 c5 a4 bc b4 f0 83 3c
       -0.022668416 0.038267754 -0.020113885 0.016105987
0001c0 5d 2d 83 3b be 22 12 3e e1 71 11 3e b9 82 e3 bb
       0.0040032105 0.14271066 0.14203598 -0.0069430736
0001d0 6f 95 0d 3c c0 55 aa 3b 57 42 85 bc 43 07 29 bc
       0.008641585 0.0051982105 -0.016266985 -0.010316673
0001e0 f2 97 f5 3b c9 55 95 3b 0e d7 e0 3c 4e c4 81 bc
       0.00749492 0.0045573455 0.027446296 -0.015840676
0001f0 54 56 57 3d fc 1e 46 bb 84 06 a9 bb 41 1d 5c 3b
       0.052572563 -0.003023087 -0.0051582474 0.0033586773
000200 f2 d5 25 bc 95 15 5e 3e 0b ae 59 bb 1c 18 95 3c
       -0.010121809 0.2168792 -0.003321531 0.018199973
000210 f1 af 42 3e c3 93 41 3d be a1 b7 3c 8f 32 35 3b
       0.19012429 0.047260057 0.022415992 0.0027648543
000220 a5 6e be bc 2e ea e5 39 96 72 b4 3e 2a 5c c0 3d
       -0.023246119 0.0004385276 0.35243672 0.09392579
000230 40 5a 07 3e d4 23 9a bb 78 e9 c1 3b 02 df 2a 3c
       0.13218021 -0.004703978 0.005917724 0.010429146
000240 df f8 0d 3e d1 81 1f bc 84 f0 ad 3c 9b d4 ec 3c
       0.13864468 -0.0097355405 0.02123285 0.028909972
000250 b4 dc 77 3d 5e b2 ff 3e bc f3 03 bc 90 26 44 3e
       0.060513213 0.4994077 -0.008053716 0.19155335
000260 93 60 0e 3e a9 63 d5 bc 85 14 3f 3c 67 cd 14 3b
       0.13904028 -0.026048498 0.011662607 0.0022705437
000270 2e be d3 ba 35 72 20 bc 3d 77 14 ba 7c 46 8d bb
       -0.00161547 -0.009792854 -0.000566352 -0.004311381
000280 b2 1f 87 3c a8 f2 cd bc f1 89 b0 bc 83 9a 7b bb
       0.016494606 -0.025140122 -0.02155015 -0.0038391657
000290 38 0c a1 3d 34 c0 00 3f d4 bd ad 3b 6e 35 e6 3a
       0.07863659 0.5029328 0.0053021703 0.0017563531
0002a0 ec 02 ab 3b 9f 35 10 3d 65 a1 d3 3c 80 3c 4f 3b
       0.005218854 0.035207387 0.025833795 0.0031621754
0002b0 11 a3 25 40 3c b5 1b bc c5 bd b7 bc 04 6e 13 bc
       2.5880778 -0.009503659 -0.022429356 -0.008998398
0002c0 a3 47 33 bb 85 ea 0a 3b 7e 01 10 3e b6 e2 ae bc
       -0.0027355931 0.0021196913 0.14063069 -0.021348339
0002d0 64 3e 20 3c bc f1 1b 3c 5e 85 85 bc aa bb 15 bb
       0.0097805 0.009518083 -0.016298946 -0.0022847452
0002e0 59 06 8e 3c 6b eb 06 bc 11 a1 90 3c 28 ab 9e 3e
       0.017337011 -0.008234839 0.017654927 0.30989957
0002f0 56 ca be bc 22 21 c3 bc 96 17 9d bc c6 26 4a bc
       -0.02328984 -0.02381951 -0.019176286 -0.012338346
000300 04 43 8d 3a 39 c3 ee 3c b2 16 83 3e 89 1f 1d 3e
       0.0010777419 0.029145824 0.25603253 0.15344061
000310 bc 41 0f 3e 42 76 df bc bb f1 71 39 05 1f bc 39
       0.1398992 -0.02727807 0.00023073603 0.00035881266
000320 bd ea 8d 3b 18 fe bf 3c d9 d5 87 bc 6f 21 31 3c
       0.0043309615 0.023436591 -0.016581463 0.010811194
000330 e8 81 0a 3e 26 8f 30 3e 39 21 0b 3e 49 ae 96 3e
       0.13526118 0.17242107 0.13586892 0.29429844
000340 c7 5f 18 bc 1b 75 0d 3e 6a 3b ab ba 7f ad e6 3b
       -0.009300179 0.13814203 -0.0013063971 0.0070397253
000350 94 14 90 bc 8a 7c 03 3c 05 d6 ef 3d d5 ec 1b bc
       -0.017587937 0.008025298 0.11710743 -0.009516914
000360 1c 84 0f 3e c6 46 75 3f cf e1 68 bc f0 cb c9 bc
       0.1401524 0.95811117 -0.014213993 -0.024633378
000370 ce 38 e4 3e fb 26 0c bc 61 c1 8f bc c0 00 58 bb
       0.4457459 -0.008554216 -0.017548265 -0.0032959431
000380 27 1e 8c bc 6d 9d ef 3e b1 74 0e 3b fe 5e c2 ba
       -0.017104222 0.46799794 0.0021737034 -0.0014829335
000390 c9 60 56 3d 44 22 0e 3c c6 c2 39 3c 19 84 51 3c
       0.052338395 0.008675162 0.0113379415 0.012787842
0003a0 89 80 64 bc 3a 54 01 bc ec 65 9f 3c c5 97 11 3e
       -0.013946661 -0.007893616 0.01945778 0.14218052
0003b0 e0 4e 1e 3e fb 65 5a b8 36 0e 0e 3e ec cc cb 3d
       0.15459776 -5.2070227e-05 0.13872609 0.09951195
0003c0 da 9d 92 3c 22 5d 91 3e 56 8a 23 bc 94 9f dd bc
       0.017897535 0.28391367 -0.009981712 -0.027053632
0003d0 0f 79 be bb 53 ff f9 bb 51 60 d6 bc dd f0 1c 3d
       -0.005812771 -0.007629314 -0.026168974 0.038315643
0003e0 10 79 0b 3e 30 6a 40 3d d3 c5 50 3f 88 f1 ca 3b
       0.136204 0.04697627 0.81551856 0.0061933435
0003f0 a7 eb df ba 8f 26 0b 3e 90 02 42 3c 22 5c a5 3d
       -0.001708378 0.13588928 0.011841431 0.080742136

fa3.bias f4 [2]
000000 c6 0c 4b 3f ef e5 01 bd
       0.79316366 -0.031713422
