src/Models/stage_2/1600_actor.pt (torch_old, 382508 bytes, 6 tensors)

fa1.weight f4 [300, 14]
00000000: 8534 0fbe 4f87 c8bd 8d11 e6bd 497d 46be
00000010: 647f 1ebe 39cf b9bd 0f51 0fbe aead 20be
00000020: e377 ebbd aa4d 3bbe e370 febd c357 9bbd
00000030: 916c 3cbe e096 10be 5856 e43b 56c3 43be
00000040: 0c73 3dbc 218e 233c 4933 1dbe 3add 7cbe
00000050: ca95 ba3e 9c93 813e 7b22 f339 d556 b7bd
00000060: bd17 3f3e 4c97 9e3e 7510 9b3f d85d 18be
00000070: 8c2e 96bd ae27 53bd bc84 90bc ad4b 20bd
00000080: f6df 35bd 1f69 66bd 062c 09bd 3797 6c3a
00000090: 5b7b 8cbd 94c3 babd 4a59 9bbd 6625 a1bd
000000a0: 83d8 b03d 7404 07bb 355f fcbd 7410 993e
000000b0: e43a 963e 1a6f 093f 6d39 853e e9c0 9ebe
000000c0: 95b7 75be 36be 78bd c90f 4a3e cb8b 553e
000000d0: 25d2 3dbe 66fd 0fbf d65e cbbe 0889 4a3e
000000e0: e687 06bd 25ba d1bd f3ef bbbb 5667 2cbd
000000f0: 72ac c3bd 22a9 94bd 95c4 05be ebe0 0cbd
00000100: bcc8 f5bc a2ba b1bd 05de dabd 5142 d63c
00000110: 9bf7 753e 3486 3dbd 78e3 ddbd 84ee 29bd
00000120: d6c3 eebc b82f c1bd 5ba4 45bd 3470 4fbd
00000130: 840c 6cbd 7d13 2bbd 0aa2 9dbd 4f38 66bd
00000140: f0eb 4abd f8f4 7a3b 9b7a 753e b280 9ebd
00000150: ff1b 40bd cd90 e9bc 87d6 5cbd 3598 a03b
00000160: 2624 153d 7274 4ebc 14c7 403c 9589 023b
00000170: 7871 d43c 9ea9 b3bc a206 5f3c bd60 623c
00000180: ac7f 803b 57ae 60bc bf5e 07bd b601 90bd
00000190: 2db1 3dbd bfb4 23bd 6c1f 0dbe 0058 f1bd
000001a0: fe00 07bd 7266 963b 15f2 8fbd 82ef 303c
000001b0: 1cd3 0dbd 1bdf 8b3b 1682 db3d 376e 413b
000001c0: fd6a 7abd 1e35 efbb de3e 53bd b9de 203d
000001d0: cc49 c43c df7c 2abd 71b3 dd3c e7db 323d
000001e0: 5d8c 66bd 8848 86bd e49a 6c3b 2b1c 0cbd
000001f0: e442 49bc 181a c2bc ba66 14bc f399 9fbd
00000200: c5a2 edbc e8af b8bd cef7 103c 44eb 96bd
00000210: ee2f 23bd 5ed5 99bd 73da f4bb 42e8 73bd
00000220: e495 d9bc f6bb d23c 1d23 ab3c c0aa 7abd
00000230: bd5f 0ebd 7366 16bd 3dc7 843b 1247 0dbd
00000240: 38b0 483c f467 213d 2155 033d cae2 71bd
00000250: a011 553c 8c60 4ebd a456 063d d989 0cbd
00000260: e13b ccbc 0a41 2c3d 8da1 bdbd 6efe 6ebd
00000270: e8a4 c1bd 0f78 24be db70 bcbd ca15 0c3d
00000280: 547e 213d fd74 653d 29f6 1cbd 5d6f 0ebd
00000290: 7cc3 0dbd 79c6 e93c 277b 713e c445 84bd
000002a0: dd0c f03d eb66 103e bf79 ed3d df4a 753e
000002b0: e5e4 0c3e 4a2c 0b3e 8156 5fbe 833c 473c
000002c0: 1308 e13c 0baa a03d c8b4 5b3d 6ee9 dcbe
000002d0: 15e2 3bbe 3211 b93c 6a82 1d3d d2a3 b33d
000002e0: a90c d03d d68d 173e 81d0 223e dce7 8dbe
000002f0: 8b57 8dbe ef9a 3fbe f55d 1cbd 94a7 0e3d
00000300: 6a3e c7bd 556d d03e fb1a dcbe 2484 d5bc
00000310: ecc1 49bd 4f82 0cbd 5c05 593c 6508 da3c
00000320: 9beb 97bc 6506 353d e736 37bd 76ca 3bbd
00000330: 1e98 cf3c a598 32bd 7363 3e3d f81f 093d
00000340: c7a5 90bc 3d76 02bd 541f e3bc 5e5a eebc
00000350: 61fd 4bbd 72a6 c4bc 515e c3bd d53b 77bc
00000360: 179d c13c b706 08bd 6f1f 54bd 808b fabd
00000370: d4da 63bd 1304 0dbd d278 823e 475d 673d
00000380: 9917 65be be54 793e 05b2 b23e ef77 633f
00000390: 4f63 3e3f a4ca 7f3e 4f94 6abd 851a ddbd
000003a0: 19ad ad3c ccf5 e03d 0331 3cbe 15a0 c23c
000003b0: 14ca 6ebe a7ac 9ebe efc3 5ebd 6086 2dbe
000003c0: bd20 9abe c723 3ebe 5128 643e 8aa6 9c3e
000003d0: 90dd 8ebe 3913 debe 3ed6 1fbe 4e5b d9bc
000003e0: a4ff 87bc 6ba9 9d3e fcac 2cbd 4d10 43be
000003f0: d29c 43be b541 bebe bb45 f63c eef7 c8bc
-0.13984878 -0.09791433 -0.11233816 -0.1938373 -0.15478283 -0.09072728 -0.13995765 -0.15691254
-0.11497476 -0.18291345 -0.12423875 -0.075850986 -0.1840079 -0.14120054 0.006968301 -0.19117483
-0.011563074 0.009982617 -0.15351595 -0.24693766 0.36442405 0.2530793 0.00046374262 -0.08952109
0.18661399 0.30974805 1.2114397 -0.14879549 -0.07333097 -0.051551513 -0.017641418 -0.03913467
-0.04440304 -0.056252595 -0.03348925 0.00090252183 -0.06859466 -0.09119335 -0.0758539 -0.07868461
0.08635046 -0.002060202 -0.12322847 0.29895365 0.29341805 0.5368515 0.26020375 -0.31006554
-0.23995812 -0.060728274 0.19732584 0.20854108 -0.18537195 -0.5624603 -0.39720792 0.19778836
-0.032844447 -0.102405824 -0.0057353913 -0.042090736 -0.09554376 -0.07258822 -0.13063271 -0.034394186
-0.030002944 -0.086781755 -0.10686878 0.026154669 0.24020235 -0.046270564 -0.10834402 -0.04148723
-0.029146116 -0.0943293 -0.048252445 -0.050644115 -0.057629123 -0.041766632 -0.07696922 -0.056206044
-0.049541414 0.0038292985 0.23972552 -0.077393904 -0.0469017 -0.02851143 -0.053915527 0.004900957
0.036411427 -0.012601005 0.011766214 0.001991843 0.025933012 -0.021931466 0.013612421 0.0138170095
0.0039214697 -0.013713441 -0.03304934 -0.07031576 -0.046311546 -0.039967295 -0.13781518 -0.11784363
-0.03295993 0.004589849 -0.07028595 0.010799291 -0.034625158 0.0042685396 0.10718171 0.0029515156
-0.06113719 -0.0073000332 -0.051573627 0.039274905 0.02396097 -0.041622993 0.027063103 0.043666746
-0.056286205 -0.06556803 0.0036103064 -0.03420655 -0.012284014 -0.023694083 -0.009057695 -0.07793035
-0.029008279 -0.090179265 0.008848144 -0.07369092 -0.03984063 -0.075114 -0.0074723302 -0.05954767
-0.026560731 0.025724392 0.020890767 -0.061197996 -0.034759272 -0.036718797 0.0040520714 -0.034491606
0.012249045 0.039405778 0.032063607 -0.059054174 0.01300469 -0.050385043 0.03279747 -0.03431115
-0.024930896 0.042054214 -0.09259329 -0.05834811 -0.094552815 -0.16061424 -0.09201213 0.034200467
0.039427117 0.05601977 -0.038320694 -0.034774173 -0.034610257 0.028537022 0.23582135 -0.06458619
0.117212035 0.1410176 0.11595487 0.23954342 0.13759191 0.13591114 -0.21810342 0.012160423
0.02746967 0.07844933 0.053639203 -0.43146843 -0.18347962 0.022591207 0.03845445 0.087714806
0.10158665 0.148002 0.1589985 -0.27715957 -0.27605852 -0.18711446 -0.038175542 0.034827784
-0.097287014 0.40708414 -0.42989334 -0.026063986 -0.049257204 -0.03430396 0.013245907 0.026615331
-0.018544963 0.04419555 -0.044730093 -0.04584738 0.02534109 -0.043602604 0.04648156 0.033477753
-0.017657174 -0.031851042 -0.0277249 -0.029095825 -0.049802188 -0.024005149 -0.09539474 -0.015089949
0.023634477 -0.03320953 -0.05178779 -0.12233639 -0.055628613 -0.034427714 0.25482804 0.05648544
-0.22372283 0.24348733 0.34901443 0.8885488 0.7437028 0.24979645 -0.057270344 -0.10796074
0.021200703 0.10984382 -0.18378071 0.023757974 -0.23319274 -0.30991098 -0.054386076 -0.16945791
-0.30103102 -0.18568335 0.22281004 0.3059581 -0.27903414 -0.4337404 -0.1560907 -0.026532795
-0.016601391 0.30793318 -0.04215716 -0.19049187 -0.19102791 -0.37159505 0.030062547 -0.024532285

fa1.bias f4 [300]
00000000: e1cc 8dbd ac7e a5be e15a b53d c851 0c3e
00000010: c4bc 853d 7040 393e d5bc 21be 838d 163e
00000020: 07fb 7fbe 341a 33bd a109 81be ca9a 60be
00000030: 80ed cd3e 8dd1 e3bd f5b9 73be 7b64 4fbe
00000040: 51e9 063e 9964 7abe b6d4 acbd 3d85 04be
00000050: 7de0 c83d 289b 08be 054a 95bc 23af 86bd
00000060: 4261 0c3e 7db3 8dbe 4414 d0be fa36 57be
00000070: 26c6 bebe 40ba a2bd 8c18 64be b5f6 183e
00000080: 1ef5 403e 73fa 0bbe 0946 023e 4aa0 513e
00000090: e540 90be 9e44 b73d 0b61 59be 4cde 6ebe
000000a0: 1f43 093d 738d 88be 0ea0 0fbd b13c d4bd
000000b0: 9929 8a3d 69ac c3bd 7f5d eaba 8795 4fbd
000000c0: cf12 fabc 4995 0dbe 0a23 74be b465 683d
000000d0: 75b7 cfbd cc0e 103e 9c94 8dbe 7916 62be
000000e0: ea31 b1be b3ee fdbd e499 03be 5b6a 96bd
000000f0: 7eaf 263f 0a87 7e3d 22e7 723e a7f6 7c3d
00000100: 0e2a dcbd 11da 95bd d5fc 05be 4acc 14be
00000110: 755c 6dbe 14c0 343e 1331 b93e d52e abbd
00000120: 5b86 83be 53c9 c63d db3b 8dbe 76a5 e1bd
00000130: f0b5 dfbc 4873 553c 3e76 a3bd 1b85 c5be
00000140: dd35 c9bd b78f bf3e 2fa4 383e b0e2 b8bb
00000150: 6b31 073d 1258 d23c 5fc3 0abe 6b6f 2a3b
00000160: 8a6a 6abe 9dde ab3d b103 9e3d 6f7b efbd
00000170: 345f d9bd e31b 543d fa15 e0bd 5a6c 7abe
00000180: 085e 333e 6d73 56be af0a a4be 3a0a 453d
00000190: e95d 2e3d b064 753e c6b6 86be 8b28 a4be
000001a0: 1168 fcbd adf7 49be e0a6 88be 383f 89be
000001b0: 9c0d 1a3f 151c 6fbd 8271 8ebe 8eda afbe
000001c0: fe06 86be 4f5f 17be a6ce 3dbe d63f bd3e
000001d0: cc0b 63be 69ad bc3d 642d 633e b7ea 9abe
000001e0: 6c03 69bc 453f 9cbc d4a1 4bbe ae11 3ebe
000001f0: 0360 94be b9df f33e 958e c93e 7e9e fcbc
00000200: db70 34be 6eb7 dbbc d164 e9ba d7bb 1abd
00000210: e40b 0dbe 11e9 3ebe c0c0 07be 5aa8 edbd
00000220: 4faa 6fbe ac2f ecbd 16fd 06be 8dc2 26bd
00000230: fcfb 87be 7ebc 073e f466 3dbd e36e f53d
00000240: a517 043f 5371 a5bd 2fde 673e 1a73 01bd
00000250: 5396 793d 393a a3be 7a16 503e 10cc 93be
00000260: 0754 d53d 8388 583e 5e4b 46be cd42 363e
00000270: e95f 603e 10dd 65be a1b0 0bbe 54b6 8dbe
00000280: ff1c 8ebe a8d9 88be b3f3 f53c 60d9 f3bd
00000290: a437 00bd 885e 60be 5059 cbbe cc9e 20bd
000002a0: 04a5 f6bc c293 90be 19d9 5dbe 07b6 efbd
000002b0: 54b1 03be e057 393e 4277 79be 2014 d5be
000002c0: 71c2 b13c 5771 9c3c da33 6abe a1a1 c63d
000002d0: 04e4 d9bd c093 9f3e 5871 9cbe 2d00 d63d
000002e0: c942 e93d a004 09bf 2b8e de3d de79 44bd
000002f0: 6478 3e3d 5e44 91be 98f7 aebe d2ba 2bbe
00000300: 8826 4bbe 0c7e 12be bd34 99be bd5b 8abe
00000310: 3f20 82be 781b 33be 37c4 5d3d 71ee 9b3d
00000320: c778 2dbe 7a57 033e 5ec0 4fbe ade8 5e3d
00000330: 1134 ccbd 0ba3 6bbd e832 b8bd b08b b3be
00000340: c127 473e 6d81 ee3d 0d8c 76be bb65 0d3d
00000350: d246 a7be 76d1 82be 6a55 1dbe 42fe a8be
00000360: 923f 6abe 3501 47be 225b 8abe afcc ca3d
00000370: 6f8a ad3e e37a 1cbe a027 433e 5cca 7abe
00000380: c7c4 3abe 7965 f83d e17c 09be a8a4 173d
00000390: 4c10 28be 6744 553d 793e 72be 8de4 8ebe
000003a0: 30be 72bd 6f97 77be 7482 6e3e 5dd7 ee3d
000003b0: a735 24be bbe4 623e 9769 913d e20e f8bb
000003c0: 1a8e 003e e222 f13e 553a 62be 40eb b6bd
000003d0: cd59 abbb fd31 19be cb88 463d d064 e93d
000003e0: 1b90 3c3e 0785 64be 6f14 37be 27f9 78be
000003f0: fb12 843b 5c64 13be 0628 793d 4eca 06be
-0.06923843 -0.32323205 0.088552244 0.13703072 0.06530145 0.18090987 -0.1579469 0.1470242
-0.24998103 -0.04372616 -0.2520266 -0.21934047 0.4022026 -0.11123953 -0.23801406 -0.20253174
0.1317494 -0.24452437 -0.08439009 -0.12941451 0.09808443 -0.13340437 -0.018223772 -0.065763734
0.13708976 -0.27676 -0.4064046 -0.21017066 -0.3726055 -0.079456806 -0.22274989 0.14937861
0.18843505 -0.13669758 0.12722029 0.20471302 -0.2817451 0.089486346 -0.21228425 -0.23326987
0.033511277 -0.26670417 -0.03506475 -0.103631385 0.067462154 -0.09554369 -0.0017880647 -0.05067971
-0.030526547 -0.13826479 -0.23841491 0.056737617 -0.101424135 0.14068145 -0.27652442 -0.22078885
-0.34608394 -0.12399044 -0.12851673 -0.073445044 0.6511153 0.062140502 0.23720983 0.061758664
-0.10750209 -0.073169835 -0.13084729 -0.14531055 -0.23179801 0.17651397 0.36170253 -0.08358542
-0.25688443 0.09706368 -0.2758473 -0.11017887 -0.027308434 0.0130279735 -0.07981537 -0.38578114
-0.09824727 0.37414333 0.18031381 -0.0056422576 0.033006113 0.02567676 -0.1355109 0.0026006352
-0.22892204 0.083920695 0.07715548 -0.11693465 -0.10613862 0.051784407 -0.10941692 -0.24455395
0.17516339 -0.20942469 -0.320394 0.048105456 0.04257003 0.2396419 -0.2631132 -0.32062182
-0.123245366 -0.19723387 -0.26689816 -0.26806045 0.60177016 -0.05837639 -0.27820975 -0.34346431
-0.2617721 -0.14782451 -0.18535861 0.36962765 -0.22172469 0.09212763 0.22185284 -0.30257198
-0.014222007 -0.019073138 -0.19885951 -0.18561432 -0.289795 0.47631624 0.39366594 -0.030837294
-0.17621176 -0.026820865 -0.0017806535 -0.037776794 -0.13774067 -0.18643595 -0.13257122 -0.11604376
-0.23404811 -0.1153253 -0.13182482 -0.04071288 -0.26559436 0.13255498 -0.046240762 0.119840406
0.5159858 -0.080782555 0.2264335 -0.03160391 0.060934376 -0.31880358 0.20321074 -0.28866625
0.104164176 0.21145825 -0.19364688 0.1779892 0.21911587 -0.2244761 -0.13641597 -0.27678168
-0.27756497 -0.2672856 0.030023431 -0.11906695 -0.031303063 -0.21911061 -0.39716578 -0.03921394
-0.030107982 -0.2823773 -0.21664847 -0.11704641 -0.12860614 0.18099928 -0.243619 -0.41616917
0.021699162 0.019097013 -0.22871342 0.09698797 -0.10639194 0.31167412 -0.30555224 0.10449252
0.113896914 -0.5352268 0.1086696 -0.047967784 0.046501532 -0.28372473 -0.34173274 -0.16770485
-0.19838917 -0.14305896 -0.2992305 -0.27023116 -0.25415227 -0.17490947 0.054142203 0.076138385
-0.16940604 0.12826338 -0.20288226 0.054421116 -0.099708684 -0.057528537 -0.089940846 -0.3506751
0.19448759 0.1164578 -0.24076863 0.034520846 -0.3267122 -0.2555043 -0.15364614 -0.33006483
-0.22875813 -0.19434054 -0.27022654 0.099023215 0.3389468 -0.15281253 0.19058084 -0.24491256
-0.18239127 0.121287294 -0.13426544 0.037022263 -0.16412467 0.052067187 -0.23656644 -0.27908745
-0.05926341 -0.24178861 0.23291951 0.11662171 -0.16036092 0.22157566 0.07100218 -0.0075701335
0.12554207 0.47096926 -0.22092564 -0.08931589 -0.005229211 -0.14960475 0.0484703 0.113961816
0.18414347 -0.22316371 -0.17878889 -0.24313794 0.004030583 -0.14393753 0.060829185 -0.1316311

fa2.weight f4 [300, 300]
00000000: 391f f2bc e98d ccbc b1b9 b9bc 95e2 47bd
00000010: 986e b0bc 6cf9 f63c e39f 023d ae71 363d
00000020: 1a6f c9bc 19ed a83c 996b c13b d60c 3fbd
00000030: 755a 98bd f62d 5cbd f78c 0d3d 846b aaba
00000040: 9c9f 04be 65cc 05bd 3159 13bd e80a 8a3b
00000050: 2eb6 b53b d722 2d3c 839a e23c aca1 f53c
00000060: f007 38bd 38f8 d53b 9824 12bd cb9f d8bd
00000070: 37f1 40bd a259 1ebd d2e1 693c f79d 90bd
00000080: bec1 ef3c ab60 6b3d 5aed 95bc 3d6f 87bc
00000090: ddb8 85bd 57de 2d3d 3418 503d 80d2 203b
000000a0: 86dc acbc 6766 413d dbaa eb3c c20e b13c
000000b0: 5606 193c 2ceb 6cbd 64b2 6d3c 8288 9ebd
000000c0: 6d92 643d dad7 4ebc 5fcf 1abd 6b24 47bc
000000d0: ff8a 53ba 9887 7abd 805f dcb6 3dc1 c83c
000000e0: 0d41 d1bd 4019 81bb 581d d5bc 856a 23bc
000000f0: fc19 51bd 8688 653d 44da 20be 6368 4f3d
00000100: b858 fabc 9f7c 91bc 3341 e4bc 8b62 16bd
00000110: 6bd7 333d 2f30 283d a1e2 1cbd 838f 6b3d
00000120: 4669 65bd 5885 dabc 5476 ef3c 84d6 86bc
00000130: fa87 69bd b968 69bc 7b64 4f3d 73b6 333d
00000140: a087 08be ca89 eabd 281a 5e3d c4b7 0dbc
00000150: 2b74 ebbd c673 35bc 203f df3b 0c3a 843d
00000160: 9b62 323d 2e0c d2bc 33ae a8bb 5174 b1bc
00000170: 5e1a 003b 9e79 6ebc 01bc a7bc c474 3cbd
00000180: 4abd f3bd a490 693d ee45 913d cf2b c1bc
00000190: b783 08bc 6046 1cbd ff86 0fbd 4ecc dbbc
000001a0: 2a17 823d ad32 0fbd 236b 2dbd 2e95 b13c
000001b0: 8ecd 99bc b4cf 343c 4e2b 1a3b 55fd 76bd
000001c0: 7833 7b3d 1ca3 8ebc 0a84 4abd 2dda f6bc
000001d0: 5e30 ae3c 7a7b c4bc 4c4e 8db9 d2e5 523d
000001e0: 9c8e 0e3d 0964 c43c f803 9cbd b9f7 33bd
000001f0: 0163 68bc cd86 0ebe 4ef9 3ebd 16f4 e4bd
00000200: 5f14 c13c 688d a5bc a369 8d3c a570 5a3d
00000210: f256 ce3c 67f6 a1bc 4a5c 60bd 77da 50bd
00000220: a25d 4bbd 5f6e 07bd d167 7b3d 8f78 cb3c
00000230: 863f 163d 28cf 38bd d0e0 1bbd d3f7 d73b
00000240: 6be7 b2bc ef30 f1bc 72ac c3bc e654 243d
00000250: 89f3 e8bc 1f2d 9bbd c845 cbbd 0367 d9bc
00000260: e5bc bdbc ec32 7fbd cc9f 283d bde9 5a3d
00000270: deb2 06bd 8083 993c a55a 24bd 1d3b 6e3c
00000280: 006e 5f3d bfbd 703c 51db c3bc 13d2 d9bc
00000290: 918e b9bb 40c2 423c d159 f2bd 6c8d ecbd
000002a0: 7c46 8dbd 33e6 02be cff9 65bd 54f8 febc
000002b0: 28de 31bd 298f 0a3d e026 5f3b 6f46 383b
000002c0: acaa 17bc d5f3 28bd 8dd3 18bd 8229 603d
000002d0: 4a4b 6abd 2eb6 35bd 6926 133d 638a bbbb
000002e0: cdff 64bc 49cc 943c 7506 51bc 7e95 233d
000002f0: c18b 313d cc6c f6bd 5e36 2dbc 47bb 40bd
00000300: 182b 38bc bc6a 85bb b2f2 27bd 9bd4 bb3c
00000310: c621 c3bc e835 92bc 01b1 303d f48e f5bc
00000320: 5135 8abc eb8e 3e3c 87f2 1a3d c49d f5bd
00000330: 63cd 8cbd accc 033c 7cac 18bd d0b3 b8bd
00000340: 28ad 4c3d 42b9 3bbd ce64 223d 196a dfbc
00000350: c99e 0abd 2200 62bd 3ff5 78bd 5ee6 8fbd
00000360: 5950 acbc c512 a2bc 1907 31bd ad71 b6bc
00000370: 7844 f1bc f7c0 4a3d b458 33bc da3c 8cbb
00000380: 1061 1abc 5c03 84bd 34b8 983c b8da e9ba
00000390: 5a9f 4dbd 3253 143d c6ac 0f3d ef34 1bbd
000003a0: e06f 7c3d 2075 0e3d 023b 7dbd b668 22be
000003b0: 7a52 8b3d c8d3 41be 2ecd 1dbd e5e5 f6bd
000003c0: 0c81 ffbc d0fe ddbc 3828 023d c7bd 53bd
000003d0: ca33 cebd e06e ddbc 2e60 99bd f9ec a6bc
000003e0: 624f dc3c cc48 00bd 2269 b0bc 0aa2 9dbc
000003f0: 73b1 bbbd 666c c03c 8a28 5abd da25 b7bb
-0.029555904 -0.024970012 -0.022671552 -0.04880007 -0.02153711 0.03014823 0.03189076 0.044542007
-0.02458911 0.02062087 0.005902719 -0.0466431 -0.07439128 -0.05375477 0.034558263 -0.0013002013
-0.12951511 -0.03266563 -0.03597373 0.004212726 0.005545399 0.0105673885 0.027661568 0.029984318
-0.044929445 0.006529834 -0.03567943 -0.10577353 -0.04710504 -0.0386597 0.014275031 -0.070613794
0.029267188 0.057465237 -0.018301655 -0.016532535 -0.065294005 0.042448368 0.050804332 0.002453953
-0.021101248 0.0472168 0.028767994 0.021613482 0.0093398895 -0.057841465 0.014507864 -0.077408805
0.055803705 -0.012624705 -0.03779542 -0.012154679 -0.0008069723 -0.06116447 -6.5676286e-06 0.024506206
-0.102174856 -0.0039397776 -0.026014969 -0.009974127 -0.05105017 0.056038402 -0.15708262 0.05063666
-0.030559883 -0.01775962 -0.02786312 -0.03671507 0.04390661 0.041061576 -0.038302068 0.05750991
-0.0560086 -0.026674911 0.029231228 -0.01645971 -0.057014443 -0.014246159 0.050632935 0.04387517
-0.13332987 -0.114520624 0.054224163 -0.00864977 -0.11496767 -0.011074966 0.006812945 0.06456384
0.04355107 -0.025640573 -0.0051477193 -0.02166191 0.0019546966 -0.014555363 -0.02047539 -0.046009794
-0.119013384 0.057022706 0.07093416 -0.02358046 -0.0083321845 -0.038153052 -0.03504085 -0.026830819
0.063520744 -0.034960438 -0.0423385 0.02167758 -0.018774774 0.011035848 0.0023524347 -0.06030019
0.06132838 -0.017411761 -0.04944233 -0.030133331 0.021263298 -0.02398466 -0.0002695195 0.051488705
0.03480397 0.023973482 -0.076179445 -0.04393742 -0.014183761 -0.1391861 -0.046624474 -0.11179368
0.023569284 -0.02020903 0.017262286 0.053330082 0.025187943 -0.019770814 -0.054775514 -0.050989594
-0.049649842 -0.033064242 0.061378304 0.02483776 0.036681674 -0.045119435 -0.038056195 0.0065908222
-0.021838864 -0.029442279 -0.02388594 0.040120028 -0.02843644 -0.075769655 -0.09925419 -0.026538378
-0.023161361 -0.062304422 0.04116802 0.053445566 -0.032885425 0.018739462 -0.040125508 0.014540461
0.054548264 0.0146936765 -0.02390829 -0.026589429 -0.005662747 0.011887133 -0.11833537 -0.115504116
-0.068982095 -0.12783127 -0.05614644 -0.031124271 -0.043424755 0.033827934 0.003405027 0.0028118154
-0.009257 -0.04124816 -0.037311126 0.054727085 -0.057200707 -0.044363193 0.035925303 -0.005723284
-0.013977003 0.018163817 -0.012757887 0.03993749 0.04334617 -0.1203247 -0.010572044 -0.0470536
-0.011240743 -0.0040715616 -0.041002937 0.022928527 -0.023819815 -0.01784797 0.043137554 -0.029975392
-0.016871126 0.011630754 0.03782895 -0.11992982 -0.06875112 0.008044403 -0.03727387 -0.090186715
0.049969822 -0.045830972 0.039646916 -0.027272271 -0.033842836 -0.055175908 -0.06078076 -0.07026361
-0.021034406 -0.01978434 -0.04321966 -0.022271002 -0.029451594 0.049500432 -0.010946441 -0.004279715
-0.009422556 -0.06445953 0.018642522 -0.0017841673 -0.050200798 0.036212154 0.03507688 -0.03789228
0.06163013 0.034779668 -0.061823852 -0.15860257 0.068028405 -0.18928444 -0.038525753 -0.12055568
-0.031189464 -0.027099043 0.031776637 -0.051694658 -0.10068472 -0.027030408 -0.07489048 -0.02037667
0.026893321 -0.031319425 -0.021534506 -0.019242305 -0.09164705 0.023489188 -0.053261317 -0.005589229

fa2.bias f4 [300]
00000000: 3b00 29bd 2503 6abd 5b0b 58bd 45e5 97bd
00000010: 8cdf 16be 1005 943c 2c66 983a dbe8 c4bd
00000020: d72d 24be bc61 63bd 241a 97bd c133 403e
00000030: e2f7 f3be 86ed 22bd 9f8f 5cbd 478a cabe
00000040: 0078 88bd 313d a6bd e6cc acbd 70f0 1bbe
00000050: 4390 82bd eba8 32bd 19f8 d5bd fbd5 31bd
00000060: c856 41bd 6954 c43c 135a a9bc 5a72 eabd
00000070: 29e5 26be 79ec 94be f72b 87bd d53a 5bbe
00000080: 79a3 afbc 14f3 96bd 3b0d f5bd 0543 98bd
00000090: 8965 72bc 9b8b ebbd 9494 7fbd ff27 98bd
000000a0: 5010 fbbc 3ecc 543a 3b95 ec3c e638 263e
000000b0: e5c7 34bc 6683 b5bd fb09 62bd 8371 29be
000000c0: 3e0a 19be 6c5a e03e 7608 03bd 3eee abbc
000000d0: 42e1 a6bd 2f94 c9bd 6fc9 373c 1f06 b7bd
000000e0: 17ee 6b3c 40ec bbbe 85dc 2c3d 4bac 7dbd
000000f0: 1bb2 28bd 2a9c 56bd bdb5 95bd c46e bdbd
00000100: 7e45 063c d2f0 8abd 256f ac3d 754b f7bc
00000110: d0c4 aebb 3546 8fbc d738 883e a172 68bd
00000120: f017 a73c 85aa 51bd 4bc2 6bbd 1aa7 31bc
00000130: fddf a1bd 0d86 77bd d159 f2bd 6119 39bd
00000140: f5ab e3bd 303f 7bbe 9d45 bebe 6672 3fbc
00000150: 693e d6bd a6dc e4bd 85e8 2abd 117d 9cbd
00000160: 82d3 c3be 931d febd 0e7e a3be 8a40 5cbd
00000170: c60e f8bd e07f 45bd 0443 983a aef4 35ba
00000180: 21a0 f2bd d827 25bd 3336 203b 96af 65bd
00000190: d5ab abbd c662 bfbe a61f b6be 7c96 2abe
000001a0: 1b96 bbbe a1b5 b9bd ca4f 3b3c a337 b2be
000001b0: 3d1d e4bd 64d8 03bd b29c 8bbd 13b3 5ebd
000001c0: 1914 c3bd e206 95bd 64e5 cfbe e157 39bd
000001d0: 2182 30bd 95e2 c7bd c3c5 fd3c cc88 e3bb
000001e0: 972c 66bd ed46 98bc a30a 4fbc 0f06 1bbd
000001f0: 6e47 3fbe e26d a7bc dc28 91bd 391f 72bd
00000200: 9d18 5bbd 570f 983c 5fb3 adbd 7c8b bdbd
00000210: 286e a5bc 90a5 aebd 5eae b5bd d75a 07bd
00000220: 8746 0cbe 9a7b fcbd 49e6 e5bd 1863 92bd
00000230: 2cf1 ebbe 4bd1 0cbd 8be8 44bd 9663 74bd
00000240: 72ef 94be 33d5 8cbd f83d cbbd 785e 09bd
00000250: d108 ce3b 2333 61bc 98f7 aebd 30b5 2ebd
00000260: ae4a d2be 2637 52bd a3d0 9fbd a2a4 c3bd
00000270: 5600 1abd 512a 93bd 887f 8a3b 2d55 a2bd
00000280: bcc0 a13d fc68 20bd fd89 85bd 0701 b9bd
00000290: 2c7d 8dbd 736c 15bd d9e9 cbbd 5a72 eabd
000002a0: ce6f 99bd a4c3 febc 3a85 7dbc eec8 903d
000002b0: 3eaa 533d 78a9 aebd a5cf 98bd d987 b13b
000002c0: fa90 0bbd 853b 91bd c706 a4be 2903 69bd
000002d0: d429 b3bd cc09 0ebe 4551 22bd 4285 8bbd
000002e0: fe06 86bd aebc dbbc 6882 aebd ed9e 433e
000002f0: fae0 28bc 9b9a 0cbd d2ce 9ebd 0ba3 6bbd
00000300: 2818 09bd 54ab 84bd 00cd 9f3d 8acf 27be
00000310: 016e dfbe d34b 1fbd b170 afbb 597c 13bc
00000320: cb11 62bd de24 90bd 7064 fabc cad2 3abd
00000330: d8d3 ddbe 6053 0d3e 6810 a5be 6960 42bd
00000340: 050b bebd 0dfc aabe 7f8f a4bd 6395 b2bd
00000350: c662 bfbd c474 bcbc 4cd3 2fbd fed9 a2bd
00000360: 4bc6 95be 48be 1cbd 65a1 77bd 681a aebd
00000370: 8261 303e 2de5 edbd 8d56 98bd 1a73 81bc
00000380: e21e 583d a37c 58bd 5716 88bd d3a1 bbbc
00000390: 4f2d 77bd 6435 ed3b 9eeb 77bd b955 1ebd
000003a0: b3c5 44bd f700 f9bb 697c afbb b8ef 92be
000003b0: 2443 d0be ec1f b4bd 9675 b6be fdb2 773d
000003c0: fc1f 50bc 37e6 c9bd 6fed 78bc 972c 66bc
000003d0: 7aa8 a7bd 2bdb fdbd 5003 afbd 2b7d 0d3b
000003e0: fa69 a7be ef3f 923c 1621 89be 42db a7bd
000003f0: 8ff0 d3bd 9006 c2be 3635 19bd 16db 9a3c
-0.041259985 -0.057131905 -0.052745204 -0.074167766 -0.14733714 0.01806882 0.0011627129 -0.09614726
-0.16033112 -0.05551313 -0.07378033 0.18769743 -0.47650057 -0.0397773 -0.053847905 -0.39558622
-0.06663513 -0.0811714 -0.08437519 -0.15228438 -0.06375172 -0.043618124 -0.104477115 -0.04341696
-0.0472019 0.023966031 -0.020672834 -0.11447592 -0.16298355 -0.29086664 -0.066001825 -0.21409161
-0.021440255 -0.07370582 -0.11965414 -0.07434658 -0.014794716 -0.11501237 -0.062397555 -0.07429504
-0.030647427 0.00081175927 0.028879752 0.16232643 -0.011033987 -0.08862953 -0.0551853 -0.16547208
-0.14945313 0.43818986 -0.03199049 -0.020987626 -0.08148433 -0.09842717 0.011217459 -0.089367144
0.014400027 -0.36703682 0.04220249 -0.06193189 -0.04118548 -0.052395023 -0.073100545 -0.092496425
0.008195279 -0.06784214 0.08419637 -0.030187348 -0.0053335205 -0.017489532 0.26605865 -0.056749944
0.020397156 -0.05118801 -0.05755834 -0.010843063 -0.079040505 -0.060430575 -0.11833537 -0.04519022
-0.111167826 -0.24535823 -0.37162486 -0.01168499 -0.104611225 -0.11174898 -0.041725654 -0.07641042
-0.38247305 -0.124079846 -0.3193211 -0.053772487 -0.12112193 -0.048217654 0.0011616652 -0.0006941062
-0.118469484 -0.0403212 0.0024446368 -0.056075655 -0.08382384 -0.37380046 -0.3557102 -0.16658968
-0.3663796 -0.09067846 0.011432597 -0.34808072 -0.11138389 -0.032188788 -0.06816997 -0.054369997
-0.09525318 -0.072767034 -0.406047 -0.045249823 -0.04309285 -0.09760014 0.03097809 -0.0069437977
-0.056194868 -0.018588508 -0.012636813 -0.037847575 -0.18679592 -0.020438138 -0.070878714 -0.059111807
-0.05349027 0.018562002 -0.08481478 -0.0925512 -0.020194128 -0.08527672 -0.088711485 -0.033045616
-0.13698779 -0.123282626 -0.11225564 -0.07147807 -0.46082437 -0.034379285 -0.048073333 -0.059665285
-0.29088932 -0.06876602 -0.09923929 -0.033537358 0.006287672 -0.013745102 -0.085433185 -0.042653263
-0.410726 -0.051322125 -0.07803466 -0.095528856 -0.037597977 -0.071858056 0.0042266287 -0.07926402
0.07898089 -0.03916262 -0.0652046 -0.09033399 -0.0690864 -0.03648038 -0.09956712 -0.11447592
-0.07492028 -0.031099148 -0.015473658 0.07069574 0.051676027 -0.08528417 -0.0746148 0.0054178056
-0.034073807 -0.070914306 -0.3203642 -0.05688778 -0.087482125 -0.13870925 -0.039628286 -0.06812526
-0.065443024 -0.026823368 -0.08520967 0.19103594 -0.010307545 -0.03432713 -0.077542916 -0.057528537
-0.033470303 -0.06477991 0.078027725 -0.16387764 -0.43638614 -0.03889067 -0.00535401 -0.009001815
-0.05519275 -0.07038282 -0.03056547 -0.04561118 -0.43325686 0.13801336 -0.3223908 -0.047455225
-0.092794456 -0.33395424 -0.08035182 -0.087198995 -0.093450114 -0.023004897 -0.042926118 -0.07951735
-0.29252848 -0.038267404 -0.060456652 -0.0850113 0.17224696 -0.116159774 -0.07438383 -0.015801955
0.052763827 -0.052853238 -0.06644886 -0.022904312 -0.060345944 0.0072390307 -0.060527436 -0.03865597
-0.048040103 -0.007598992 -0.005355407 -0.28698516 -0.40676224 -0.08795151 -0.35636586 0.06047343
-0.012702938 -0.09858363 -0.015193327 -0.014048717 -0.08186431 -0.123953186 -0.08545554 0.0021589499
-0.3269804 0.017852752 -0.26783055 -0.08196117 -0.10348617 -0.37895632 -0.03740426 0.018903296

fa3.weight f4 [2, 300]
00000000: 446a ec3e 671e 32bc e488 0d3e 6ae2 3a3e
00000010: 46c0 063f b858 7a3c f754 403d 2c0b 043f
00000020: 4210 e63e 6c7c 763d efc8 1e3f 944d 8440
00000030: 313d a63f f43d 843e 60d4 923d fc12 843f
00000040: 5168 80bc 6b2e 1cbb 9221 a83c 754f 213e
00000050: 748f cfbc 9f7c 913e 654f 053f 66fb 35bc
00000060: 158e 653a f384 7fbc eced 583d 5b54 a83f
00000070: ffef b43d d6a5 ac3f 7e9b a23c 9360 cf3e
00000080: ff5d f03c 55b8 503d f22f ea3c 8990 803e
00000090: e910 cc3e 83ff 1f3e 4a22 b13c 67dd eabb
000000a0: 101e de3e 6c1f 8d40 6a84 993c ec41 a040
000000b0: 1083 1b3d 9492 2a3d 41d8 bc3a bee1 0640
000000c0: a004 893e d899 ae40 53cc 433c 97b8 073c
000000d0: f24b 5740 4c93 333b d0f1 913d 9b8f 953f
000000e0: 81aa 8a40 9c24 593f ac72 3d3e bc56 ec3b
000000f0: ea4d 1e3e 1e40 66ba f343 8340 e1e5 2f3e
00000100: 2909 0fba 561c 873c 0fce 403f 393b 5f3d
00000110: a221 c43d 87af c9ba 419e 553f 8780 113e
00000120: 11aa 78bc 8415 8e3c 853e c73c 2a72 96bc
00000130: 1121 013c 62d9 8abb c1da 0040 245b 263b
00000140: 33e8 d73d d87d c13f 9e16 063f 2930 cc3e
00000150: 0484 513e 8b57 9f3f 7607 993c 8ffb 07bc
00000160: d369 613f cff7 903e 9fc7 363f 9778 453d
00000170: 5182 563c 6e0e 093c 110b 133e ad0b cdbc
00000180: d854 083e 631e 4fba 55fb 213a 2968 a63d
00000190: 7a70 cd3f ebd1 6b3f 4b34 753f 2a62 273f
000001a0: c6fb ac3f cb39 52bc 1aad 303d fcad 463f
000001b0: 1db3 b9bc bba5 3b3d 1e49 88bc b4f0 833c
000001c0: c530 e43d 7bba 6b3f a3d2 743f 717a 683d
000001d0: f6f9 ab3c 3b72 b23b f9e1 2f3e d240 a83c
000001e0: 3b38 033c 09c4 893e cb2d cf3d 0467 d93d
000001f0: 9735 083e fc1e 46bb 8406 a9bb 411d 5c3b
00000200: b756 25bc ba71 8b3e d783 c03e 1c18 953c
00000210: 91bb 9c3e 4459 763d f23e 0b3e 2852 b83d
00000220: 7da3 f63e e86a 923e e173 a63f d3d5 eb3e
00000230: f95e b03f 95a2 99bb 06ab 783c d1f6 893e
00000240: ed2a 2b3f 3ac1 013e cbea fd3d e6cc 2c3e
00000250: 8c96 c63d d555 0f40 bcf3 03bc 7f1d 9b3e
00000260: 39bc 893f 4ce3 d0bc dcc0 593c 67cd 143b
00000270: 2ebe d3ba 6373 c6b8 7e3f 07ba 21c5 81bb
00000280: 41c5 393e 4bde d83c bbea e13f 839a 7bbb
00000290: 0b96 1f3e 0056 1c40 e781 873c 2e28 3f3d
000002a0: f4d8 463c 182b b83e be48 193f 4b56 613e
000002b0: d0b3 3840 7eb1 10bc c5bd b7bc d5ab 2b3e
000002c0: ea15 443c 85ea 0a3b fe00 873f 5c1b 473b
000002d0: c5b1 0e3d eeb2 a23c ec62 85bc 220a 283b
000002e0: da37 143e 6beb 06bc b668 a23c 16c5 2c40
000002f0: 69b4 093d 9470 bebc 9617 9dbc c626 4abc
00000300: da98 a73d fb6e 1f3e 4ca4 2940 9216 313e
00000310: 5d53 a13f 46fc d3bc 50cb d43a 5457 3d3e
00000320: 1bb4 fd3c 6064 de3c 9317 7fbc f37d 323e
00000330: e25c b13f 8d9b be3e 04f5 4f3f 96b3 0f3f
00000340: c75f 18bc 3dc7 473f 82bc 4eba 0534 f73d
00000350: 9414 90bc e052 413c 05d6 ef3d 8594 633d
00000360: 6942 803f 0822 7a3f cb15 0c3e 931d 7e3f
00000370: a0d9 7a3f deb9 d3bb 61c1 8fbc 3a22 953d
00000380: d689 bf3f 2575 ab3f b174 0e3b 0deb b43c
00000390: c960 563d 9431 973e c6c2 393c edf2 d03d
000003a0: 1365 20bc cb22 d83c a831 7a3d 28fc 1b3f
000003b0: f681 a33f f6b0 5b3e f31c 9f3f 6fb3 c93e
000003c0: 576e 793d 66f5 be3e 93e8 c6bb a19e 44bc
000003d0: 325e 8b3d 4b66 d0bb 5160 d6bc 2a17 823f
000003e0: c722 913f 5a00 e13e 3946 563f 00d9 1b3c
000003f0: a7eb dfba b905 813f 92d1 8a3c b485 963f
0.46174824 -0.010871506 0.13821751 0.18250433 0.52637136 0.015279941 0.04695603 0.51579547
0.4493428 0.06017725 0.6202535 4.13447 1.2987424 0.25828516 0.071694136 1.0318294
-0.015674742 -0.0023831378 0.02052382 0.15752967 -0.025336958 0.2841539 0.5207427 -0.011107301
0.00087568286 -0.015595662 0.052961275 1.3150743 0.08834838 1.3488109 0.019849535 0.40503368
0.029341696 0.050957043 0.028587315 0.25110272 0.3985665 0.15624814 0.021622796 -0.0071675065
0.4338231 4.4100857 0.018739898 5.008047 0.037966788 0.041643694 0.001440771 2.1075282
0.2676134 5.4562798 0.01195057 0.008283756 3.3640103 0.0027401028 0.071262 1.168445
4.3333135 0.84821486 0.18500775 0.007212488 0.1545941 -0.0008783358 4.1020446 0.17177536
-0.0005456382 0.016493004 0.7531442 0.05449984 0.095767274 -0.0015387394 0.834446 0.14209186
-0.015177266 0.017344244 0.024321804 -0.018364985 0.007881419 -0.00423734 2.0133517 0.0025383914
0.10542335 1.511653 0.5237826 0.39880493 0.20460516 1.2448591 0.018680315 -0.008299722
0.880521 0.28314063 0.7139835 0.048210707 0.013092593 0.008365257 0.1435969 -0.025029982
0.13313615 -0.00079009513 0.0006179114 0.08125336 1.604995 0.92117184 0.9578292 0.6538416
1.3514335 -0.012831162 0.043133833 0.7760923 -0.022668416 0.04581235 -0.016636427 0.016105987
0.111421145 0.9208142 0.95633906 0.056757394 0.020993214 0.0054457462 0.17176045 0.020538721
0.008009012 0.26907375 0.10116156 0.10615352 0.13301693 -0.003023087 -0.0051582474 0.0033586773
-0.010091475 0.27235204 0.37600586 0.018199973 0.30611852 0.060143724 0.1359823 0.09000045
0.48171607 0.28597188 1.3004113 0.46061572 1.3778983 -0.0046885707 0.015177494 0.26946118
0.66862375 0.12671366 0.12398299 0.16875038 0.09696683 2.2396138 -0.008053716 0.3029594
1.0760566 -0.025499009 0.01329061 0.0022705437 -0.00161547 -9.462868e-05 -0.00051593024 -0.003960267
0.18141653 0.026473185 1.7649759 -0.0038391657 0.1558458 2.442749 0.016541434 0.046669178
0.012136687 0.35970378 0.5987662 0.22005574 2.885975 -0.00883138 -0.022429356 0.16764767
0.011968115 0.0021196913 1.0547178 0.0030381298 0.034837503 0.019860711 -0.016282521 0.0025640805
0.1447443 -0.008234839 0.01982532 2.6995292 0.03361932 -0.02324704 -0.019176286 -0.012338346
0.08183451 0.1556968 2.650653 0.17293766 1.2603565 -0.02587713 0.0016234908 0.18490344
0.03096967 0.027147472 -0.015569585 0.17430858 1.385647 0.3722805 0.8123324 0.561334
-0.009300179 0.7803839 -0.0007886366 0.12070469 -0.017587937 0.011799544 0.11710743 0.05556156
1.0020267 0.9770818 0.13680188 0.99263877 0.9798832 -0.006461366 -0.017548265 0.07281919
1.4963939 1.3395125 0.0021737034 0.022084737 0.052338395 0.29530013 0.0113379415 0.102025844
-0.009789723 0.026383778 0.061082512 0.60931635 1.2774036 0.21454224 1.243071 0.3939471
0.060896244 0.372966 -0.0060702055 -0.012000711 0.06805076 -0.0063598505 -0.026168974 1.0163319
1.1338738 0.4394558 0.837009 0.009512186 -0.001708378 1.0079871 0.016945634 1.1759553

fa3.bias f4 [2]
00000000: 602a af40 6aaa 393c
5.4739227 0.011332134
