src/Models/stage_2/20_critic.pt (torch_old, 374310 bytes, 7 tensors)

fc1.weight f4 [150, 14]
-0.011329527 -0.021180661 0.09198643 0.105133876 0.0091283405 -0.113915205 -0.0032525132 0.12374038
0.13908733 0.04076284 0.22923736 0.18932465 0.17423059 -0.039483946 0.15171498 0.0024206436
0.011632378 -0.069875404 -0.04878618 -0.10219349 -0.04298879 0.017415727 -0.1969136 -0.0017723498
0.35559624 0.14328481 0.05445174 -0.0036099222 -0.01333577 -0.029672293 0.11204663 -0.029249901
0.09311114 -0.058368843 0.073331244 0.00826629 0.03381781 -0.026610298 -0.17032251 -0.079741836
0.42021513 -0.1531367 0.038308367 0.064123236 0.11426038 0.03269365 -0.010849389 -0.011206222
-0.043925192 -0.18043388 0.07016599 -0.06582408 0.21492018 -0.050497122 -0.08363629 0.10611369
-0.017499885 -0.018385304 0.0754503 0.009824053 0.07117379 -0.004897672 0.0051696277 0.024084682
-0.043081064 0.0015413997 0.15856043 0.06800179 -0.30611914 -0.04634591 0.0022305055 0.020616937
0.0743809 0.04730345 -0.069464155 0.0047144108 0.012189005 0.069232084 0.025967076 0.06627533
0.274175 -0.14380473 0.11420126 0.10292797 -0.061501548 0.021579118 -0.05630205 -0.022065055
-0.011407997 0.024550019 -0.022135163 -0.06538535 -0.012471527 -0.006305418 -0.6472925 -0.081655286
0.54631513 -0.13996294 0.011179418 -0.009499202 -0.00015436058 -0.014981364 0.07177283 0.02081532
0.040830463 0.03102031 -0.0125468355 -0.051244907 0.08780711 -0.01734805 -0.20923328 -0.022243202
-0.026551472 0.007162304 -0.02350644 -0.013524415 0.019464647 -0.018614776 -0.034125086 -0.019774528
0.014134976 0.044529133 0.088031724 0.024872646 -0.30980194 -0.025923723 -0.08104859 -0.028771281
0.021380648 -0.027080864 0.050841868 -0.04933181 0.04594727 -0.021822475 -0.06323434 -0.033080745
0.028225407 0.046655774 0.04905741 -0.035331514 0.098496094 0.014863727 -0.0052737785 0.056285296
0.04513737 0.058814704 0.0077700447 0.18951125 0.03796233 -0.07114266 0.01802507 -0.024208713
-0.08579591 -0.09757765 0.07885576 0.009083318 0.05163575 0.104315 0.05706615 0.0096110385
0.019031378 0.050503954 -0.073918484 -0.03498274 0.31563738 0.006215797 -0.05291339 0.055193197
0.10545131 0.026116116 0.08082239 0.020846786 0.046071973 -0.00084781676 -0.003089991 -0.042501803
0.0755564 0.067605354 0.3673417 0.020754414 -0.088284135 0.043365404 -0.0050678486 0.06660341
0.0641111 0.055931397 -0.014943096 0.019101208 -0.068218686 0.0318351 -0.052472487 -0.022123348
-0.3043503 -0.04232173 0.400056 0.03380303 -0.1350784 -0.19263606 -0.18218152 -0.09681659
-0.09762969 -0.11201014 -0.061520617 0.13131349 0.1307386 0.059207413 0.17314228 0.11295267
0.4150117 -0.06765184 0.161914 -0.024930082 -0.017409664 0.044343967 -0.0016784411 -0.053367842
0.14936836 0.11104488 0.0060441704 0.047264438 0.14007325 0.091185376 -0.58826166 0.12877603
0.0027257872 -0.017825296 0.044851486 -0.08401657 0.036822513 -0.017143538 0.04596448 -0.059285577
-0.080521226 -0.01664879 -0.029472483 0.06722079 0.019239718 -0.053280924 0.09544771 0.08161459
-0.015450826 0.09318202 0.009714822 -0.0105246985 0.004143003 0.008619498 0.014674163 0.05294512
-0.15730073 0.030477775 0.2900799 0.053819597 0.07698131 -0.010384215 0.009884809 -0.002242182
00000000: 7b9f 39bc 1183 adbc 6263 bc3d 6e50 d73d
00000010: 098f 153c 604c e9bd 1e28 55bb 996b fd3d
00000020: e96c 0e3e f0f6 263d 33bd 6a3e 52de 413e
00000030: 8169 323e ebb9 21bd 2c5b 1b3e a9a3 1e3b
00000040: bb95 3e3c d61a 8fbd 04d4 47bd d24a d1bd
00000050: 0315 30bd 6dab 8e3c b8a3 49be 314e e8ba
00000060: b610 b63e 41b9 123e ca08 5f3d 7294 6cbb
00000070: 467e 5abc 4f13 f3bc b478 e53d 7d9d efbc
00000080: 0eb1 be3d 2b14 6fbd b12e 963d 556f 073c
00000090: 8b84 0a3d d7fd d9bc 0669 2ebe b04f a3bd
000000a0: 7026 d73e decf 1cbe 3ce9 1c3d 0b53 833d
000000b0: 5901 ea3d c7e9 053d a3c1 31bc 4d9a 37bc
000000c0: e7ea 33bd a9c3 38be 30b3 8f3d c6ce 86bd
000000d0: 0914 5c3e 12d6 4ebd 8149 abbd 2252 d93d
000000e0: eb5b 8fbc c79c 96bc b085 9a3d 11f5 203c
000000f0: 90c3 913d a77c a0bb fb65 a93b 3d4d c53c
00000100: c575 30bd cb08 ca3a aa5d 223e 8644 8b3d
00000110: a6bb 9cbe 35d5 3dbd ac2d 123b dae4 a83c
00000120: 0355 983d 43c1 413d 3943 8ebd 587b 9a3b
00000130: 64b4 473c 8dc9 8d3d e8b8 d43c 5cbb 873d
00000140: aa60 8c3e 8c41 13be 5ae2 e93d e6cb d23d
00000150: 0ce9 7bbd b1c6 b03c fa9c 66bd c6c1 b4bc
00000160: 9ce8 3abc 1f1d c93c cd54 b5bc c1e8 85bd
00000170: 6055 4cbc ae9d cebb f6b4 25bf e33a a7bd
00000180: 4fdb 0b3f 7252 0fbe e129 373c 8aa2 1bbc
00000190: dadb 21b9 6574 75bc a2fd 923d e484 aa3c
000001a0: d83d 273d 4e1e fe3c 3e91 4dbc 2ee6 51bd
000001b0: 37d4 b33d 7f1d 8ebc 4041 56be 6037 b6bc
000001c0: 7982 d9bc c3b1 ea3b 9490 c0bc 8295 5dbc
000001d0: 5374 9f3c 047e 98bc bfc6 0bbd 31fe a1bc
000001e0: 6396 673c 2e64 363d fa49 b43d b8c1 cb3c
000001f0: 5c9e 9ebe fd5d d4bc cefc a5bd c0b1 ebbc
00000200: 7826 af3c b0d8 ddbc 903f 503d 2710 4abd
00000210: 3433 3c3d 0cc5 b2bc 0181 81bd ad7f 07bd
00000220: f838 e73c 201a 3f3d 6cf0 483d c7b7 10bd
00000230: 52b8 c93d fd86 733c a9cf acbb 698b 663d
00000240: f6e1 383d b0e7 703d dc9b fe3b 3d0f 423e
00000250: 637e 1b3d 3eb3 91bd 50a9 933c 5a51 c6bc
00000260: c4b5 afbd cad6 c7bd 217f a13d 32d2 143c
00000270: 0280 533d 1aa3 d53d 32be 693d 9e77 1d3c
00000280: b1e7 9b3c 3cdd 4e3d 9362 97bd 104a 0fbd
00000290: 399b a13e e2ad cb3b b6bb 58bd 4312 623d
000002a0: dbf6 d73d 77f1 d53c 3686 a53d e1c6 aa3c
000002b0: f7b5 3c3d 0540 5eba 7281 4abb 5f16 2ebd
000002c0: 50bd 9a3d ad74 8a3d 3614 bc3e 2905 aa3c
000002d0: 50ce b4bd ec9f 313d 3210 a6bb 5e67 883d
000002e0: ae4c 833d 5218 653d e3d3 74bc 237a 9c3c
000002f0: 3db6 8bbd 8665 023d 64ed 56bd 063c b5bc
00000300: cdd3 9bbe 8d59 2dbd 24d4 cc3e 0c75 0a3d
00000310: fe51 0abe 6342 45be cb8d 3abe c747 c6bd
00000320: 13f2 c7bd 9365 e5bd 0bfd 7bbd 0b77 063e
00000330: 57e0 053e 7983 723d 364c 313e bb53 e73d
00000340: 6a7c d43e 0c8d 8abd c9cc 253e 2c3a ccbc
00000350: b69e 8ebc 05a2 353d 23ff dbba 3d98 5abd
00000360: 05f4 183e 7f6b e33d 2d0e c63b 5b98 413d
00000370: 5d6f 0f3e 66bf ba3d 5198 16bf dddd 033e
00000380: 1fa3 323b 5b06 92bc 31b6 373d e110 acbd
00000390: 34d3 163d 9b70 8cbc 4045 3c3d 6fd5 72bd
000003a0: 50e8 a4bd 0b63 88bc 4770 f1bc 0eab 893d
000003b0: 9d9c 9d3c 193d 5abd 177a c33d 8d25 a73d
000003c0: 7625 7dbc 37d6 be3d eb2a 1f3c c96f 2cbc
000003d0: 07c2 873b cc38 0d3c e76b 703c fbdc 583d
000003e0: 7113 21be 87ac f93c 5a85 943e f071 5c3d
000003f0: 61a8 9d3d 8e22 2abc e5f3 213c 92f1 12bb

fc1.bias f4 [150]
-0.059882835 0.24806723 -0.2997712 0.23178028 -0.1885281 -0.11134798 0.06740635 0.1472891
0.016049588 -0.18955266 -0.27471387 0.25490087 0.25557682 -0.042347837 0.15319644 -0.021617172
-0.19480208 -0.33108544 0.05878758 -0.32693988 -0.17130381 0.23457783 -0.0071174167 0.040464617
0.07437703 -0.092416845 0.11770788 -0.18072946 -0.40459195 0.0047899154 -0.040799387 -0.03824449
0.06877477 -0.062751 0.11869377 -0.21715094 0.3362852 0.376418 0.2240711 0.049752176
-0.19208181 0.21575868 -0.1278917 0.0688076 -0.05461374 -0.26213926 0.017264372 0.08176345
0.5146279 -0.19898416 -0.076256804 0.08851019 -0.44817537 -0.13196576 0.02407366 0.3083236
-0.34528098 0.25636533 0.2129255 0.17703107 -0.032236885 0.23152512 0.4936624 -0.17832057
-0.0075998846 0.03995826 -0.28164667 0.28600916 0.25273356 -0.045641087 -0.19776545 -0.16952842
-0.0141117675 -0.13319153 -0.07842374 0.16790947 -0.08876894 -0.05270439 0.3339624 -0.030178923
-0.2912584 0.30429453 -0.23508228 0.122452416 0.07767565 0.09673433 -0.0013896242 0.3381816
0.45213917 0.33160925 -0.021200676 -0.22803515 -0.2913485 -0.2564086 -0.21636946 -0.07774621
0.0713811 -0.21135217 -0.15827486 -0.12142594 0.24034429 -0.17936271 0.04996232 0.06207829
0.3249958 0.041647945 -0.1570695 0.29204282 0.44039387 -0.0720051 -0.15842204 -0.43076017
-0.260878 -0.2809593 0.34278715 0.01728013 0.022175571 -0.2498331 0.20458761 0.049276832
-0.11084815 -0.2060738 -0.028053146 -0.15559228 -0.18594712 -0.056868408 -0.14273262 -0.38719243
0.105700314 0.15254004 0.041681297 -0.26160675 0.26759195 -0.028380617 -0.19618887 -0.10880344
-0.081677526 -0.1282262 -0.026603654 0.30718046 0.3365536 -0.30482647 0.38482296 0.06106049
-0.22763802 0.14628918 -0.26940566 -0.26313004 0.106025 -0.27147663
00000000: b447 75bd 5605 7e3e 9c7b 99be cf57 6d3e
00000010: 830d 41be 690a e4bd 570c 8a3d f4d2 163e
00000020: 6d7a 833c 181a 42be 4ca7 8cbe 5e82 823e
00000030: f7da 823e ed74 2dbd 87df 1c3e 7f16 b1bc
00000040: 327a 47be 0884 a9be 3fcb 703d aa64 a7be
00000050: 446a 2fbe 2c35 703e 3839 e9bb 3abe 253d
00000060: fc52 983d 0b45 bdbd d410 f13d 2511 39be
00000070: ad26 cfbe b9f4 9c3b 421d 27bd 41a6 1cbd
00000080: c9d9 8c3d 9983 80bd b815 f33d d15c 5ebe
00000090: 932d ac3e dcb9 c03e e572 653e f0c8 4b3d
000000a0: 18b1 44be d8ef 5c3e 0bf6 02be 00eb 8c3d
000000b0: a8b2 5fbd 1e37 86be 036e 8d3c 9873 a73d
000000c0: a7be 033f 81c2 4bbe 872c 9cbd d544 b53d
000000d0: 3e77 e5be 0822 07be 2036 c53c 97dc 9d3e
000000e0: abc8 b0be 5142 833e 2409 5a3e a247 353e
000000f0: d30a 04bd ec14 6d3e 51c1 fc3e ab99 36be
00000100: 7408 f9bb 46ab 233d fe33 90be cb6f 923e
00000110: 4b66 813e 26f2 3abd 0783 4abe dc98 2dbe
00000120: 0b35 67bc 5c63 08be a09c a0bd 76f0 2b3e
00000130: 7dcc b5bd 8fe0 57bd 1ffd aa3e ca39 f7bc
00000140: d21f 95be 7ecc 9b3e 69b9 70be 55c8 fa3d
00000150: 6914 9f3d a61c c63d 0d24 b6ba 2426 ad3e
00000160: c97e e73e b0c8 a93e 0aad adbc 0c82 69be
00000170: a12b 95be fd47 83be f58f 5dbe 6839 9fbd
00000180: 4130 923d b46c 58be ce12 22be 2aae f8bd
00000190: d01c 763e dcaa 37be 4aa5 4c3d ce45 7e3d
000001a0: d965 a63e 0997 2a3d d4d6 20be a386 953e
000001b0: 4e7b e13e 6977 93bd 6339 22be 998c dcbe
000001c0: cd91 85be e6d9 8fbe cc81 af3e 0f8f 8d3c
000001d0: 8ba9 b53c 40d4 7fbe 6a7f 513e 81d6 493d
000001e0: 5b04 e3bd 0305 53be b6cf e5bc 9553 1fbe
000001f0: ec68 3ebe d9ee 68bd 8028 12be 163e c6be
00000200: 6879 d83d 7533 1c3e 02ba 2a3d 52f1 85be
00000210: d001 893e 787e e8bc bce5 48be 57d4 debd
00000220: 8c46 a7bd bb4d 03be e8ef d9bc c246 9d3e
00000230: c150 ac3e 3712 9cbe 8407 c53e 901a 7a3d
00000240: f119 69be d5cc 153e 8aef 89be fbb8 86be
00000250: a323 d93d fcfe 8abe

fa1.weight f4 [150, 2]
0.82234424 0.1073844 -0.013751621 0.01794529 0.009664245 -0.03575713 0.1597707 -0.26124248
0.71652216 -0.023294099 -0.3858533 0.03564317 0.4470534 -0.062382795 0.30162814 0.2071144
0.022921741 0.06478536 -0.088997416 -0.0007065895 -0.0064084902 -0.030762913 -0.064213805 0.057316195
-0.0630439 -0.028973464 -0.050958425 -0.061635274 0.05828631 -0.020507578 -0.018384025 -0.055011027
0.56409067 0.32818526 0.8007485 0.0064197285 -0.015905358 -0.010309408 -0.013329424 0.07350814
-0.040507466 0.01533556 -0.33875224 0.030109014 0.026326034 0.021500096 -1.2112046 -0.15527639
0.8199965 0.102934904 -0.01556493 0.04185372 0.8202613 -0.04028972 0.026671961 -0.05739233
0.062392056 -0.0032079518 0.11682152 -0.25638044 -0.36788303 0.012356569 0.008530892 -0.012250476
-1.328559 -0.17448054 0.07283847 -0.056413334 0.7596175 0.18844724 0.015039545 0.16477805
-0.17878798 -0.34474128 -0.046532173 -0.018959492 0.059323013 0.054240495 0.033041343 0.01140254
-0.02796667 0.00273484 1.1912519 0.3030676 0.61780185 0.11743983 0.7278469 0.0701691
-0.047382593 -0.08472624 0.10285521 -0.03638115 0.26562193 -0.09619139 -0.49963385 -0.0038930275
-0.020615611 0.07302036 -0.027524572 0.04713145 -0.005704657 0.067464605 1.139042 0.20091024
0.007592052 0.03759455 0.6111354 0.0454628 0.93141973 0.1156586 0.6449361 0.14517444
0.46908408 -0.20174637 0.047087997 0.040514074 -0.017674997 -0.002785802 -0.08044335 0.04324943
0.841228 0.114659436 0.8232296 0.10393159 0.4610163 0.2444886 0.674717 0.22433487
0.24245743 -0.060940854 -0.004148695 -0.21009895 -0.057030268 -0.014435649 0.045278564 0.066997945
-0.30667815 -0.30156747 -1.152173 -0.16498111 -0.08020601 -0.015208326 0.6023135 0.16696702
0.76490396 0.08096481 0.87360317 0.10419904 -0.0040967083 0.001809448 0.52182126 0.124900475
0.049455017 -0.018936343 -0.049398642 -0.028091846 -0.0017261704 -0.0666878 0.19734158 0.1342468
0.105740234 -0.06935232 0.470666 0.03730983 0.68337125 0.23491633 0.019444533 0.07542141
0.32192427 -0.015420732 0.004149005 0.010298595 0.47284386 -0.40737268 0.7179126 0.15082164
0.002881825 0.04709014 -0.06769194 0.032557674 -0.054651715 0.058593985 0.5491362 -0.0422086
0.07657041 0.03444177 0.0258984 0.0719252 -0.21610317 -0.05090429 0.028081037 0.012937634
0.013217486 -0.052406214 -0.07819593 0.064772785 0.70010924 0.017482547 0.028728878 0.010148831
-0.035712305 0.030797377 -1.1531531 -0.14140564 -0.45847565 -0.6628064 0.73854446 0.30344298
-0.0097422255 0.05882381 1.1867052 0.26680988 0.044162024 -0.07573735 0.38235405 0.11155517
0.020152107 -0.045640983 -0.22067508 -0.06765596 0.9034824 0.21718623 0.40905106 -0.010197776
0.9270986 0.16816111 0.07784038 0.16687365 0.3535386 -0.09903552 0.00081192004 0.06853697
1.0562165 0.24818769 0.5524764 -0.051180877 0.66262597 0.030043345 0.22046992 -0.28800938
0.75998867 0.13093968 0.4565388 0.089327596 0.50323576 0.069407046 0.068166986 0.031373225
0.052593127 0.034332603 0.020764722 -0.023074685 0.0007120669 -0.032315925 1.0887501 0.31010064
00000000: 2785 523f 5aec db3d 7b4e 61bc 0002 933c
00000010: c856 1e3c 1176 12bd ee9a 233e 93c1 85be
00000020: ff6d 373f 44d3 bebc 908e c5be 93fe 113d
00000030: 2fe4 e43e 1a85 7fbd 016f 9a3e cc15 543e
00000040: 60c6 bb3c 30ae 843d 4744 b6bd 6b3a 39ba
00000050: 50fe d1bb 8102 fcbc 8782 83bd 63c4 6a3d
00000060: 291d 81bd c259 edbc c8b9 50bd 4575 7cbd
00000070: a0bd 6e3d 82ff a7bc 189a 96bc 3e53 61bd
00000080: 3f68 103f e607 a83e dbfd 4c3f 965c d23b
00000090: f44b 82bc cbe8 28bc a863 5abc 708b 963d
000000a0: 28eb 25bd 0042 7b3c ef70 adbe 2ea7 f63c
000000b0: b2a9 d73c f820 b03c c108 9bbf c600 1fbe
000000c0: 4aeb 513f 89cf d23d 0c04 7fbc ce6e 2b3d
000000d0: a5fc 513f d506 25bd 287f da3c 3814 6bbd
000000e0: d08e 7f3d 803c 52bb 1f40 ef3d 4c44 83be
000000f0: 2a5b bcbe 3573 4a3c 28c5 0b3c 38b6 48bc
00000100: 390e aabf 07ab 32be 562c 953d ab11 67bd
00000110: 4b76 423f 50f8 403e 6c68 763c 94bb 283e
00000120: 3214 37be ee81 b0be 8598 3ebd f050 9bbc
00000130: b0fc 723d 482b 5e3d 5c56 073d b8d1 3a3c
00000140: 5c1a e5bc 003b 333b f17a 983f ad2b 9b3e
00000150: 4328 1e3f 4b84 f03d 2d54 3a3f d1b4 8f3d
00000160: 4014 42bd f384 adbd c1a5 d23d 6704 15bd
00000170: 99ff 873e feff c4bd 02d0 ffbe 2a22 7fbb
00000180: 12e2 a8bc b38b 953d 367b e1bc e80c 413d
00000190: 22ee babb e22a 8a3d 21cc 913f 6abb 4d3e
000001a0: c0c6 f83b befc 193d 5f73 1c3f 3337 3a3d
000001b0: 8671 6e3f 6bde ec3d 881a 253f 9ca8 143e
000001c0: ca2b f03e 9a96 4ebe 58df 403d 16f2 253d
000001d0: 28cb 90bc 0092 36bb 7cbf a4bd 5026 313d
000001e0: b85a 573f 91d2 ea3d 2dbf 523f 16da d43d
000001f0: 540a ec3e 385b 7a3e 41ba 2c3f 0ab8 653e
00000200: c346 783e 1e9d 79bd c7f1 87bb 2e24 57be
00000210: 9298 69bd 8083 6cbc 0476 393d 3836 893d
00000220: eb04 9dbe 0d67 9abe 687a 93bf cff0 28be
00000230: 0c43 a4bd 582c 79bc 3831 1a3f 67f9 2a3e
00000240: bfd0 433f e1d0 a53d 75a4 5f3f 4e66 d53d
00000250: ae3d 86bb 002b ed3a 1496 053f d2cb ff3d
00000260: 5891 4a3d 6420 9bbc 3b56 4abd df20 e6bc
00000270: ab40 e2ba 9d93 88bd e913 4a3e fe77 093e
00000280: 568e d83d 9708 8ebd 22fb f03e 31d2 183d
00000290: 6bf1 2e3f e88d 703e 244a 9f3c 8a76 9a3d
000002a0: 42d3 a43e 3da7 7cbc 60f4 873b 70bb 283c
000002b0: 9718 f23e 2793 d0be 1fc9 373f fd70 1a3e
000002c0: 00dd 3c3b 97e1 403d 12a2 8abd 325b 053d
000002d0: 7ada 5fbd 3f00 703d 3194 0c3f ede2 2cbd
000002e0: f2d0 9c3d d012 0d3d e228 d43c 854d 933d
000002f0: 264a 5dbe 0481 50bd 340a e63c 5ff8 533c
00000300: 288e 583c e6a7 56bd 3025 a0bd 98a7 843d
00000310: 5c3a 333f 8f37 8f3c d358 eb3c 4847 263c
00000320: 1147 12bd c84a fc3c 859a 93bf a4cc 10be
00000330: 52bd eabe aead 29bf 4011 3d3f e15c 9b3e
00000340: db9d 1fbc 3cf1 703d f5e5 973f 4e9b 883e
00000350: 3de3 343d 2f1c 9bbd e9c3 c33e 0977 e43d
00000360: 0816 a53c 0af2 3abd a6f8 61be 358f 8abd
00000370: 9f4a 673f 1166 5e3e 246f d13e 9314 27bc
00000380: 5556 6d3f 6d32 2c3e c76a 9f3d ede0 2a3e
00000390: 0303 b53e 22d3 cabd 08d7 543a 1c5d 8c3d
000003a0: 1a32 873f ea24 7e3e 186f 0d3f 0aa3 51bd
000003b0: dba1 293f 761d f63c dec2 613e f775 93be
000003c0: 9e8e 423f 0d15 063e 74bf e93e 63f1 b63d
000003d0: 0fd4 003f 4825 8e3d 229b 8b3d 3681 003d
000003e0: e46b 573d 58a0 0c3d c71a aa3c 1f07 bdbc
000003f0: 00aa 3a3a b45d 04bd 2a5c 8b3f 83c5 9e3e

fa1.bias f4 [150]
0.5723272 -0.33479366 -0.3127206 0.78914464 0.37021646 0.14529316 0.76521945 0.3000412
0.37779227 0.33140555 -0.21985087 -0.5220238 -0.6755683 -0.6473817 -0.63535345 -0.28239554
0.41853735 0.61463857 -0.35165095 -0.67614454 -0.37505654 0.1210263 -0.45844015 -0.09747724
0.1990176 -0.46241364 0.40291876 -0.34516954 -0.5101211 0.7317176 0.13145387 -0.38573292
-0.11357714 -0.69384503 0.4514223 0.28829488 0.5395512 -0.15002322 -0.60965484 -0.42200214
-0.22013518 0.5947433 0.7683038 0.13950905 0.7285804 0.53461516 0.8219523 0.11565593
-0.16641086 -0.54294294 -0.4022989 0.38771525 -0.1991688 0.75650686 0.6249154 0.67726445
0.26056176 -0.47124726 -0.3303394 -0.20063347 0.8321644 0.6243602 0.72120875 0.646245
0.67572 0.3786098 -0.3016779 -0.5996007 0.45617145 -0.11964918 -0.6288992 0.7331953
0.66440165 0.20038058 -0.08325976 0.8385293 -0.5533007 -0.35245588 -0.20487127 0.8019599
0.603651 0.7430765 -0.013758663 -0.6217619 0.8298836 -0.5984451 0.10623725 0.69018316
-0.48279828 -0.06873882 -0.6973937 0.53457266 -0.16125238 0.7142851 0.32775384 -0.30431855
-0.40744773 -0.20861486 0.80859333 -0.3215028 -0.5196526 -0.05530456 0.08581333 0.72468346
-0.36335498 0.52104044 -0.22229841 0.79343975 -0.61128336 0.42333215 0.9200405 0.7601448
0.34620798 0.26974186 0.7971038 -0.67417616 0.48868817 0.13518699 0.1760709 0.5318042
0.2563878 0.4557312 0.6516656 -0.45656577 -0.6615307 -0.07673153 -0.120198786 0.61591846
0.5068428 0.67156947 0.7287692 0.119055256 0.54856074 0.46736306 -0.14907044 0.09709198
0.49716693 0.5586787 -0.5153452 0.83689696 0.42874473 -0.27767843 0.020279454 0.11258778
0.8250799 -0.58394253 -0.2306208 -0.19102791 0.7010491 -0.14644447
00000000: 0984 123f 136a abbe ea1c a0be 6205 4a3f
00000010: 038d bd3e bbc7 143e 6ce5 433f 009f 993e
00000020: fd6d c13e fdad a93e 9620 61be 5aa3 05bf
00000030: 0bf2 2cbf cfba 25bf 86a6 22bf 2696 90be
00000040: 874a d63e f458 1d3f 980b b4be cf17 2dbf
00000050: 6907 c0be a3dc f73d abb8 eabe 26a2 c7bd
00000060: 45cb 4b3e 7bc1 ecbe 5e4b ce3e 10ba b0be
00000070: 4c97 02bf d851 3b3f d89b 063e c97e c5be
00000080: 229b e8bd d49f 31bf d320 e73e 639b 933e
00000090: 0720 0a3f b09f 19be 5712 1cbf aa10 d8be
000000a0: 1e6b 61be 1941 183f 8faf 443f 76db 0e3e
000000b0: 3f84 3a3f 8adc 083f 776b 523f 04dd ec3d
000000c0: 9c67 2abe 4ffe 0abf 1ffa cdbe 9d82 c63e
000000d0: e8f2 4bbe 6faa 413f 75fa 1f3f 3461 2d3f
000000e0: 5a68 853e 5247 f1be 3f22 a9be dc72 4dbe
000000f0: ba08 553f 12d6 1f3f 23a1 383f 5070 253f
00000100: fcfb 2c3f 25d9 c13e 8775 9abe 6e7f 19bf
00000110: 4e8f e93e a10a f5bd 8aff 20bf b0b2 3b3f
00000120: 3a16 2a3f 9130 4d3e 1884 aabd dba9 563f
00000130: 1da5 0dbf 1975 b4be c6c9 51be 3e4d 4d3f
00000140: df88 1a3f 433a 3e3f 046c 61bc ca2b 1fbf
00000150: 4073 543f b333 19bf ea92 d93d d8af 303f
00000160: 5631 f7be f0c6 8cbd 6588 32bf c1d9 083f
00000170: 581f 25be 63db 363f 5acf a73e a4cf 9bbe
00000180: fd9c d0be 229f 55be f9ff 4e3f 049c a4be
00000190: f407 05bf 0987 62bd e6be af3d db84 393f
000001a0: aa09 babe e862 053f 32a2 63be de1e 4b3f
000001b0: 117d 1cbf febe d83e c687 6b3f da98 423f
000001c0: 2c42 b13e 9b1b 8a3e ff0e 4c3f cf96 2cbf
000001d0: 5635 fa3e 756e 0a3e ee4b 343e 5224 083f
000001e0: 4345 833e 9a55 e93e 8fd3 263f fdc2 e9be
000001f0: 135a 29bf 6c25 9dbd c82a f6bd d5ac 1d3f
00000200: 73c0 013f faeb 2b3f 9e90 3a3f 3ed3 f33d
00000210: 7a6e 0c3f 364a ef3e eca5 18be 29d8 c63d
00000220: aa8c fe3e 9105 0f3f aaed 03bf e13e 563f
00000230: 6e84 db3e de2b 8ebe 1921 a63c 6c94 e63d
00000240: 7038 533f 427d 15bf dc27 6cbe d29c 43be
00000250: f477 333f 8af5 15be

fca1.weight f4 [300, 300]
-0.030653792 0.016819732 0.011093592 -0.065736465 -0.056703977 -0.04252269 -0.026673362 -0.055173017
0.023350194 0.0016812496 -0.00238526 -0.05520393 -0.028988251 0.030358713 0.026484972 -0.049998514
-0.03184271 0.007880844 -0.036389 -0.04761342 -0.0067988937 -0.040726755 -0.03441424 -0.0059252214
-0.020477945 0.004872693 -0.031355318 0.023505183 0.009100653 -0.034995545 0.055224694 0.023380667
-0.00063730025 0.055362266 -0.049921557 0.049890164 0.05071708 -0.008903752 0.0027323796 -0.08031812
0.054257914 0.018789949 -0.036402807 0.017931804 -0.0073797037 -0.06994575 0.020619337 -0.04491843
-0.05149921 -0.040569067 -0.03302897 -0.04642359 0.032598123 0.049110256 0.036681645 -0.072709985
-0.02284535 -0.013487639 0.001316511 0.003222005 -0.015224304 -0.06613777 -0.055475954 0.050577104
-0.045518853 0.003936817 -0.020968545 -0.036147214 -0.07261154 0.020942502 0.005120516 0.020456765
-0.07604565 -0.028978605 -0.020076267 -0.08291375 0.018117072 -0.0508964 0.01033355 0.03969661
0.05028736 0.02712882 0.0026541464 0.0022931038 -0.082722455 -0.041539386 -0.029827854 -0.056715436
-0.0074549927 -0.045295015 -0.03895798 -0.01934853 0.00073230267 0.04872732 0.012352899 0.030577146
-0.061088935 -0.007293032 0.02675017 0.02203662 0.002905605 -0.0069357865 0.01129812 -0.03573531
-0.030064706 0.008668551 -0.02273482 0.03784418 0.002834311 -0.019820452 0.037028592 -0.056007333
-0.014781814 0.04573462 -0.0011654701 -0.017924964 0.023713104 -0.023695145 0.03262461 -0.039439708
0.025927044 -0.020381555 0.019741785 -0.024106381 0.052865982 -0.060478102 -0.0011564419 -0.0057035275
0.024458352 -0.0041835452 0.0055820793 -0.012395777 -0.005198263 0.011029147 0.05609852 -0.030507727
-0.05797785 0.03310944 0.010210805 -0.061732113 -0.055586897 -0.05419187 -0.020075822 0.017891744
0.0083276555 -0.045089357 0.029486984 -0.022348389 -0.048882715 -0.048136063 -0.012018354 0.022921711
-0.036139045 0.02204008 -0.060365703 -0.02539915 0.0009866062 -0.07062486 -0.04760572 0.00030472077
0.012743294 0.034386735 0.033339128 0.034831956 0.018645234 0.0034920424 0.019424919 -0.05989838
-0.0402432 -0.031277448 -0.055419996 -0.0032915852 0.019941643 0.030289095 0.00055520626 -0.00735702
-0.07011888 -0.0013840215 0.034148872 0.026320316 0.0035474272 -0.0053510442 -0.047536362 0.05275189
-0.05331788 0.017102629 0.0151583245 0.017025016 0.03655052 -0.039925136 -0.044401426 -0.052591022
0.019265948 -0.03317283 -0.019385925 -0.00024387104 -0.03800317 -0.012516258 -0.032575093 -0.051323414
0.03998059 -0.05630506 -0.013107138 -0.07454901 -0.04374883 -0.006402754 -0.034503493 -0.025408108
0.034481525 0.04774315 0.0004056087 -0.008082345 -0.07955665 -0.041152388 -0.017586697 -0.0071841017
0.04132086 -0.03420047 -0.063643135 0.010989973 -0.010608367 -0.030048624 -0.010982105 -0.061027393
0.029620238 -0.03962782 -0.055593513 -0.052518845 0.006666459 -0.07690359 -0.06279226 -0.05356446
-0.00042058527 0.055397645 -0.022856047 0.029783852 -0.0850493 -0.02411956 0.039807543 -0.00975161
-0.023975346 -0.027432198 0.04555638 -0.054276004 -0.08090604 -0.00940242 -0.029279716 0.051654756
-0.07543598 -0.025207538 -0.017254103 -0.08024341 -0.059606414 -0.052909605 0.041132152 -0.07749825
00000000: a91d fbbc 89c9 893c e6c1 353c d7a0 86bd
00000010: 6e42 68bd 462c 2ebd 1882 dabc 1afd 61bd
00000020: e848 bf3c 605d dc3a 0652 1cbb 841d 62bd
00000030: c578 edbc d6b2 f83c 03f7 d83c 3ecb 4cbd
00000040: 806d 02bd a81e 013c a20c 15bd 4a06 43bd
00000050: 41c9 debb 19d1 26bd f2f5 0cbd 5c28 c2bb
00000060: 5dc1 a7bc 1dab 9f3b 6f6e 00bd f18d c03c
00000070: e81a 153c 7d57 0fbd 4a33 623d d088 bf3c
00000080: 7f10 27ba 8bc3 623d 8c7a 4cbd a159 4c3d
00000090: b6bc 4f3d 0be1 11bc b911 333b d47d a4bd
000000a0: 8c3d 5e3d 61ed 993c 1c1b 15bd b8e5 923c
000000b0: 71d1 f1bb b83f 8fbd e2e9 a83c 63fc 37bd
000000c0: d6f0 52bd c02b 26bd 6349 07bd aa26 3ebd
000000d0: 9c85 053d d627 493d 7e3f 163d f9e8 94bd
000000e0: 2c26 bbbc 42fb 5cbc c78e ac3a 4628 533b
000000f0: 5c6f 79bc 3d73 87bd c13a 63bd f029 4f3d
00000100: fa71 3abd 6a00 813b 3ac6 abbc 1a0f 14bd
00000110: 5cb5 94bd 9c8f ab3c 00ca a73b f294 a73c
00000120: d2bd 9bbd 8a64 edbc fc76 a4bc afce a9bd
00000130: 416a 943c be78 50bd 0d4e 293c ea98 223d
00000140: 1efa 4d3d 423d de3c 30f1 2d3b e647 163b
00000150: 646a a9bd 3425 2abd 8b59 f4bc 724e 68bd
00000160: 0349 f4bb 4487 39bd 6792 1fbd cf80 9ebc
00000170: 00f8 3f3a 4c96 473d d063 4a3c ec7c fa3c
00000180: 6438 7abd 63fa eebb 2c23 db3c 2486 b43c
00000190: f66b 3e3b 9845 e3bb c01b 393c 305f 12bd
000001a0: 424a f6bc 8a06 0e3c 603e babc 8002 1b3d
000001b0: d9bf 393b 805e a2bc 4bab 173d f267 65bd
000001c0: 6c2f 72bc 3a54 3b3d b0c2 98ba 60d7 92bc
000001d0: fc41 c23c 521c c2bc 62a1 053d 888b 21bd
000001e0: f464 d43c 38f7 a6bc 86b9 a13c bf7a c5bc
000001f0: 008a 583d e3b7 77bd c093 97ba a8e4 babb
00000200: e25c c83c 1f16 89bb e0e9 b63b a817 4bbc
00000210: 3156 aabb 98b3 343c 90c7 653d 57eb f9bc
00000220: 2f7a 6dbd c49d 073d 384b 273c d0da 7cbd
00000230: 16af 63bd 4bf8 5dbd 0d76 a4bc b591 923c
00000240: b870 083c 9eaf 38bd b08e f13c f813 b7bc
00000250: 3e39 48bd 522a 45bd a1e8 44bc 50c6 bb3c
00000260: 8906 14bd 668d b43c 0742 77bd e111 d0bc
00000270: 0351 813a c4a3 90bd 37fe 42bd eec2 9f39
00000280: 40c9 503c 1bd9 0c3d 9c8e 083d f4ab 0e3d
00000290: e4bd 983c c0da 643b 0221 9f3c 0158 75bd
000002a0: 0ed6 24bd c81c 00bd 1400 63bd a3b7 57bb
000002b0: a85c a33c d620 f83c 438b 113a 2813 f1bb
000002c0: 7d9a 8fbd 0e68 b5ba b0df 0b3d b49d d73c
000002d0: f47b 683b d057 afbb 7db5 42bd 5e12 583d
000002e0: d963 5abd d01a 8c3c 9f5a 783c 0c78 8b3c
000002f0: 00b6 153d 8a88 23bd 45de 35bd af69 57bd
00000300: 9fd3 9d3c 3ce0 07bd 3bcf 9ebc a2b7 7fb9
00000310: 36a9 1bbd fe10 4dbc 766d 05bd 8038 52bd
00000320: b0c2 233d 22a0 66bd 52bf 56bc 27ad 98bd
00000330: f931 33bd 32ce d1bb 8953 0dbd aa24 d0bc
00000340: 803c 0d3d 528e 433d e1a7 d439 d06b 04bc
00000350: 99ee a2bd 688f 28bd fa11 90bc 9d68 ebbb
00000360: 1040 293d cb15 0cbd 5557 82bd 4a0f 343c
00000370: b7ce 2dbc 8828 f6bc 49ee 33bc dcf7 79bd
00000380: 24a6 f23c c850 22bd 06b6 63bd 001e 57bd
00000390: 5072 da3b a17f 9dbd 3a99 80bd 6866 5bbd
000003a0: 0082 dcb9 a4e8 623d 9b3c bbbc 44fd f33c
000003b0: 542e aebd 6296 c5bc 3c0d 233d 38c5 1fbc
000003c0: f267 c4bc 7db9 e0bc 5499 3a3d 8450 5ebd
000003d0: 11b2 a5bd 9c0c 1abc 04dc efbc f093 533d
000003e0: 2e7e 9abd 0a80 cebc 7a58 8dbc a856 a4bd
000003f0: db25 74bd beb7 58bd 307a 283d 67b7 9ebd

fca1.bias f4 [300]
-0.04930556 -0.036351588 0.002527996 0.03572712 0.040538386 0.04350762 -0.023000278 0.07111078
0.06974516 0.014220414 0.073228985 0.049730998 -0.056892015 -0.011253933 0.07689446 0.02229034
0.049413275 -0.0442126 0.027960474 0.03893118 -0.044679947 0.08041596 -0.0077581485 0.019082017
-0.009089169 0.025413074 0.084128894 -0.034495812 -0.011466125 -0.008866594 0.05139098 0.01660367
0.089188874 -0.027877973 0.040945176 0.013564914 0.004473993 0.021853535 0.05896722 -0.014833767
0.07904434 -0.057634547 0.00064697344 0.04451395 0.050471503 -0.027466124 0.028272966 0.002653579
-0.022097426 0.024050515 -0.050172802 -0.018261336 0.0639881 0.09358357 0.014370923 0.05436938
-0.05423499 -0.008781098 0.18683167 0.005836636 -0.038791314 0.068714686 0.07137066 -0.01493698
-0.05305981 -0.01397115 -0.053254526 0.065999985 -0.016461466 0.062106024 0.039684184 -0.030618042
0.016835412 0.04092428 0.026208743 0.011213128 0.16700809 0.0030067787 -0.0104370015 0.040945772
0.04228984 0.068645954 0.036861528 0.0027349633 0.08866366 -0.00975995 0.028495846 -0.04539837
0.059253607 0.07977633 0.09325966 0.023985554 -0.001894437 -0.013641245 0.041199714 0.045019433
0.08821499 0.060902003 0.022786172 -0.064428896 0.028840529 0.059775908 0.052503057 0.004396981
0.002079349 -0.017318204 0.033598755 0.0188782 0.035516538 -0.06656506 -0.0141768865 -0.045305993
-0.045804393 0.0380129 0.068119474 0.040749405 0.09099817 0.0603413 -0.01365766 -0.037246954
-0.055090256 0.039708916 -0.0013818752 -0.04276149 0.026105538 0.053770322 0.04571818 -0.011313946
0.023695908 -0.025473448 -0.0151337385 0.029105913 0.09154448 0.07384893 -0.017864274 0.028495187
0.023626884 -0.012642598 -0.013015809 0.00834077 0.06448578 0.06639169 0.084136315 -0.050585914
-0.020255182 0.045598492 -0.010735614 0.051506683 0.035741597 0.021942697 0.08394028 0.07170296
0.042779688 0.03026132 0.00039934737 -0.047541693 -0.056843363 0.00075116014 -0.015917117 -0.03808674
-0.009668894 0.076644875 -0.03848098 0.0728879 0.0045588426 0.043085966 0.051469218 -0.007518365
0.023832386 0.0055917385 -0.010102546 0.04690388 -0.016400756 -0.0143282525 0.0925931 0.00063122995
-0.0045264424 -0.039872065 -0.049394432 -0.013161565 0.011963309 -0.026163075 0.056459155 -0.14528632
0.022618758 0.06657077 -0.0041296063 0.20863587 0.05436357 -0.04274857 0.029937083 0.022654207
-0.055589337 0.014238314 -0.074656226 0.07400959 -0.0020973287 0.03812777 0.070440456 0.018584056
0.087435886 -0.011817805 0.062456336 0.026141612 -0.03853537 0.028854312 -0.055027805 0.01850729
-0.0058016693 -0.005592978 0.042094685 -0.022787467 -0.070865124 0.16539429 0.05956366 -0.06514115
0.15765701 0.050011475 0.047083694 -0.026803453 0.031644024 0.11337451 -0.04425981 -0.06837426
0.03648924 -0.038612694 0.016498672 0.07576634 -0.013589545 0.09416315 0.018522793 -0.055516075
-0.041698165 0.023691364 -0.008930456 0.018112717 -0.015711848 0.015852306 -0.020101964 0.03526735
0.06102674 0.02796856 0.036406823 0.004520054 -0.06012409 -0.028593987 -0.004051909 -0.057453778
0.07917821 -0.018153358 0.06594187 0.06337317 -0.06841018 0.04428321 0.035592586 0.14013325
00000000: a0f4 49bd 67e5 14bd bcac 253b 9a56 123d
00000010: 940b 263d 0c35 323d 146b bcbc 87a2 913d
00000020: 8dd6 8e3d bdfc 683c 14f9 953d bbb2 4b3d
00000030: 9a07 69bd 6b62 38bc d87a 9d3d 3b9a b63c
00000040: 9365 4a3d 4518 35bd 5d0d e53c 4d76 1f3d
00000050: 5202 37bd 1fb1 a43d 1138 febb e451 9c3c
00000060: bdea 14bc 142f d03c c54b ac3d 7b4b 0dbd
00000070: 6adc 3bbc 3145 11bc 597f 523d 6b04 883c
00000080: a8a8 b63d 5960 e4bc 21b6 273d 603f 5e3c
00000090: 939a 923b 2f06 b33c 9d87 713d 5409 73bc
000000a0: 00e2 a13d 3412 6cbd a799 293a 4254 363d
000000b0: 35bb 4e3d a300 e1bc b59c e73c abe7 2d3b
000000c0: a905 b5bc 9605 c53c ff81 4dbd cc98 95bc
000000d0: 310c 833d bea8 bf3d 0574 6b3c 6db2 5e3d
000000e0: 8225 5ebd 98de 0fbc cd50 3f3e 4041 bf3b
000000f0: a4e3 1ebd 49ba 8c3d c82a 923d 3cba 74bc
00000100: 3e55 59bd 40e7 64bc 6b21 5abd 002b 873d
00000110: 32da 86bc e362 7e3d e28b 223d b0d2 fabc
00000120: 6bea 893c 38a0 273d b8b3 d63c 45b7 373c
00000130: 2b04 2b3e 600d 453b f5ff 2abc c1b6 273d
00000140: 1c38 2d3d 4096 8c3d 1dfc 163d 123d 333b
00000150: 4b95 b53d 33e8 1fbc 1f70 e93c a4f3 39bd
00000160: e9b3 723d c661 a33d ecfe be3d 5a7d c43c
00000170: c24e f8ba 877f 5fbc 08c1 283d 4c66 383d
00000180: 10aa b43d 6174 793d 11aa ba3c 4cf3 83bd
00000190: f942 ec3c 95d7 743d 720d 573d 8d14 903b
000001a0: b045 083b e8de 8dbc d99e 093d 74a6 9a3c
000001b0: ca79 113d 4353 88bd 2c46 68bc c792 39bd
000001c0: 639d 3bbd 6ab3 1b3d 3982 8b3d d9e8 263d
000001d0: 405d ba3d 7028 773d 61c4 5fbc 4390 18bd
000001e0: 52a6 61bd d1a5 223d 0a20 b5ba ac26 2fbd
000001f0: 48db d53c 453e 5c3d fc42 3b3d 215e 39bc
00000200: ec1d c23c b1ad d0bc 80f3 77bc 866f ee3c
00000210: ac7b bb3d 1c3e 973d 1958 92bc bd6e e93c
00000220: 2b8d c13c e622 4fbc 4240 55bc baa7 083c
00000230: 1f11 843d 5ef8 873d a94f ac3d 2d33 4fbd
00000240: 32ee a5bc 7cc5 3a3d 6ee4 2fbc acf8 523d
00000250: c865 123d 2cc1 b33c e2e8 ab3d 00d9 923d
00000260: c139 2f3d 96e6 f73c 7f5f d139 14bb 42bd
00000270: 96d4 68bd 81e9 443a 9d64 82bc d700 1cbd
00000280: 486a 1ebc fdf7 9c3d 3b9e 1dbd 4046 953d
00000290: 5862 953b e97a 303d 63d1 523d 9e5c f6bb
000002a0: 233c c33c e73a b73b 2685 25bc 481e 403d
000002b0: e15a 86bc 0cc1 6abc 74a1 bd3d 2079 253a
000002c0: 8d52 94bb e450 23bd d151 4abd 9ba3 57bc
000002d0: c101 443c f253 d6bc b741 673d f0c5 14be
000002e0: f94a b93c 4256 883d a651 87bb a4a4 553e
000002f0: 56ac 5e3d 2019 2fbd 9d3e f53c 5195 b93c
00000300: a5b1 63bd d147 693c 5de5 98bd 5792 973d
00000310: 5673 09bb dd2b 1c3d 1643 903d 973d 983c
00000320: 9611 b33d 779f 41bc 37d2 7f3d ef26 d63c
00000330: 44d7 1dbd e15f ec3c d664 61bd 9a9c 973c
00000340: ee1b bebb 4d45 b7bb 7a6b 2c3d c8ac babc
00000350: bc21 91bd 1f5d 293e 06f9 733d b968 85bd
00000360: d770 213e d5d8 4c3d d5da 403d ea92 dbbc
00000370: 2a9d 013d e530 e83d c649 35bd ce07 8cbd
00000380: be75 153d 5828 1ebd 3928 873c 622b 9b3d
00000390: afa6 5ebc 9cd8 c03d 1dbd 973c d364 63bd
000003a0: b2cb 2abd 6414 c23c 0c51 12bc 1f61 943c
000003b0: 22b6 80bc b2dc 813c e0ac a4bc 7f74 103d
000003c0: 2df7 793d 521e e53c 521f 153d f61c 943b
000003d0: ae44 76bd f03d eabc e0c5 84bb a754 6bbd
000003e0: 2f28 a23d 5ab6 94bc 880c 873d cbc9 813d
000003f0: a31a 8cbd 5062 353d 88c9 113d 177f 0f3e

fca2.weight f4 [1, 300]
0.00266561 -0.005143918 -0.077525884 3.8351864e-06 -0.0059590796 -0.12046883 -0.0039963843 -0.07941151
-0.08221785 -0.07656514 -0.07778428 -0.0056459703 0.023583757 -0.00026241515 -0.072921395 -0.07159466
-0.060302146 -0.005050489 0.0032571503 -0.0046136784 -0.0036313122 -0.09588424 -0.062347207 -0.006167271
-0.070637725 -0.08024104 -0.052112825 0.015083157 -0.006059792 -0.052001562 -0.08377392 -0.11513879
-0.077090375 -0.2839385 -0.005313992 -0.08258863 -0.005760771 -0.15138054 -0.06538111 -0.45539558
-0.071687184 -0.0022081854 -0.04598818 -0.057586957 -0.08417334 -0.005679848 -0.06293884 0.129485
-0.05577117 -0.059621807 -0.0023129117 0.0032412182 -0.11733472 -0.06157581 -0.040152412 -0.052391868
-0.006127422 0.00053182116 0.7184138 -0.00036176387 0.0026435312 -0.06930555 -0.09311885 -0.0016362709
-0.0062392494 -0.019642647 -0.00029971456 -0.07599723 -0.17494015 -0.05998546 -0.10560064 -0.006990032
-0.0721872 -0.067576654 -0.07207388 -0.08235718 -0.57500005 -0.065366335 0.002610289 -0.05913884
-0.0040162737 -0.06773414 -0.17232299 -0.05841399 -0.07836541 -0.5155067 -0.07482303 -0.0030564799
-0.06665106 -0.07021434 -0.06884005 -0.0870907 -0.06849278 -0.058242217 -0.083502375 0.00011138544
-0.059539903 -0.15536709 -0.0063985074 -0.0028027853 -0.06966934 -0.13710308 -0.0006184655 0.010295706
0.0013805353 -0.04570576 -0.0061489595 -0.22552635 -0.060575917 -0.020333575 -0.054936145 -0.0027656564
-0.0047186245 -0.0711569 -0.066948004 -0.06809647 -0.06951003 -0.071842305 -0.005592733 -0.0038266217
-0.024913507 -0.0053336015 -0.056966443 -0.004678607 -0.06373593 -0.0691292 0.1277169 -0.070145875
0.0040823864 -0.13910098 0.0016969163 0.0047843205 -0.07027332 -0.07303577 -0.078609824 -0.050302144
-0.059128884 -0.06380989 -0.0070232637 -0.007915511 -0.0706839 -0.12127043 -0.071513794 0.004970998
-0.0013636485 -0.09120189 0.028745776 -0.07768574 -0.071399264 -0.08315787 -0.06529826 -0.08374862
-0.0624913 -0.06872075 -0.004424968 0.0016193874 0.00048039225 0.016473683 -0.05647512 -0.004740318
0.024671638 -0.066789575 -0.0036906854 -0.09996163 0.0086116055 -0.09924741 -0.07132877 -0.30306217
-0.059015047 0.017568348 -0.05976376 -0.06632628 -0.059576992 -0.062773295 -0.06502262 -0.13252985
-0.010280946 -0.0040675285 -7.358147e-06 -0.08006336 -0.0035231458 -0.0032457458 -0.0690513 1.1264194
-0.062109765 -0.08902948 -0.08763194 0.69089556 -0.067055605 -0.004200101 -0.06966753 -0.090171404
-0.0021455488 -0.0063656503 0.016129633 -0.086432375 -0.082062654 -0.09024434 -0.082103305 -0.005867031
-0.06626053 -0.052490965 -0.07264965 0.018594975 0.019082012 -0.07194228 -0.006308818 -0.08184698
-0.060047697 0.0039394763 -0.5593777 -0.0126319695 0.02244827 -0.4181817 -0.08805674 -0.0015041272
-0.38941783 -0.16302587 -0.005248853 -0.0042116204 -0.008739231 0.18727067 -0.019858038 0.025810936
-0.06437368 -0.00431522 0.022997327 -0.055647846 -0.0007624802 -0.061262287 0.0077962657 0.0058386833
0.0024734228 -0.055149227 -0.01291233 -0.0056186263 -0.07726461 -0.06657966 -0.006853054 -0.07419906
-0.058522068 -0.08175287 -0.083713755 -0.07365096 0.005513138 -0.0023482873 -0.07691234 -0.025398187
-0.054868754 -0.004451163 -0.052724995 -0.09650996 -0.004100631 -0.06395917 -0.45490766 -0.7291044
00000000: 84b1 2e3b 508e a8bb e4c5 9ebd 00b0 8036
00000010: 6244 c3bb 5db8 f6bd 1af4 82bb 80a2 a2bd
00000020: d561 a8bd 2fce 9cbd 5d4d 9fbd d501 b9bb
00000030: b932 c13c c494 89b9 d057 95bd 39a0 92bd
00000040: 62ff 76bd 937e a5bb ea75 553b 572e 97bb
00000050: 4ffb 6dbb f55e c4bd c95f 7fbd d216 cabb
00000060: 83aa 90bd 6a55 a4bd 4274 55bd 591f 773c
00000070: 3891 c6bb 97ff 54bd a991 abbd e3cd ebbd
00000080: 8fe1 9dbd 6360 91be ff20 aebb 3a24 a9bd
00000090: dac4 bcbb 8003 1bbe 88e6 85bd 9c29 e9be
000000a0: bbd0 92bd 34b7 10bb 1a5e 3cbd 4de0 6bbd
000000b0: 1263 acbd 051e babb 14e6 80bd b797 043e
000000c0: 4f70 64bd ff35 74bd 3894 17bb 9e6a 543b
000000d0: 304d f0bd eb36 7cbd db76 24bd db98 56bd
000000e0: 8bc8 c8bb ea69 0b3a f7e9 373f 20ab bdb9
000000f0: 183f 2d3b 11f0 8dbd 18b5 bebd 2478 d6ba
00000100: 9e72 ccbb 9ee9 a0bc 0223 9db9 70a4 9bbd
00000110: 8323 33be 50b3 75bd 2645 d8bd a30c e5bb
00000120: e2d6 93bd a165 8abd 789b 93bd e2aa a8bd
00000130: 3433 13bf c9de 85bd 6211 2b3b 913b 72bd
00000140: f29a 83bb 32b8 8abd 7075 30be 8243 6fbd
00000150: 0b7e a0bd 3ff8 03bf d13c 99bd 394f 48bb
00000160: 5a80 88bd 89cc 8fbd 03fc 8cbd 9c5c b2bd
00000170: f145 8cbd 648f 6ebd 4b03 abbd 9a97 e938
00000180: 1de0 73bd 8d18 1fbe 92aa d1bb efae 37bb
00000190: cdae 8ebd c064 0cbe 8420 22ba 52af 283c
000001a0: 14f3 b43a f735 3bbd 367d c9bb 61f0 66be
000001b0: 741e 78bd 9992 a6bc b904 61bd 0440 35bb
000001c0: b19e 9abb b5ba 91bd 091c 89bd 2976 8bbd
000001d0: 465b 8ebd 0f22 93bd 3f43 b7bb 0fc8 7abb
000001e0: 6917 ccbc 7ec5 aebb a555 69bd 004f 99bb
000001f0: fc87 82bd 9c93 8dbd 38c8 023e a4a8 8fbd
00000200: 8ac5 853b 7d70 0ebe 106b de3a cac5 9c3b
00000210: 75eb 8fbd c793 95bd 30fe a0bd 9f09 4ebd
00000220: 2131 72bd c2ae 82bd 6823 e6bb 0fb0 01bc
00000230: b8c2 90bd a25c f8bd d375 92bd c1e3 a23b
00000240: 73bc b2ba 0ec8 babd 437c eb3c b419 9fbd
00000250: c739 92bd ac4e aabd 18bb 85bd 6584 abbd
00000260: e1f6 7fbd 77bd 8cbd 52ff 90bb a041 d43a
00000270: 28dd fb39 d1f3 863c 7552 67bd ab54 9bbb
00000280: 2d1c ca3c f9c8 88bd 6ddf 71bb afb8 ccbd
00000290: b117 0d3c 3a42 cbbd d114 92bd f72a 9bbe
000002a0: c3b9 71bd 7feb 8f3c d8ca 74bd 13d6 87bd
000002b0: 0107 74bd 498f 80bd 942a 85bd e8b5 07be
000002c0: 6a71 28bc e748 85bb 00e6 f6b6 42f8 a3bd
000002d0: 94e4 66bb 94b6 54bb c56a 8dbd 832e 903f
000002e0: cf66 7ebd 1755 b6bd 6078 b3bd 88de 303f
000002f0: 7354 89bd 00a1 89bb daad 8ebd c9ab b8bd
00000300: 569c 0cbb f296 d0bb 4b22 843c 7503 b1bd
00000310: 7710 a8bd 06d2 b8bd c725 a8bd 3940 c0bb
00000320: 9ab3 87bd c400 57bd 57c9 94bd 7d54 983c
00000330: e151 9c3c 7956 93bd 33ba cebb 649f a7bd
00000340: 93f4 75bd b916 813b 6033 0fbf 52f6 4ebc
00000350: 6fe5 b73c e91b d6be 1857 b4bd 2226 c5ba
00000360: c661 c7be 41f0 26be 92fe abbb a201 8abb
00000370: fe2e 0fbc e2c3 3f3e 53ad a2bc 7571 d33c
00000380: 59d6 83bd b066 8dbb e464 bc3c ffee 63bd
00000390: 2ee1 47ba 2aee 7abd d177 ff3b 6d52 bf3b
000003a0: 2619 223b 28e4 61bd 3d8e 53bc 741c b8bb
000003b0: e83c 9ebd eb5a 88bd 958f e0bb adf5 97bd
000003c0: d6b4 6fbd 0c6e a7bd 1e72 abbd 51d6 96bd
000003d0: 8ea7 b43b b9e5 19bb 3884 9dbd dc0f d0bc
000003e0: 0fbe 60bd 10db 91bb 2af6 57bd 04a7 c5bd
000003f0: 965e 86bb 06fd 82bd a8e9 e8be 96a6 3abf
