src/Models/stage_2/220_critic.pt (torch_old, 374310 bytes, 7 tensors)

fc1.weight f4 [150, 14]
0.038125955 0.034163218 0.06225691 0.14828216 0.028162455 -0.15777446 -0.026489843 0.09261684
0.122731656 0.014621735 0.33573854 0.24822326 0.18979052 0.024552591 0.112742454 -0.08125456
0.075603165 0.035167363 -0.16692081 -0.16950431 -0.05952736 0.010550526 -0.29449767 0.12612092
0.5411396 0.09149683 0.08414591 0.040841643 -0.023111409 -0.0020843511 0.15683755 0.026631681
0.14595993 -0.050067805 0.018712116 -0.016193667 0.06906876 -0.027574575 -0.04607445 -0.04181042
0.35144392 -0.17105216 0.04069482 0.09736849 0.09869561 0.09755953 -0.016299693 -0.05916042
-0.038783558 -0.25966343 0.06793097 -0.048047822 0.35426366 -0.08092541 -0.13184233 0.069784835
-0.05611778 -0.006552805 0.06969077 -0.033959188 0.012527578 -0.038117334 -0.10493783 0.14258994
-0.07973257 -0.048484456 0.8006206 0.017943 -0.425554 -0.06192463 -0.049639914 0.07562582
0.08185998 0.06751684 -0.08492427 0.009011135 0.021026654 0.038824573 0.062360637 0.06354983
0.36796543 -0.25922233 0.12760976 0.07967269 -0.056250684 0.075268306 -0.03283557 -0.05619193
0.013463451 -0.028254297 -0.00868006 -0.074167706 -0.061197907 -0.04569093 -0.64612037 -0.028321685
0.56287825 -0.19230713 -0.012465316 0.03397452 -0.028555388 -0.051167943 0.08860138 0.10465538
-0.11650991 0.08380741 0.01771518 -0.06912069 0.25615615 -0.38288215 -0.12807193 -0.04811574
-0.025720635 0.024407376 -0.044989504 -0.022514667 0.050309554 -0.11281365 -0.14441475 -0.06864516
-0.0031318387 0.018687217 0.5355562 0.055833407 -0.32938838 -0.04241945 -0.08104859 -0.028771281
0.021380648 -0.027080864 0.050841868 -0.04933181 0.04594727 -0.021822475 -0.06323434 -0.033080745
0.028225407 0.046655774 0.04905741 -0.035331514 0.07352084 0.046904035 -0.039715227 0.02727894
0.021366399 0.08506533 0.024667492 0.17917815 0.07892417 -0.056369375 0.13793832 0.00045997807
-0.16323805 -0.16970184 0.059841894 0.037476182 0.017582493 0.17712769 0.081951134 -0.011079509
0.008875565 0.0153499935 -0.10758234 -0.045179725 0.26500237 -0.032769695 -0.046503957 0.049669776
0.09106687 0.06721895 0.048781756 0.060106244 0.046567794 -0.021100877 -0.022666119 -0.092113875
0.054699358 0.04917447 0.33680776 0.05499067 -0.059208702 0.028307702 0.0063107824 0.017997729
0.10494986 0.040022008 0.0301982 0.044901595 -0.06190284 0.054381028 -0.063426346 -0.07691615
-0.13863987 -0.04679794 0.38872984 0.03132332 -0.16945054 -0.18098329 -0.17572628 -0.10795455
-0.16948459 -0.061976936 -0.057029147 0.11521065 0.1071592 0.034755595 0.51971096 0.17361476
0.40862548 -0.052388612 0.15271547 -0.01926631 0.024659006 0.03292862 0.006684922 -0.07238349
0.15895012 0.094756745 -0.011954888 0.05758765 0.02815939 0.11895063 -0.5801896 0.14690007
0.0027257872 -0.017825296 0.044851486 -0.08401756 0.036822513 -0.017143538 0.04596448 -0.059285577
-0.080521226 -0.01664879 -0.029472483 0.06722079 0.019239718 -0.053280924 0.13544193 0.11222383
-0.009416343 0.088124216 0.009493351 -0.035943095 0.022125695 -0.002628295 0.049999047 0.05964945
-0.21932109 0.08266564 0.25894645 0.08789957 -0.027964288 0.0053628683 0.0649209 -0.0443258
00000000: f629 1c3d bbee 0b3d 1a01 7f3d 47d7 173e
00000010: f3b4 e63c a18f 21be 3a01 d9bc e6ad bd3d
00000020: bc5a fb3d 0090 6f3c ece5 ab3e 3d2e 7e3e
00000030: 7258 423e 8422 c93c 84e5 e63d ca68 a6bd
00000040: d5d5 9a3d a70b 103d 4aed 2abe 8a92 2dbe
00000050: f6d2 73bd 1ddc 2c3c 66c8 96be d825 013e
00000060: 2088 0a3f b162 bb3d b154 ac3d 9149 273d
00000070: 2354 bdbc 9c99 08bb 069a 203e af2a da3c
00000080: 8576 153e e613 4dbd 274a 993c 95a8 84bc
00000090: ec73 8d3d 13e4 e1bc 90b8 3cbd 6741 2bbd
000000a0: 75f0 b33e 4c28 2fbe 9daf 263d 2269 c73d
000000b0: ed20 ca3d 4acd c73d ef86 85bc 3252 72bd
000000c0: 82db 1ebd 9bf2 84be 641f 8b3d cbcd 44bd
000000d0: 0c62 b53e 39bc a5bd ad01 07be 5aeb 8e3d
000000e0: c2db 65bd eab8 d6bb 09ba 8e3d ca18 0bbd
000000f0: 7840 4d3c ec20 1cbd a5e9 d6bd 1903 123e
00000100: d44a a3bd a397 46bd 79f5 4c3f 33fd 923c
00000110: 37e2 d9be aea4 7dbd 3953 4bbd b6e1 9a3d
00000120: 35a6 a73d 4546 8a3d c7ec adbd 71a3 133c
00000130: 1740 ac3c 8406 1f3d de6d 7f3d 6a26 823d
00000140: f765 bc3e cab8 84be 22ac 023e 6f2b a33d
00000150: 1e67 66bd 4526 9a3d 977e 06bd 8229 66bd
00000160: ce95 5c3c 8e75 e7bc cf36 0ebc 3de5 97bd
00000170: a8aa 7abd 6a26 3bbd 2568 25bf e102 e8bc
00000180: ca18 103f 29ec 44be 533b 4cbc de28 0b3d
00000190: fdec e9bc 7a95 51bd a474 b53d 8f55 d63d
000001a0: bf9c eebd 38a3 ab3d 6d1f 913c 268f 8dbd
000001b0: e626 833e 2109 c4be 4a25 03be 0315 45bd
000001c0: 15b4 d2bc faf1 c73c ea46 38bd ae70 b8bc
000001d0: 6411 4e3d d80a e7bd 76e1 13be d595 8cbd
000001e0: 893f 4dbb ef15 993c 361a 093f 92b1 643d
000001f0: 98a5 a8be 04c0 2dbd cefc a5bd c0b1 ebbc
00000200: 7826 af3c b0d8 ddbc 903f 503d 2710 4abd
00000210: 3433 3c3d 0cc5 b2bc 0181 81bd ad7f 07bd
00000220: f838 e73c 201a 3f3d 6cf0 483d c7b7 10bd
00000230: 1892 963d 721e 403d 6fac 22bd 1578 df3c
00000240: 9608 af3c bb36 ae3d 7b13 ca3c 7a7a 373e
00000250: ffa2 a13d 93e3 66bd b43f 0d3e 3629 f139
00000260: e027 27be 52c6 2dbe c61c 753d a080 193d
00000270: 2909 903c f660 353e ffd5 a73d d486 35bc
00000280: d16a 113c 8a7e 7b3c 2154 dcbd 600e 39bd
00000290: 64ae 873e 8439 06bd ef7a 3ebd 8972 4b3d
000002a0: 4481 ba3d 17aa 893d 61cf 473d f731 763d
000002b0: dfbd 3e3d bfdb acbc 4cae b9bc 33a6 bcbd
000002c0: 6f0c 603d 2b6b 493d 1172 ac3e e63d 613d
000002d0: d384 72bd 8ee5 e73c aeca ce3b f96f 933c
000002e0: f4ef d63d 1eee 233d 3762 f73c bcea 373d
000002f0: d58d 7dbd a4be 5e3d ace5 81bd 3786 9dbd
00000300: 9cf7 0dbe 32af 3fbd 9907 c73e e24c 003d
00000310: 7184 2dbe af53 39be 97f1 33be 4617 ddbd
00000320: 5e8d 2dbe 87db 7dbd 6597 69bd 90f3 eb3d
00000330: 4876 db3d e25b 0e3d c70b 053f 11c8 313e
00000340: 5c37 d13e 7195 56bd 7261 1c3e 61d4 9dbc
00000350: af01 ca3c 29e0 063d 310d db3b cc3d 94bd
00000360: d2c3 223e d30f c23d 6fde 43bc 07e1 6b3d
00000370: 85ae e63c 639c f33d 4e87 14bf f96c 163e
00000380: 1fa3 323b 5b06 92bc 31b6 373d 6611 acbd
00000390: 34d3 163d 9b70 8cbc 4045 3c3d 6fd5 72bd
000003a0: 50e8 a4bd 0b63 88bc 4770 f1bc 0eab 893d
000003b0: 9d9c 9d3c 193d 5abd 4ab1 0a3e 9bd5 e53d
000003c0: 0147 1abc 787a b43d 008a 1b3c 1139 13bd
000003d0: f240 b53c 793f 2cbb cdcb 4c3d fb52 743d
000003e0: b595 60be 9a4c a93d a194 843e b104 b43d
000003f0: 5d15 e5bc 00bb af3b 40f5 843d f88e 35bd

fc1.bias f4 [150]
-0.09741877 0.31321704 -0.3760204 0.21488853 -0.2828015 -0.15593718 0.019763405 0.10958401
-0.06054523 -0.18955266 -0.3357826 0.32379448 0.329085 -0.090698734 0.17475076 0.02134475
-0.19480208 -0.35705724 0.063829504 -0.3791187 -0.23802859 0.286809 -0.035124965 0.04628281
0.040864512 -0.14680511 0.14319457 -0.27010214 -0.4415249 0.016727272 -0.08714496 -0.011098199
0.12243523 -0.10018452 0.034244202 -0.24973495 0.31918785 0.45014796 0.2815898 0.11721708
-0.19208181 0.27337232 -0.18077163 0.0688076 -0.13063207 -0.33918488 -0.0163506 0.017993053
0.5855929 -0.19898522 -0.15517043 -0.01592162 -0.46241543 -0.1852339 0.07017945 0.35227278
-0.38452566 0.29688683 0.24506827 0.21888563 -0.07789931 0.17992947 0.56520283 -0.17832057
-0.022136413 0.13745701 -0.28164667 0.3360639 0.26512745 -0.10866616 -0.2042067 -0.16952842
0.018788956 -0.15641204 -0.13848853 0.21475218 -0.04091873 -0.05669313 0.39433828 -0.07449561
-0.31289777 0.37792987 -0.27708247 0.19650342 0.1444618 0.101110674 -0.01722795 0.38996384
0.5121508 0.40510955 -0.072957896 -0.29492387 -0.3267293 -0.29026508 -0.21636946 -0.10981081
0.09474405 -0.27997446 -0.09367874 -0.160352 0.13804053 -0.17936271 -0.008114878 -0.00049879693
0.3503386 0.03040778 -0.1570695 0.37338856 0.52277386 -0.00682981 -0.19018774 -0.48277408
-0.260878 -0.2809593 0.4217014 -0.0044691367 0.022175571 -0.2498331 0.16918851 0.054292824
-0.14138445 -0.2060738 0.020842776 -0.21755093 -0.22015575 -0.018776 -0.14273262 -0.45235193
0.09488701 0.20245248 0.10822679 -0.26160675 0.31814477 -0.028380617 -0.23548831 -0.15148118
-0.15156865 -0.14955065 -0.026603654 0.37487715 0.39404717 -0.3473547 0.45210868 0.12752104
-0.23934728 0.20189323 -0.26940566 -0.2644435 0.0941502 -0.28925875
00000000: 7e83 c7bd fc5d a03e bf85 c0be bd0b 5c3e
00000010: 5ccb 90be ffad 1fbe dde6 a13c 956d e03d
00000020: 46fe 77bd 181a 42be b2eb abbe 64c8 a53e
00000030: d47d a83e 42c0 b9bd ddf1 323e 2fdb ae3c
00000040: 327a 47be 35d0 b6be 0bb9 823d d91b c2be
00000050: c4bd 73be a1d8 923e 32df 0fbd 0b93 3d3d
00000060: 8c61 273d 1454 16be 99a1 123e d44a 8abe
00000070: 8d0f e2be a207 893c 0f79 b2bd 38d5 35bc
00000080: 52bf fa3d 8b2d cdbd a643 0c3d 85ba 7fbe
00000090: 976c a33e cb79 e63e 8a2c 903e 820f f03d
000000a0: 18b1 44be 75f7 8b3e 331c 39be 00eb 8c3d
000000b0: 6ac4 05be a4a9 adbe b2f1 85bc 2b66 933c
000000c0: 6be9 153f c8c2 4bbe ffe4 1ebe 0f6e 82bc
000000d0: b7c1 ecbe f5ad 3dbe 3eba 8f3d 195d b43e
000000e0: 8ce0 c4be 8d01 983e 2df3 7a3e 8e23 603e
000000f0: ac89 9fbd 6e3f 383e 22b1 103f ab99 36be
00000100: 6c57 b5bc 88c1 0c3e fe33 90be 9110 ac3e
00000110: c9be 873e 5d8c debd 901b 51be dc98 2dbe
00000120: 4ceb 993c 7a2a 20be f0cf 0dbe ffe7 5b3e
00000130: 669a 27bd 0e37 68bd b5e6 c93e 2891 98bd
00000140: 2334 a0be 0680 c13e c1dd 8dbe 3138 493e
00000150: cbed 133e 1d13 cf3d a121 8dbc 57a9 c73e
00000160: 511c 033f 856a cf3e f36a 95bd 4300 97be
00000170: 1049 a7be a09d 94be f58f 5dbe 7de4 e0bd
00000180: 2b09 c23d d058 8fbe a4da bfbd 5133 24be
00000190: 7f5a 0d3e dcaa 37be 44f4 04bc b2c1 02ba
000001a0: 955f b33e bd19 f93c d4d6 20be c92c bf3e
000001b0: 82d4 053f 99cc dfbb 93c0 42be 2a2e f7be
000001c0: cd91 85be e6d9 8fbe 3fe9 d73e d671 92bb
000001d0: 8ba9 b53c 40d4 7fbe c13f 2d3e 2762 5e3d
000001e0: 16c7 10be 0305 53be 78be aa3c acc5 5ebe
000001f0: 8270 61be 20d0 99bc 8028 12be ac9a e7be
00000200: 1f54 c23d b44f 4f3e 02a6 dd3d 52f1 85be
00000210: dfe3 a23e 787e e8bc d923 71be e21d 1bbe
00000220: d034 1bbe ce23 19be e8ef d9bc e6ef bf3e
00000230: 8dc0 c93e 7ad8 b1be ca7a e73e e094 023e
00000240: 7417 75be 19bd 4e3e 8aef 89be 2365 87be
00000250: d2d1 c03d b919 94be

fa1.weight f4 [150, 2]
0.64001524 0.08339715 -0.013751621 0.01794529 0.009664245 -0.03575713 0.0054628914 -0.28989413
0.5459946 -0.04160506 -0.27139944 0.06991014 0.2787183 -0.09220076 0.13672048 0.25971878
-0.16928002 0.025167147 -0.27036175 -0.029651877 -0.0064084902 -0.030762913 -0.064213805 0.057316195
-0.0630439 -0.028973464 -0.050958425 -0.061635274 0.05828631 -0.020507578 -0.018384025 -0.055011027
0.37000364 0.3665686 0.62267566 -0.016130075 -0.015905358 -0.010309408 -0.013329424 0.07350814
-0.040507466 0.01533556 -0.28770876 0.055583306 0.026326034 0.021500096 -1.2400308 -0.12247131
0.6283374 0.10118114 -0.01556493 0.04185372 0.6527439 -0.06649849 0.026671961 -0.05739233
0.062392056 -0.0032079518 -0.035221294 -0.27522466 -0.5474411 0.004510336 0.008530892 -0.012250476
-1.3601482 -0.1391515 0.07283847 -0.056413334 0.5671059 0.15650986 -0.13176371 0.22697514
-0.2883598 -0.33794945 -0.046532173 -0.018959492 0.059323013 0.054240495 0.033041343 0.01140254
-0.02796667 0.00273484 0.99467844 0.28429055 0.4352778 0.08997234 0.5432843 0.063969195
-0.2127326 -0.112191975 -0.07118202 -0.056179136 0.097142704 -0.12403329 -0.5993879 0.023177803
-0.020615611 0.07302036 -0.027524572 0.04713145 -0.005704657 0.067464605 0.9444348 0.1859317
0.007592052 0.03759455 0.42962646 0.027259838 0.750344 0.09284915 0.456422 0.10536616
0.29180217 -0.27417037 0.047087997 0.040514074 -0.017674997 -0.002785802 -0.08044335 0.04324943
0.6613359 0.09231599 0.63778704 0.07397228 0.26397163 0.22286294 0.48983887 0.1903898
0.07077026 -0.09014449 -0.1491537 -0.24487002 -0.057030268 -0.014435649 0.045278564 0.066997945
-0.4003996 -0.2657003 -1.1814973 -0.13203555 -0.08020601 -0.015208326 0.4193783 0.13546196
0.5874363 0.04886161 0.67436165 0.10530976 -0.0040967083 0.001809448 0.34058636 0.09163669
0.049455017 -0.018936343 -0.049398642 -0.028091846 -0.0017261704 -0.0666878 0.0051403916 0.10566718
-0.058626585 -0.096822165 0.2945624 0.010050974 0.49444786 0.3145976 0.019444533 0.07542141
0.14630884 -0.055564407 0.004149005 0.010298595 0.37960976 -0.42079046 0.5332929 0.114000894
0.002881825 0.04709014 -0.06769194 0.032557674 -0.054651715 0.058593985 0.3789145 -0.060851187
0.07657041 0.03444177 -0.16771418 0.055400964 -0.36929363 -0.079843044 0.028081037 0.012937634
0.013217486 -0.052406214 -0.07819593 0.064772785 0.5240481 -0.0009223614 0.028728878 0.010148831
-0.035712305 0.030797377 -1.1870115 -0.10201911 -0.4592044 -0.66808957 0.544691 0.27325425
-0.0097422255 0.05882381 0.98284256 0.25098142 0.044162024 -0.07573735 0.19635332 0.08193573
0.020152107 -0.045640983 -0.3770986 -0.100904614 0.7177741 0.18384033 0.23811556 -0.038236737
0.73966575 0.15847665 -0.021786649 0.2298408 0.18106653 -0.12367885 0.00081192004 0.06853697
0.86146307 0.22778656 0.3779186 -0.059699114 0.47967872 0.024712594 0.05800069 -0.3378673
0.5715888 0.11612335 0.27072492 0.05435678 0.32066697 0.04895344 0.068166986 0.031373225
0.052593127 0.034332603 0.020764722 -0.023074685 0.0007120669 -0.032315925 0.89079607 0.27869335
00000000: 0ad8 233f 20cc aa3d 7b4e 61bc 0002 933c
00000010: c856 1e3c 1176 12bd 0e02 b33b 016d 94be
00000020: 4dc6 0b3f 116a 2abd def4 8abe 0c2d 8f3d
00000030: 2ab4 8e3e c1d3 bcbd 7400 0c3e dcf9 843e
00000040: be57 2dbe 552b ce3c db6c 8abe 7ee8 f2bc
00000050: 50fe d1bb 8102 fcbc 8782 83bd 63c4 6a3d
00000060: 291d 81bd c259 edbc c8b9 50bd 4575 7cbd
00000070: a0bd 6e3d 82ff a7bc 189a 96bc 3e53 61bd
00000080: 1e71 bd3e e1ae bb3e ac67 1f3f 3823 84bc
00000090: f44b 82bc cbe8 28bc a863 5abc 708b 963d
000000a0: 28eb 25bd 0042 7b3c 904e 93be 52ab 633d
000000b0: b2a9 d73c f820 b03c 54b9 9ebf 3dd2 fabd
000000c0: b8da 203f 0f38 cf3d 0c04 7fbc ce6e 2b3d
000000d0: 391a 273f 5c30 88bd 287f da3c 3814 6bbd
000000e0: d08e 7f3d 803c 52bb 3444 10bd 3fea 8cbe
000000f0: 1a25 0cbf 71cb 933b 28c5 0b3c 38b6 48bc
00000100: 5619 aebf bb7d 0ebe 562c 953d ab11 67bd
00000110: da2d 113f 1f44 203e 11ed 06be 2c6c 683e
00000120: e5a3 93be b607 adbe 8598 3ebd f050 9bbc
00000130: b0fc 723d 482b 5e3d 5c56 073d b8d1 3a3c
00000140: 5c1a e5bc 003b 333b 3fa3 7e3f 888e 913e
00000150: bbdc de3e 6b43 b83d ae14 0b3f 4802 833d
00000160: 93d6 59be e8c4 e5bd e1c7 91bd 181c 66bd
00000170: c1f2 c63d 2a05 febd 7c71 19bf 60df bd3c
00000180: 12e2 a8bc b38b 953d 367b e1bc e80c 413d
00000190: 22ee babb e22a 8a3d 7bc6 713f e164 3e3e
000001a0: c0c6 f83b befc 193d 00f8 db3e 0650 df3c
000001b0: 8b16 403f b227 be3d 25b0 e93e 37ca d73d
000001c0: 1867 953e 0f60 8cbe 58df 403d 16f2 253d
000001d0: 28cb 90bc 0092 36bb 7cbf a4bd 5026 313d
000001e0: 4f4d 293f 2a10 bd3d 0346 233f c77e 973d
000001f0: 4a27 873e 2f36 643e 29cc fa3e 8bf5 423e
00000200: 00f0 903d ad9d b8bd bfbb 18be 35bf 7abe
00000210: 9298 69bd 8083 6cbc 0476 393d 3836 893d
00000220: 2d01 cdbe df09 88be 4e3b 97bf 5434 07be
00000230: 0c43 a4bd 582c 79bc c1b8 d63e 8ab6 0a3e
00000240: 3a62 163f 1d23 483d f7a2 2c3f a5ac d73d
00000250: ae3d 86bb 002b ed3a 5661 ae3e 04ac bb3d
00000260: 5891 4a3d 6420 9bbc 3b56 4abd df20 e6bc
00000270: ab40 e2ba 9d93 88bd bb70 a83b 0968 d83d
00000280: 6e22 70bd b34a c6bd e2d0 963e d7ac 243c
00000290: 4528 fd3e f012 a13e 244a 9f3c 8a76 9a3d
000002a0: fcd1 153e 8197 63bd 60f4 873b 70bb 283c
000002b0: 365c c23e d971 d7be e285 083f 4d79 e93d
000002c0: 00dd 3c3b 97e1 403d 12a2 8abd 325b 053d
000002d0: 7ada 5fbd 3f00 703d 1501 c23e 183f 79bd
000002e0: f2d0 9c3d d012 0d3d 44bd 2bbe 1fec 623d
000002f0: 0e14 bdbe c084 a3bd 340a e63c 5ff8 533c
00000300: 288e 583c e6a7 56bd 3025 a0bd 98a7 843d
00000310: 0428 063f a0ca 71ba d358 eb3c 4847 263c
00000320: 1147 12bd c84a fc3c feef 97bf 65ef d0bd
00000330: d71c ebbe eb07 2bbf df70 0b3f fbe7 8b3e
00000340: db9d 1fbc 3cf1 703d 929b 7b3f a380 803e
00000350: 3de3 343d 2f1c 9bbd d810 493e eccd a73d
00000360: 0816 a53c 0af2 3abd 1113 c1be 14a7 cebd
00000370: 0bc0 373f a440 3c3e 91d4 733e 209e 1cbd
00000380: bc5a 3d3f b447 223e ea79 b2bc 635b 6b3e
00000390: 8169 393e 564b fdbd 08d7 543a 1c5d 8c3d
000003a0: d888 5c3f e140 693e 8c7e c13e 0f87 74bd
000003b0: 7398 f53e 1172 ca3c 2292 6d3d f1fc acbe
000003c0: a553 123f 14d2 ed3d 759c 8a3e 37a5 5e3d
000003d0: 762e a43e 6783 483d 229b 8b3d 3681 003d
000003e0: e46b 573d 58a0 0c3d c71a aa3c 1f07 bdbc
000003f0: 00aa 3a3a b45d 04bd 360b 643f e5b0 8e3e

fa1.bias f4 [150]
0.65822613 -0.33479366 -0.3127206 0.88209647 0.45032203 0.14455193 0.8583846 0.3548765
0.46889746 0.42722556 -0.21985087 -0.5220238 -0.6755683 -0.6473817 -0.63535345 -0.28239554
0.46565956 0.69882435 -0.35165095 -0.67614454 -0.37505654 0.1383987 -0.45844015 -0.13027987
0.27225858 -0.46241364 0.48579535 -0.34516954 -0.5101211 0.82126814 0.2122848 -0.38573292
-0.14883424 -0.69384503 0.5330213 0.3557244 0.6831078 -0.15002322 -0.60965484 -0.42200214
-0.22013518 0.67948484 0.8627746 0.21524897 0.82114464 0.62531185 0.9139565 0.19265784
-0.16641086 -0.54294294 -0.4022989 0.46979922 -0.1991688 0.8463208 0.709652 0.7693109
0.34675547 -0.47124726 -0.3303394 -0.20063347 0.9242467 0.7121569 0.81330293 0.7378086
0.76733583 0.49326563 -0.3016779 -0.5996007 0.61702967 -0.15253733 -0.6288992 0.8260555
0.7511113 0.27226228 -0.08325976 0.9309114 -0.5533007 -0.35245588 -0.20487127 0.8841654
0.6929695 0.8314576 0.010707553 -0.6217619 0.92368424 -0.5984451 0.22206801 0.7779812
-0.48279828 -0.06873882 -0.6973937 0.61973 -0.16125238 0.79666007 0.41350156 -0.30431855
-0.40744773 -0.20861486 0.89362353 -0.3215028 -0.5196526 -0.09471677 0.09214443 0.8154828
-0.36335498 0.60099816 -0.22229841 0.8869501 -0.61128336 0.5078904 1.0115082 0.8518601
0.4257704 0.33627176 0.88841325 -0.67417616 0.57181394 0.21313094 0.25225574 0.63378495
0.33703706 0.5481147 0.7397298 -0.45656577 -0.6615307 -0.07673153 -0.120198786 0.70289963
0.5909112 0.7599511 0.8170113 0.21709067 0.69683844 0.55724627 -0.14907044 0.2046734
0.5881789 0.6384262 -0.5153452 0.9294679 0.51578915 -0.27767843 0.07055128 0.18956307
0.9129811 -0.58394253 -0.2306208 -0.19102791 0.78745174 -0.14644447
00000000: 8281 283f 136a abbe ea1c a0be 13d1 613f
00000010: 9c90 e63e 6c05 143e 18bf 5b3f 5fb2 b53e
00000020: 5413 f03e 4fbd da3e 9620 61be 5aa3 05bf
00000030: 0bf2 2cbf cfba 25bf 86a6 22bf 2696 90be
00000040: ee6a ee3e 27e6 323f 980b b4be cf17 2dbf
00000050: 6907 c0be 64b8 0d3e abb8 eabe 1668 05be
00000060: 7a65 8b3e 7bc1 ecbe 2bba f83e 10ba b0be
00000070: 4c97 02bf a13e 523f 3061 593e c97e c5be
00000080: 0168 18be d49f 31bf 1574 083f 8221 b63e
00000090: 27e0 2e3f b09f 19be 5712 1cbf aa10 d8be
000000a0: 1e6b 61be b8f2 2d3f ccde 5c3f 3a6a 5c3e
000000b0: 8936 523f 7014 203f 0ef9 693f 1948 453e
000000c0: 9c67 2abe 4ffe 0abf 1ffa cdbe 8689 f03e
000000d0: e8f2 4bbe 7ba8 583f c1ab 353f 8ff1 443f
000000e0: ef89 b13e 5247 f1be 3f22 a9be dc72 4dbe
000000f0: 6f9b 6c3f ea4f 363f 9f34 503f 06e1 3c3f
00000100: 1f70 443f 508d fc3e 8775 9abe 6e7f 19bf
00000110: a8f5 1d3f bf32 1cbe 8aff 20bf 6078 533f
00000120: d548 403f f665 8b3e 1884 aabd 3650 6e3f
00000130: 1da5 0dbf 1975 b4be c6c9 51be aa58 623f
00000140: 7366 313f 68da 543f bb6e 2f3c ca2b 1fbf
00000150: 9276 6c3f b333 19bf cc65 633e c729 473f
00000160: 5631 f7be f0c6 8cbd 6588 32bf a0a6 1e3f
00000170: 581f 25be eaf1 4b3f 7ab6 d33e a4cf 9bbe
00000180: fd9c d0be 229f 55be 83c4 643f 049c a4be
00000190: f407 05bf defa c1bd 38b6 bc3d 7bc3 503f
000001a0: aa09 babe 04db 193f 32a2 63be 290f 633f
000001b0: 117d 1cbf 1b05 023f 1a79 813f 8113 5a3f
000001c0: 94fe d93e d02b ac3e 0d6f 633f cf96 2cbf
000001d0: 6662 123f ff3e 5a3e aa27 813e bb3f 223f
000001e0: 1f90 ac3e 3f51 0c3f ef5e 3d3f fdc2 e9be
000001f0: 135a 29bf 6c25 9dbd c82a f6bd 3bf1 333f
00000200: f545 173f 288c 423f a727 513f 044d 5e3e
00000210: 0164 323f b1a7 0e3f eca5 18be e795 513e
00000220: e492 163f e66f 233f aaed 03bf 9cf1 6d3f
00000230: c20a 043f de2b 8ebe 317d 903d d21c 423e
00000240: 21b9 693f 427d 15bf dc27 6cbe d29c 43be
00000250: 7096 493f 8af5 15be

fca1.weight f4 [300, 300]
-0.030653792 0.016819732 0.011093592 -0.065736465 -0.056703977 -0.042522874 -0.026673362 -0.055173017
0.023350194 0.0016812496 -0.0023852643 -0.05520393 -0.028988251 0.030358713 0.026484972 -0.049998514
-0.03184271 0.007880844 -0.036389 -0.04761342 -0.006798975 -0.04072726 -0.03441424 -0.0059252214
-0.020477945 0.004872693 -0.031355318 0.023505183 0.009100653 -0.034995545 0.055224694 0.023380667
-0.00063730025 0.055362266 -0.049921557 0.049890164 0.05071708 -0.008903752 0.0027323796 -0.08031812
0.054257914 0.018789949 -0.036402807 0.017931804 -0.0073797037 -0.06994575 0.020619337 -0.04491843
-0.05149921 -0.040569067 -0.03302897 -0.04642359 0.032598123 0.049110256 0.036681645 -0.072709985
-0.02284535 -0.013487639 0.001316511 0.003222005 -0.015224304 -0.06613777 -0.055475954 0.050577104
-0.045518853 0.003936817 -0.020968545 -0.036147214 -0.07261154 0.020942502 0.005120516 0.020456765
-0.07604565 -0.028978605 -0.020076267 -0.08291375 0.018117253 -0.0508964 0.010333623 0.03969661
0.05028736 0.027128845 0.0026541464 0.0022931038 -0.082722455 -0.041539386 -0.029827854 -0.056715436
-0.0074549927 -0.045295015 -0.03895798 -0.01934853 0.00073230267 0.04872732 0.012352899 0.030577146
-0.061088935 -0.0072930483 0.02675017 0.02203662 0.002905605 -0.0069357865 0.01129812 -0.03573531
-0.030064706 0.008668551 -0.02273482 0.03784418 0.002834311 -0.019820452 0.037028592 -0.056007333
-0.014781814 0.04573462 -0.0011654701 -0.017924964 0.023713104 -0.023695145 0.03262465 -0.039439708
0.025927044 -0.020381555 0.019741785 -0.024106381 0.052865982 -0.060478102 -0.0011564419 -0.0057035275
0.024458352 -0.0041835452 0.0055820793 -0.012395777 -0.005198263 0.011029147 0.05609852 -0.030507727
-0.05797785 0.03310944 0.010210805 -0.061732113 -0.055586897 -0.05419187 -0.020075822 0.017891869
0.0083276555 -0.045089632 0.029486984 -0.022348389 -0.048882715 -0.048136063 -0.012018408 0.022921711
-0.036139045 0.02204008 -0.060365703 -0.02539915 0.0009866062 -0.07062486 -0.04760572 0.00030472077
0.012743294 0.034386735 0.033339128 0.034831956 0.018645234 0.0034920424 0.019424919 -0.05989838
-0.0402432 -0.031277448 -0.055419996 -0.0032915852 0.019941643 0.030289095 0.00055520626 -0.00735702
-0.07011888 -0.0013840215 0.034148872 0.026320446 0.0035474272 -0.0053510442 -0.047536362 0.05275189
-0.05331788 0.017102629 0.0151583245 0.017025016 0.03655052 -0.039925136 -0.044401426 -0.052591022
0.019265948 -0.03317283 -0.019385925 -0.00024387141 -0.03800317 -0.012516258 -0.032575093 -0.051323414
0.03998059 -0.05630506 -0.013107138 -0.07454901 -0.04374883 -0.006402754 -0.034503493 -0.025408108
0.034481525 0.04774315 0.00040561077 -0.008082345 -0.07955665 -0.041152388 -0.017586697 -0.0071841017
0.04132086 -0.03420047 -0.063643135 0.010989973 -0.010608367 -0.030048624 -0.010982105 -0.061027393
0.029620238 -0.039628286 -0.055593513 -0.052518845 0.006666459 -0.07690359 -0.06279226 -0.05356478
-0.00042058527 0.055397645 -0.022856047 0.029783852 -0.0850493 -0.02411956 0.039807543 -0.00975161
-0.023975346 -0.02743246 0.04555638 -0.054276317 -0.08090604 -0.00940242 -0.029279716 0.051654756
-0.07543598 -0.025207538 -0.017254103 -0.08024341 -0.059606414 -0.052909605 0.041132152 -0.07749825
00000000: a91d fbbc 89c9 893c e6c1 353c d7a0 86bd
00000010: 6e42 68bd 772c 2ebd 1882 dabc 1afd 61bd
00000020: e848 bf3c 605d dc3a 1852 1cbb 841d 62bd
00000030: c578 edbc d6b2 f83c 03f7 d83c 3ecb 4cbd
00000040: 806d 02bd a81e 013c a20c 15bd 4a06 43bd
00000050: f0c9 debb a1d1 26bd f2f5 0cbd 5c28 c2bb
00000060: 5dc1 a7bc 1dab 9f3b 6f6e 00bd f18d c03c
00000070: e81a 153c 7d57 0fbd 4a33 623d d088 bf3c
00000080: 7f10 27ba 8bc3 623d 8c7a 4cbd a159 4c3d
00000090: b6bc 4f3d 0be1 11bc b911 333b d47d a4bd
000000a0: 8c3d 5e3d 61ed 993c 1c1b 15bd b8e5 923c
000000b0: 71d1 f1bb b83f 8fbd e2e9 a83c 63fc 37bd
000000c0: d6f0 52bd c02b 26bd 6349 07bd aa26 3ebd
000000d0: 9c85 053d d627 493d 7e3f 163d f9e8 94bd
000000e0: 2c26 bbbc 42fb 5cbc c78e ac3a 4628 533b
000000f0: 5c6f 79bc 3d73 87bd c13a 63bd f029 4f3d
00000100: fa71 3abd 6a00 813b 3ac6 abbc 1a0f 14bd
00000110: 5cb5 94bd 9c8f ab3c 00ca a73b f294 a73c
00000120: d2bd 9bbd 8a64 edbc fc76 a4bc afce a9bd
00000130: a26a 943c be78 50bd 5b4e 293c ea98 223d
00000140: 1efa 4d3d 503d de3c 30f1 2d3b e647 163b
00000150: 646a a9bd 3425 2abd 8b59 f4bc 724e 68bd
00000160: 0349 f4bb 4487 39bd 6792 1fbd cf80 9ebc
00000170: 00f8 3f3a 4c96 473d d063 4a3c ec7c fa3c
00000180: 6438 7abd 86fa eebb 2c23 db3c 2486 b43c
00000190: f66b 3e3b 9845 e3bb c01b 393c 305f 12bd
000001a0: 424a f6bc 8a06 0e3c 603e babc 8002 1b3d
000001b0: d9bf 393b 805e a2bc 4bab 173d f267 65bd
000001c0: 6c2f 72bc 3a54 3b3d b0c2 98ba 60d7 92bc
000001d0: fc41 c23c 521c c2bc 6da1 053d 888b 21bd
000001e0: f464 d43c 38f7 a6bc 86b9 a13c bf7a c5bc
000001f0: 008a 583d e3b7 77bd c093 97ba a8e4 babb
00000200: e25c c83c 1f16 89bb e0e9 b63b a817 4bbc
00000210: 3156 aabb 98b3 343c 90c7 653d 57eb f9bc
00000220: 2f7a 6dbd c49d 073d 384b 273c d0da 7cbd
00000230: 16af 63bd 4bf8 5dbd 0d76 a4bc f891 923c
00000240: b870 083c e8af 38bd b08e f13c f813 b7bc
00000250: 3e39 48bd 522a 45bd dbe8 44bc 50c6 bb3c
00000260: 8906 14bd 668d b43c 0742 77bd e111 d0bc
00000270: 0351 813a c4a3 90bd 37fe 42bd eec2 9f39
00000280: 40c9 503c 1bd9 0c3d 9c8e 083d f4ab 0e3d
00000290: e4bd 983c c0da 643b 0221 9f3c 0158 75bd
000002a0: 0ed6 24bd c81c 00bd 1400 63bd a3b7 57bb
000002b0: a85c a33c d620 f83c 438b 113a 2813 f1bb
000002c0: 7d9a 8fbd 0e68 b5ba b0df 0b3d fa9d d73c
000002d0: f47b 683b d057 afbb 7db5 42bd 5e12 583d
000002e0: d963 5abd d01a 8c3c 9f5a 783c 0c78 8b3c
000002f0: 00b6 153d 8a88 23bd 45de 35bd af69 57bd
00000300: 9fd3 9d3c 3ce0 07bd 3bcf 9ebc bcb7 7fb9
00000310: 36a9 1bbd fe10 4dbc 766d 05bd 8038 52bd
00000320: b0c2 233d 22a0 66bd 52bf 56bc 27ad 98bd
00000330: f931 33bd 32ce d1bb 8953 0dbd aa24 d0bc
00000340: 803c 0d3d 528e 433d 28a8 d439 d06b 04bc
00000350: 99ee a2bd 688f 28bd fa11 90bc 9d68 ebbb
00000360: 1040 293d cb15 0cbd 5557 82bd 4a0f 343c
00000370: b7ce 2dbc 8828 f6bc 49ee 33bc dcf7 79bd
00000380: 24a6 f23c 4551 22bd 06b6 63bd 001e 57bd
00000390: 5072 da3b a17f 9dbd 3a99 80bd be66 5bbd
000003a0: 0082 dcb9 a4e8 623d 9b3c bbbc 44fd f33c
000003b0: 542e aebd 6296 c5bc 3c0d 233d 38c5 1fbc
000003c0: f267 c4bc 0aba e0bc 5499 3a3d d850 5ebd
000003d0: 11b2 a5bd 9c0c 1abc 04dc efbc f093 533d
000003e0: 2e7e 9abd 0a80 cebc 7a58 8dbc a856 a4bd
000003f0: db25 74bd beb7 58bd 307a 283d 67b7 9ebd

fca1.bias f4 [300]
-0.04930556 -0.036351588 -0.02379316 0.03572712 0.040538386 0.006932045 -0.023000278 0.051156018
0.032636303 -0.014525757 0.039971925 0.049731404 -0.056892015 -0.011253933 0.055135034 -0.0060625686
0.018727038 -0.0442126 0.027960474 0.03893165 -0.044679947 0.054178067 -0.037935913 0.019082114
-0.031554118 -0.0050379485 0.068101004 -0.034495812 -0.011466126 -0.040975172 0.02397773 -0.010096075
0.07870501 -0.05894906 0.040945176 -0.012525626 0.004473993 -0.008506928 0.029878862 -0.04965768
0.05312029 -0.057634547 -0.039970767 0.013807182 0.020721568 -0.027466124 -0.0020858257 0.11036658
-0.042069748 -0.005556439 -0.050172802 -0.018261336 0.036346022 0.084893554 -0.01713616 0.021976167
-0.05423534 -0.008781098 0.2936501 0.005836636 -0.038791314 0.043307126 0.050285783 -0.01493698
-0.05305981 -0.01397115 -0.053254526 0.050306085 -0.047956694 0.039622705 0.013512887 -0.030618042
0.01178033 0.04005108 0.015247271 0.0039786194 0.059097137 -0.02580089 -0.0104370015 0.011886675
0.04228984 0.042027526 -0.002783157 -0.007857422 0.07182509 0.0025160387 0.008484383 -0.045398835
0.034898072 0.050327007 0.07883382 -0.0050491844 -0.010355071 -0.028734429 0.013617939 0.045019433
0.072218485 0.030677753 0.022786172 -0.064428896 -0.0004170069 0.02945648 0.052503057 0.004396981
0.002079349 -0.047523588 0.033598755 -0.012577671 0.0061271093 -0.06656506 -0.025822004 -0.045305993
-0.0458049 0.019652776 0.05108188 0.011834092 0.06175843 0.036297873 -0.01365766 -0.037246954
-0.055090256 0.039708916 -0.028731845 -0.04276149 -0.010527406 0.03359211 0.1533655 -0.037233893
0.023695946 -0.054793347 -0.0151337385 0.029105913 0.08329785 0.06450087 -0.04339461 -0.0034089065
-0.0048165703 -0.0414952 -0.013015866 0.00834077 0.0460342 0.035843737 0.057822995 -0.050585914
-0.020255182 0.00486098 -0.010735614 0.038063537 0.008556926 -0.009502751 0.045333646 0.043005094
0.03095079 0.0045893053 0.00039934737 -0.047541693 -0.056843363 0.00075116014 -0.029292848 -0.03808674
-0.009668894 0.051429022 -0.03848098 0.056288477 0.0045588426 0.012936799 0.019010676 -0.039479543
-0.0065372325 0.0055917385 -0.032591715 0.03448933 -0.052734904 -0.030509003 0.08156683 -0.02960753
-0.0045264424 -0.039872065 -0.049394432 -0.044601858 0.011963459 -0.026163075 0.021400005 -0.12866636
0.00953614 0.034676395 -0.032305963 0.3008499 0.026214072 -0.04274857 0.0028851794 -0.007211137
-0.055589337 0.014238314 -0.074656226 0.055377882 -0.012950282 0.010539099 0.043071937 0.018584056
0.059091616 -0.043762814 0.031712733 0.02614163 -0.03853537 0.017870415 -0.080497846 0.010263307
-0.038906127 -0.005592978 -0.063517466 -0.022787467 -0.070865124 0.13494559 0.03716797 -0.06514115
0.09993475 0.018240467 0.038209032 -0.026803453 0.031644024 0.22050472 -0.04425981 -0.06837426
0.005974333 -0.038612694 0.016498672 0.060399372 -0.013589568 0.07579124 0.018522793 -0.055516075
-0.041698165 -0.010061067 -0.008930456 0.018112717 -0.043508057 -0.008537611 -0.020101964 0.005038499
0.03542361 -0.00353606 0.008326276 -0.023015296 -0.06012409 -0.028593987 -0.033399295 -0.05745403
0.046040416 -0.018153358 0.03789152 0.027415734 -0.06841018 0.02963795 -0.06462982 0.061189875
00000000: a0f4 49bd 67e5 14bd e0e9 c2bc 9a56 123d
00000010: 940b 263d 3526 e33b 146b bcbc f988 513d
00000020: a5ad 053d 71fd 6dbc 9ab9 233d 28b3 4b3d
00000030: 9a07 69bd 6b62 38bc 46d5 613d 83a8 c6bb
00000040: 7269 993c 4518 35bd 5d0d e53c cb76 1f3d
00000050: 5202 37bd d2e9 5d3d b062 1bbd 1852 9c3c
00000060: e43e 01bd 6015 a5bb 8a78 8b3d 7b4b 0dbd
00000070: 6bdc 3bbc 95d5 27bd f26c c43c 026a 25bc
00000080: 1830 a13d 9274 71bd 21b6 273d 4938 4dbc
00000090: 939a 923b a460 0bbc 84c4 f43c da65 4bbd
000000a0: a994 593d 3412 6cbd 63b8 23bd 8537 623c
000000b0: 47c0 a93c a300 e1bc 59b2 08bb e007 e23d
000000c0: 5451 2cbd ca12 b6bb ff81 4dbd cc98 95bc
000000d0: 91df 143d acdc ad3d 2261 8cbc 5d07 b43c
000000e0: e025 5ebd 98de 0fbc 4e59 963e 4041 bf3b
000000f0: a4e3 1ebd d062 313d 77f8 4d3d 3cba 74bc
00000100: 3e55 59bd 40e7 64bc 6b21 5abd c10d 4e3d
00000110: 3d6e 44bd 6b4b 223d 2865 5d3c b0d2 fabc
00000120: 4902 413c 9a0c 243d b1cf 793c 145f 823b
00000130: d70f 723d 635c d3bc f5ff 2abc 54c0 423c
00000140: 1c38 2d3d 0e25 2c3d a065 36bb 6bbc 00bc
00000150: 0819 933d 20e4 243b 1502 0b3c 21f4 39bd
00000160: 48f1 0e3d b123 4e3d a073 a13d a173 a5bb
00000170: 51a8 29bc 7764 ebbc c71d 5f3c 4c66 383d
00000180: 49e7 933d e94f fb3c 11aa ba3c 4cf3 83bd
00000190: b8a1 dab9 b74e f13c 720d 573d 8d14 903b
000001a0: b045 083b 18a8 42bd d99e 093d 9312 4ebc
000001b0: ebc5 c83b 4353 88bd ab88 d3bc c792 39bd
000001c0: eb9d 3bbd dcfe a03c 3c3b 513d c8e3 413c
000001d0: 68f6 7c3d 14ad 143d 61c4 5fbc 4390 18bd
000001e0: 52a6 61bd d1a5 223d 0c5f ebbc ac26 2fbd
000001f0: 247b 2cbc e197 093d d80b 1d3e 9182 18bd
00000200: 001e c23c fd6e 60bd 80f3 77bc 866f ee3c
00000210: 1098 aa3d 0819 843d 8cbe 31bd f667 5fbb
00000220: 52d4 9dbb dff6 29bd 8040 55bc baa7 083c
00000230: 5b8e 3c3d e2d0 123d ced7 6c3d 2d33 4fbd
00000240: 32ee a5bc db48 9f3b 6ee4 2fbc 83e8 1b3d
00000250: 5932 0c3c 6db1 1bbc c6af 393d 1c26 303d
00000260: 838c fd3c e261 963b 7f5f d139 14bb 42bd
00000270: 96d4 68bd 81e9 443a 8ef7 efbc d700 1cbd
00000280: 486a 1ebc 3da7 523d 3b9e 1dbd bf8e 663d
00000290: 5862 953b def4 533c 47bc 9b3c 4db5 21bd
000002a0: 4836 d6bb e73a b73b e47e 05bd af44 0d3d
000002b0: 8e00 58bd 04ee f9bc 830c a73d 7e8b f2bc
000002c0: 8d52 94bb e450 23bd d151 4abd 70b0 36bd
000002d0: 6202 443c f253 d6bc 104f af3c 1dc1 03be
000002e0: 783d 1c3c d608 0e3d 4253 04bd 0009 9a3e
000002f0: e5be d63c 2019 2fbd 4715 3d3b 674b ecbb
00000300: a5b1 63bd d147 693c 5de5 98bd ebd3 623d
00000310: 6b2d 54bc 2fac 2c3c 336c 303d 973d 983c
00000320: 0d0a 723d a340 33bd 36e5 013d f926 d63c
00000330: 44d7 1dbd fa64 923c 0edc a4bd 6e27 283c
00000340: 085c 1fbd 4d45 b7bb 7215 82bd c8ac babc
00000350: bc21 91bd 2d2f 0a3e 713d 183d b968 85bd
00000360: 97aa cc3d 086d 953c 1381 1c3d ea92 dbbc
00000370: 2a9d 013d fdcb 613e c649 35bd ce07 8cbd
00000380: 56c4 c33b 5828 1ebd 3928 873c 5565 773d
00000390: c8a6 5ebc 7038 9b3d 1dbd 973c d364 63bd
000003a0: b2cb 2abd 2cd7 24bc 0c51 12bc 1f61 943c
000003b0: 8135 32bd 56e1 0bbc e0ac a4bc fe19 a53b
000003c0: 5918 113d 3ebd 67bb ef6a 083c 938a bcbc
000003d0: ae44 76bd f03d eabc b3cd 08bd eb54 6bbd
000003e0: e094 3c3d 5ab6 94bc 2334 1b3d f696 e03c
000003f0: a31a 8cbd 49cb f23c a45c 84bd 3ca2 7a3d

fca2.weight f4 [1, 300]
0.00266561 -0.005143918 -0.5110083 3.8351864e-06 -0.0059590796 -0.25337654 -0.0039963843 -0.28053135
-0.33947897 -0.30590707 -0.31239623 -0.0056459834 0.023583757 -0.0002624181 -0.30558246 -0.33773196
-0.3367972 -0.005050489 0.0032571503 -0.0046136784 -0.0036313122 -0.29824615 -0.21455808 -0.006167271
-0.24497409 -0.25535673 -0.25027046 0.015083157 -0.006059792 -0.3062164 -0.4186397 -0.4939759
-0.30918851 -0.39675382 -0.005313992 -0.48569402 -0.005760771 -0.25244436 -0.23262814 -0.5458679
-0.3608545 -0.0022081854 -0.27153832 -0.23678611 -0.5232948 -0.005679848 -0.34491053 0.19721378
-0.3072288 -0.3348206 -0.0023129117 0.0032412182 -0.5471462 -0.20628668 -0.33631828 -0.18879543
-0.006127483 0.00053182116 0.7829119 -0.00036176387 0.0026435312 -0.28184074 -0.25755888 -0.0016362709
-0.0062392494 -0.019642778 -0.00029971456 -0.30504316 -0.27231988 -0.24770972 -0.5554338 -0.006990032
-0.2853514 -0.27562195 -0.26206648 -0.33292174 -0.68101025 -0.23553503 0.002610289 -0.2311758
-0.0040162737 -0.26810268 -0.30395278 -0.2610802 -0.2449534 -0.60677326 -0.25567958 -0.0030564799
-0.36845338 -0.4691711 -0.42552876 -0.3089741 -0.27224687 -0.2799572 -0.3921065 0.00011138544
-0.29168296 -0.32628372 -0.0063985074 -0.0028027853 -0.31179255 -0.3080985 -0.0006184655 0.010295706
0.0013805353 -0.22614057 -0.0061489595 -0.32158384 -0.2734528 -0.020333828 -0.29203862 -0.0027656564
-0.0047186245 -0.49282473 -0.28200474 -0.54932576 -0.26619035 -0.37977418 -0.005592733 -0.0038266217
-0.024913507 -0.0053336015 -0.27391443 -0.004678607 -0.21058322 -0.2528929 0.19469608 -0.2952854
0.0040823864 -0.325591 0.0016969163 0.0047843205 -0.33607945 -0.2951678 -0.26872125 -0.2451303
-0.2019971 -0.3202509 -0.0070232637 -0.007915511 -0.34941518 -0.23357558 -0.30720827 0.004970998
-0.0013636485 -0.40528327 0.028745776 -0.28444347 -0.3121944 -0.3700563 -0.35355434 -0.42295977
-0.25930452 -0.26896843 -0.0044250037 0.0016193874 0.00048039225 0.016473683 -0.2626593 -0.004740318
0.024671638 -0.27539852 -0.0036906854 -0.3608104 0.0086116055 -0.29289535 -0.3077831 -0.38414657
-0.23913848 0.017568348 -0.29845297 -0.32873097 -0.2793375 -0.24702714 -0.28059196 -0.23351935
-0.010280946 -0.0040675285 -7.358147e-06 -0.24748859 -0.0035231458 -0.0032457458 -0.25030613 1.5600367
-0.29078418 -0.2854395 -0.3216632 0.7687779 -0.25056028 -0.004200101 -0.30231482 -0.43818256
-0.0021455488 -0.0063656503 0.016129784 -0.30375087 -0.31936178 -0.45381436 -0.2670293 -0.005867031
-0.39877948 -0.27959603 -0.25136605 0.018594975 0.019082114 -0.30570582 0.016326735 -0.32599804
-0.19429055 0.0039394763 -0.6794034 -0.0126319695 0.02244827 -0.35052866 -0.28007025 -0.0015041272
-0.39907616 -0.266813 0.0047501456 -0.0042116204 -0.008739231 0.25181046 -0.019858038 0.025810936
-0.35951787 -0.00431522 0.022997444 -0.2751199 -0.0007624802 -0.23760597 0.0077962657 0.0058386833
0.0024734228 -0.21940497 -0.012912489 -0.0056186263 -0.4715562 -0.22427297 -0.006853054 -0.30487826
-0.26697394 -0.1993534 -0.38754755 -0.3705081 0.005513138 -0.0023482873 -0.4132074 -0.025398426
-0.31200066 -0.004451163 -0.26649028 -0.23621163 -0.004100631 -0.2761022 -0.6321455 -0.76745397
00000000: 84b1 2e3b 508e a8bb 71d1 02bf 00b0 8036
00000010: 6244 c3bb 92ba 81be 1af4 82bb cea1 8fbe
00000020: 30d0 adbe da9f 9cbe 66f2 9fbe f101 b9bb
00000030: b932 c13c 2995 89b9 4e75 9cbe 34eb acbe
00000040: af70 acbe 937e a5bb ea75 553b 572e 97bb
00000050: 4ffb 6dbb b8b3 98be 1db5 5bbe d216 cabb
00000060: 7dda 7abe 1ebe 82be 7323 80be 591f 773c
00000070: 3891 c6bb 65c8 9cbe f157 d6be 69ea fcbe
00000080: f54d 9ebe 5123 cbbe ff20 aebb e3ac f8be
00000090: dac4 bcbb 6340 81be 1236 6ebe 00be 0bbf
000000a0: ecc1 b8be 34b7 10bb 1207 8bbe 0f78 72be
000000b0: a6f6 05bf 051e babb 1d98 b0be 69f2 493e
000000c0: 184d 9dbe 9b6d abbe 3894 17bb 9e6a 543b
000000d0: c611 0cbf d13c 53be e931 acbe 9753 41be
000000e0: 0ec9 c8bb ea69 0b3a ea6c 483f 20ab bdb9
000000f0: 183f 2d3b 6e4d 90be c2de 83be 2478 d6ba
00000100: 9e72 ccbb e4e9 a0bc 0223 9db9 9e2e 9cbe
00000110: 836d 8bbe 9ea7 7dbe e930 0ebf a30c e5bb
00000120: 9419 92be 521e 8dbe 942d 86be b874 aabe
00000130: b056 2ebf 1830 71be 6211 2b3b 59b9 6cbe
00000140: f29a 83bb c144 89be b39f 9bbe 4eac 85be
00000150: 10d5 7abe 7e55 1bbf 6fe8 82be 394f 48bb
00000160: eca5 bcbe 3237 f0be e8de d9be da31 9ebe
00000170: f163 8bbe 8d56 8fbe 2fc2 c8be 9a97 e938
00000180: 7857 95be a90e a7be 92aa d1bb efae 37bb
00000190: 46a3 9fbe 16bf 9dbe 8420 22ba 52af 283c
000001a0: 14f3 b43a 6591 67be 367d c9bb a3a6 a4be
000001b0: 0102 8cbe 2193 a6bc 1686 95be 0440 35bb
000001c0: b19e 9abb 8653 fcbe ed62 90be 9da0 0cbf
000001d0: 1a4a 88be c371 c2be 3f43 b7bb 0fc8 7abb
000001e0: 6917 ccbc 7ec5 aebb 833e 8cbe 004f 99bb
000001f0: 21a3 57be 2e7b 81be 695e 473e a62f 97be
00000200: 8ac5 853b ddb3 a6be 106b de3a cac5 9c3b
00000210: 9b12 acbe 3c20 97be d595 89be 7003 7bbe
00000220: 54d8 4ebe edf7 a3be 6823 e6bb 0fb0 01bc
00000230: 8ce6 b2be 702e 6fbe 674a 9dbe c1e3 a23b
00000240: 73bc b2ba 4a81 cfbe 437c eb3c 93a2 91be
00000250: f2d7 9fbe 0578 bdbe 1305 b5be 2f8e d8be
00000260: 90c3 84be 3bb6 89be 9fff 90bb a041 d43a
00000270: 28dd fb39 d1f3 863c 487b 86be ab54 9bbb
00000280: 2d1c ca3c 0901 8dbe 6ddf 71bb 24bc b8be
00000290: b117 0d3c 61f6 95be bf95 9dbe dcae c4be
000002a0: b8e0 74be 7feb 8f3c d4ce 98be 6d4f a8be
000002b0: 5305 8fbe aff4 7cbe c0a9 8fbe b21f 6fbe
000002c0: 6a71 28bc e748 85bb 00e6 f6b6 a66d 7dbe
000002d0: 94e4 66bb 94b6 54bb 2028 80be 48af c73f
000002e0: aae1 94be 2025 92be 0ab1 a4be a1ce 443f
000002f0: 7049 80be 00a1 89bb 02c9 9abe 7759 e0be
00000300: 569c 0cbb f296 d0bb 9c22 843c 3c85 9bbe
00000310: 6383 a3be 5b5a e8be 10b8 88be 3940 c0bb
00000320: d32c ccbe 3627 8fbe 0db3 80be 7d54 983c
00000330: 1852 9c3c 7985 9cbe a5bf 853c 37e9 a6be
00000340: 1af4 46be b916 813b 62ed 2dbf 52f6 4ebc
00000350: 6fe5 b73c 7e78 b3be 5e65 8fbe 2226 c5ba
00000360: b653 ccbe b79b 88be 1ca7 9b3b a201 8abb
00000370: fe2e 0fbc 4ded 803e 53ad a2bc 7571 d33c
00000380: ba12 b8be b066 8dbb 2365 bc3c 84dc 8cbe
00000390: 2ee1 47ba fb4e 73be d177 ff3b 6d52 bf3b
000003a0: 2619 223b b2ab 60be e78e 53bc 741c b8bb
000003b0: d06f f1be d0a7 65be 958f e0bb 0119 9cbe
000003c0: cfb0 88be 4c23 4cbe a26c c6be 3db3 bdbe
000003d0: 8ea7 b43b b9e5 19bb ec8f d3be 5c10 d0bc
000003e0: 8dbe 9fbe 10db 91bb 6a71 88be 76e1 71be
000003f0: 965e 86bb 445d 8dbe 4ad4 21bf dd77 44bf
