src/Models/stage_2/380_critic.pt (torch_old, 374310 bytes, 7 tensors)

fc1.weight f4 [150, 14]
000000 4f 56 84 3c 9f 67 83 3d e9 39 aa 3d 7a ad 33 3e
       0.016154436 0.064162485 0.08311827 0.17546645
000010 7e 89 74 3c 8b de 2a be 67 36 3b bc 63 f0 c1 3d
       0.014925359 -0.16686456 -0.011426545 0.09469678
000020 8a f5 d6 3d d0 42 26 3c c1 4f f7 3e a3 42 89 3e
       0.104960516 0.010147765 0.48303035 0.26808652
000030 34 1d 48 3e 9c 0d 72 3c 6a ba fa 3d 38 9e fd bd
       0.1954239 0.014773753 0.12242587 -0.123836935
000040 6b 92 75 3e 93 32 01 bd 97 79 87 be ab c7 1d bf
       0.23981635 -0.031542372 -0.26459953 -0.61632794
000050 06 ef bb 3c 8d f4 65 3d 5c 9b 91 be 98 e1 14 3e
       0.022941124 0.056141425 -0.28438842 0.14539182
000060 4c af 33 3f 1c 83 57 3d 45 82 9d 3d bc 0c 8c 3d
       0.70189357 0.05261527 0.076908626 0.068383664
000070 fc 8f 86 bd 65 99 49 3d 21 ae 21 3e 45 d4 82 3d
       -0.065704316 0.049218554 0.15789081 0.063881435
000080 d9 3d 2a 3e e6 c4 ae bd 09 1a 02 ba 8c fb 7d bc
       0.16625156 -0.08533649 -0.0004962986 -0.015501868
000090 76 1d cf 3d c7 3d 27 bd d7 8f aa 3d 35 f5 01 bd
       0.10113041 -0.0408304 0.083282165 -0.03172799
0000a0 1a 11 b0 3e 46 81 2b be 37 86 13 3c 4b 4d 00 3e
       0.34388047 -0.16748533 0.009004167 0.12529485
0000b0 e9 c5 8a 3d ea d0 bd 3d 61 c4 0d bd 73 54 a2 bd
       0.067760296 0.09268363 -0.03461111 -0.07926264
0000c0 0f c8 02 b9 e2 96 ae be 23 8a 19 3d 33 a5 42 bd
       -0.00012472294 -0.3409949 0.037485253 -0.047520828
0000d0 13 b3 d1 3e 5f bd 09 be b8 3c be bd c2 ca 11 3d
       0.40956935 -0.13451146 -0.09288925 0.035593756
0000e0 d8 9b df bd b7 e6 53 bb 89 0f 64 ba 18 fc d8 bc
       -0.10918397 -0.0032333562 -0.00086998247 -0.026487395
0000f0 72 e3 15 3d 58 ac 58 3d d7 3e 93 bd 73 00 e0 3d
       0.036593862 0.052898735 -0.0718972 0.10937586
000100 8e 53 04 be fc 89 49 bd a5 13 72 3f 6e fc 81 3d
       -0.12922499 -0.049203858 0.94561225 0.06346975
000110 11 c3 db be c5 6a dc bd df 9a 64 bd 9b 02 f9 3d
       -0.4292226 -0.10762552 -0.05581176 0.121587
000120 b9 63 27 3d 81 d7 53 3d 2c 75 cf bd 07 5b c7 39
       0.040866587 0.051719192 -0.10129771 0.00038024058
000130 c4 b3 14 3d e9 4a 01 bd 21 86 ae 3d 4f 37 88 3d
       0.03630425 -0.03156558 0.08521677 0.06651174
000140 7b c3 e9 3e 42 9c 97 be 7d ac 02 3e 72 56 f5 3d
       0.45656952 -0.29611403 0.12761112 0.11979379
000150 81 30 7e bd bf 02 8b 3d 2d ec 75 3d 8b b8 0e be
       -0.062057976 0.06787633 0.060039688 -0.13937585
000160 1d e6 54 3d 30 e2 2e bd 0a fd a7 bc 12 61 9b bd
       0.051977266 -0.042696178 -0.0205064 -0.07586874
000170 f6 d0 69 bd c6 e8 70 bd 10 c0 30 bf 79 bf 9d bd
       -0.057084046 -0.05881574 -0.69043064 -0.07702536
000180 44 31 12 3f 8b 5c 58 be 6a d5 f1 bc c0 5a 94 bc
       0.57106423 -0.21129052 -0.029520709 -0.01810968
000190 00 43 06 bd 73 cb 21 bd 09 cc 09 3e d3 f2 12 3e
       -0.03277874 -0.039500665 0.1345674 0.14350443
0001a0 56 2d 52 be f2 96 2d 3e f2 26 42 3d 95 b8 ac bd
       -0.20525107 0.16952112 0.047400422 -0.08433644
0001b0 aa b2 82 3e 20 2d 0b bf 90 f2 c6 bd 50 14 1e bd
       0.25526935 -0.5436573 -0.09714234 -0.03859359
0001c0 33 ed 16 bd 9f 76 c8 3c 32 e4 d3 bd 13 55 08 bc
       -0.036847305 0.024470625 -0.10346259 -0.0083210645
0001d0 87 c9 b8 3d cb 61 c2 bd e8 fb 20 be f4 2a 3a be
       0.09022813 -0.09491309 -0.15721095 -0.18180448
0001e0 4f 70 32 bc 75 5f cc 3b ea fb 3f 3f c0 a8 6f 3d
       -0.010891034 0.0062369653 0.74993765 0.058510542
0001f0 77 94 98 be 9d 7f 9c bd ce fc a5 bd c0 b1 eb bc
       -0.2980077 -0.07641528 -0.08104859 -0.028771281
000200 78 26 af 3c b0 d8 dd bc 90 3f 50 3d 27 10 4a bd
       0.021380648 -0.027080864 0.050841868 -0.04933181
000210 34 33 3c 3d 0c c5 b2 bc 01 81 81 bd ad 7f 07 bd
       0.04594727 -0.021822475 -0.06323434 -0.033080745
000220 f8 38 e7 3c 20 1a 3f 3d 6c f0 48 3d c7 b7 10 bd
       0.028225407 0.046655774 0.04905741 -0.035331514
000230 ce 91 ff 3c db 06 cd 3c e2 43 95 bd 7f 32 2a 3d
       0.031197455 0.025027683 -0.07288338 0.041552063
000240 37 89 25 3d ae bf 27 3e ef c1 82 3d d9 47 3a 3e
       0.04041406 0.16381714 0.06384646 0.1819147
000250 ec be 2b 3d 88 09 18 bd a2 d4 28 3e 0e 74 ee bc
       0.041930124 -0.037118465 0.16487363 -0.029108074
000260 96 16 34 be d6 10 2a be 60 51 8e 3d dc ad 0a 3d
       -0.17586741 -0.16607985 0.06949115 0.03385721
000270 81 22 a5 3c ed 50 54 3e 45 9d be 3d be 30 db bb
       0.020158054 0.20733996 0.093073405 -0.00668916
000280 02 18 60 3c b5 ac 8a b9 c1 72 f6 bd 3f 28 aa bd
       0.013677599 -0.00026450088 -0.12033606 -0.083084576
000290 26 ed 25 3e fb bc c6 bd 0b 1f 14 bd ff f5 56 3d
       0.16203746 -0.09704014 -0.036162417 0.052480694
0002a0 85 d8 7e 3d 3c e8 39 3d ed df cf 3c 5a ae cd 3c
       0.062218208 0.04538749 0.02537533 0.025107551
0002b0 bf ff ff 3b 2b ff 9b bd 17 cd 19 bd 57 d8 04 be
       0.0078124697 -0.07617029 -0.037549105 -0.12973152
0002c0 60 1a 01 3d da 18 9b 3c d5 fa 60 3e 7b 2c 96 3d
       0.031519294 0.018932749 0.21970685 0.07332703
0002d0 12 99 e6 3a d1 ba e6 38 ef a3 2c 3b 81 a7 db 3b
       0.0017593226 0.00011002052 0.002634283 0.0067033176
0002e0 f0 b0 a7 3d a1 97 c6 3d 1d 37 ab 3d 94 75 8d 3d
       0.08188045 0.0969689 0.083601214 0.06907192
0002f0 6c 0a 3f bd d2 0d 31 3d 71 f6 a3 bd f4 08 d0 bd
       -0.0466408 0.04322607 -0.08005989 -0.10157958
000300 ad 36 1b 3c 0f 46 83 bd d0 51 e3 3e 67 30 92 3b
       0.009473485 -0.06409847 0.44398355 0.0044613364
000310 4c 99 38 be fa c5 4e be 66 48 77 be 97 fa 15 bd
       -0.18027228 -0.2019271 -0.24148712 -0.036615934
000320 3d 8d 68 be a0 27 ad 3c 68 74 a0 bc 87 74 b3 3d
       -0.22710128 0.021137059 -0.019586757 0.0876246
000330 f9 ed d6 3d 88 3f 43 3c f1 af 43 3f 12 55 60 3e
       0.104946084 0.0119170025 0.7644034 0.21907452
000340 20 e9 c0 3e ef 42 d8 bd 2e 44 1a 3e cc 8e c8 bc
       0.3767786 -0.105596416 0.15065071 -0.024482153
000350 1f a5 1d 3d 05 a9 7f 3d 42 27 49 3c 8e 09 9e bd
       0.03848755 0.06241705 0.012277426 -0.07716666
000360 09 7f 0f 3e be 73 d3 3d ed ee 81 bb df 4c 2d 3d
       0.14013304 0.103248104 -0.0039652498 0.042309638
000370 7b be 5d bc 3f a1 c9 3d a4 00 21 bf e8 14 01 3e
       -0.013534184 0.098452084 -0.628916 0.12605631
000380 1f a3 32 3b 5b 06 92 bc 31 b6 37 3d 66 11 ac bd
       0.0027257872 -0.017825296 0.044851486 -0.08401756
000390 34 d3 16 3d 9b 70 8c bc 40 45 3c 3d 6f d5 72 bd
       0.036822513 -0.017143538 0.04596448 -0.059285577
0003a0 50 e8 a4 bd 0b 63 88 bc 47 70 f1 bc 0e ab 89 3d
       -0.080521226 -0.01664879 -0.029472483 0.06722079
0003b0 9d 9c 9d 3c 19 3d 5a bd 47 53 09 3e 03 a8 01 3e
       0.019239718 -0.053280924 0.13410674 0.12661748
0003c0 d7 15 90 bc 4d 61 a5 3d a7 92 51 bc 67 b2 86 bd
       -0.017588539 0.08075199 -0.012791312 -0.06576996
0003d0 73 b9 ae 3c 61 8e d2 3c 9c f0 92 3d e0 d3 fa 3c
       0.021328663 0.025702657 0.07174799 0.030618608
0003e0 b9 0a 1d be 1e 38 52 3d b9 e9 89 3e 48 6f e1 3d
       -0.15336122 0.05132305 0.2693613 0.11007553
0003f0 3c 22 8c bd 96 1e c7 3a 28 49 fd 3d b8 64 7d bc
       -0.06842467 0.001519161 0.12367469 -0.015465908

fc1.bias f4 [150]
000000 c0 fa c8 bd 5f 12 c9 3e 2a 5f e2 be 9a d7 69 3e
       -0.09813452 0.3927183 -0.4421323 0.22836152
000010 3a 86 b3 be 50 e1 2c be 80 10 04 bd 43 49 6e 3d
       -0.35063344 -0.16882825 -0.032242298 0.058175337
000020 69 50 db bd 18 1a 42 be f8 9c c6 be 3e 12 b1 3e
       -0.107086964 -0.18955266 -0.38791633 0.3458423
000030 30 8c b6 3e 07 33 03 be e7 d0 39 3e 87 de c9 3c
       0.3565383 -0.12812434 0.18146096 0.024642242
000040 32 7a 47 be 2e a1 b6 be 94 b7 a0 3d 47 d1 d6 be
       -0.19480208 -0.35669845 0.07847515 -0.4195654
000050 74 48 78 be ba d7 98 3e 41 0b 7e bd 12 f8 10 3e
       -0.24246389 0.29852086 -0.06202245 0.14157131
000060 a6 7d 8e 3c 15 3f 5d be ae c6 47 3e 83 75 9e be
       0.017393898 -0.21606095 0.19509384 -0.3094903
000070 5d d0 ef be f8 2a 29 3d d8 df 19 be 56 90 ee 3d
       -0.46838656 0.041300744 -0.15026796 0.11648624
000080 49 64 0b 3e ad 45 04 be ed 32 06 3d f4 5a 7b be
       0.13612475 -0.12917204 0.03276341 -0.24546415
000090 04 9a ca 3e 42 35 03 3f ac b3 b0 3e f9 72 26 3e
       0.3957063 0.5125314 0.3451208 0.16254796
0000a0 18 b1 44 be e8 f8 a7 3e 2d ee 27 be 00 eb 8c 3d
       -0.19208181 0.32807088 -0.1639945 0.0688076
0000b0 22 ca 50 be 7c d9 d3 be f7 48 6f bd bb 95 12 3c
       -0.20389608 -0.41376865 -0.058419194 0.008946831
0000c0 b4 4a 19 3f c8 c2 4b be 85 e0 6f be 0f 9b b3 bd
       0.5987961 -0.19898522 -0.23425491 -0.087698095
0000d0 42 ed fd be 5a 2b 5b be 13 4c e9 3d a2 3e d4 3e
       -0.49595076 -0.21403256 0.11391463 0.41454035
0000e0 ed e3 cd be 5f 85 be 3e b1 71 5b 3e 42 f9 6e 3e
       -0.40212956 0.3721113 0.21430089 0.23337272
0000f0 c9 22 b3 bd 85 b9 07 3e c4 40 14 3f ab 99 36 be
       -0.08746869 0.13254364 0.57911325 -0.17832057
000100 05 20 9f bd f4 e4 2f 3e fe 33 90 be d0 47 b5 3e
       -0.07769779 0.17177182 -0.28164667 0.3540635
000110 78 80 a6 3e 5a 71 35 be 58 ba 86 be dc 98 2d be
       0.3251989 -0.17719021 -0.26314044 -0.16952842
000120 a7 29 a4 3d 95 2b 59 be bb a4 24 be d7 68 36 3e
       0.08015757 -0.21208031 -0.16078465 0.1781343
000130 81 40 1c bd bf cc db bc dd ca cb 3e 2a 44 83 bd
       -0.038147453 -0.026831029 0.3980321 -0.06409486
000140 b7 3a 9a be 87 8a cc 3e c5 fc a4 be 10 3f 64 3e
       -0.3012292 0.39949438 -0.32224098 0.22289681
000150 f7 6a 2a 3e 8c c1 c4 3d db 6e 7d 3d 4b 93 d3 3e
       0.16642366 0.09607229 0.0618733 0.41323313
000160 f1 a5 01 3f 74 22 df 3e b0 c4 e4 bd 04 60 a0 be
       0.5064383 0.43580973 -0.11170328 -0.31323254
000170 ac 6b bc be 59 80 a3 be f5 8f 5d be 86 20 03 be
       -0.36800897 -0.3193386 -0.21636946 -0.12805375
000180 b2 c8 31 3e 68 9a 96 be fa 9a 9b bd f6 f5 51 be
       0.17361715 -0.29414678 -0.07597919 -0.20503983
000190 37 98 9f 3d dc aa 37 be c3 a1 92 bc e8 ad b4 bc
       0.077927046 -0.17936271 -0.0178994 -0.022055581
0001a0 91 0b bf 3e 26 7c d8 3c d4 d6 20 be 1a 70 cf 3e
       0.37313512 0.026426386 -0.1570695 0.40515214
0001b0 80 03 10 3f b6 65 45 3c 83 8a 4f be f2 8f 09 bf
       0.5625534 0.012048176 -0.20267682 -0.5373527
0001c0 cd 91 85 be e6 d9 8f be 34 d2 e7 3e 80 4e 77 3d
       -0.260878 -0.2809593 0.4527756 0.060377598
0001d0 8b a9 b5 3c 40 d4 7f be 73 04 3d 3e 7f 6a b5 3d
       0.022175571 -0.2498331 0.18458728 0.08858203
0001e0 62 af 10 be 03 05 53 be ea 22 63 3c 3f 6b 7a be
       -0.14129403 -0.2060738 0.013863305 -0.24454974
0001f0 80 38 5f be f2 17 2e bc 80 28 12 be cb bc fd be
       -0.21798897 -0.010625826 -0.14273262 -0.495581
000200 84 ee c9 3d 33 cc 5c 3e 3b 4c 04 3e b7 1a 95 be
       0.09859946 0.21562271 0.12919705 -0.29121944
000210 3a 1a bf 3e 78 7e e8 bc 9e 3b 8f be 0c 7e 52 be
       0.37324697 -0.028380617 -0.27975172 -0.20555896
000220 84 8b 69 be c3 b3 2d be e8 ef d9 bc 6a d5 c8 3e
       -0.22807127 -0.16963105 -0.026603654 0.39225322
000230 8e 23 d3 3e 6e 12 cb be 8d b9 f8 3e 3a 70 0f 3e
       0.41238064 -0.39662498 0.48579064 0.14007655
000240 9d ad 79 be e7 f8 99 3e 8a ef 89 be 19 bf 67 be
       -0.24382634 0.3007271 -0.26940566 -0.22631492
000250 f6 44 8e 3d de 3d 90 be
       0.06946747 -0.281722

fa1.weight f4 [150, 2]
000000 71 e7 10 3f 1c 65 8b 3d 7b 4e 61 bc 00 02 93 3c
       0.5660315 0.068063945 -0.013751621 0.01794529
000010 c8 56 1e 3c 11 76 12 bd 74 8b 2b bd bc 12 99 be
       0.009664245 -0.03575713 -0.04188104 -0.29897106
000020 de 80 fa 3e 42 42 74 bd a3 9d 88 be dd 8e b6 3d
       0.48926443 -0.0596335 -0.26682767 0.08913968
000030 4e 8a 5d 3e 65 63 c3 bd fa 2d ad 3d 0e 48 74 3e
       0.2163479 -0.095404424 0.08456035 0.23855612
000040 37 15 84 be 41 f5 0c 3d 4c 73 b5 be 5d 93 8a bc
       -0.25797436 0.03441358 -0.35439527 -0.016915971
000050 50 fe d1 bb 81 02 fc bc 87 82 83 bd 63 c4 6a 3d
       -0.0064084902 -0.030762913 -0.064213805 0.057316195
000060 29 1d 81 bd c2 59 ed bc c8 b9 50 bd 45 75 7c bd
       -0.0630439 -0.028973464 -0.050958425 -0.061635274
000070 a0 bd 6e 3d 82 ff a7 bc 18 9a 96 bc 3e 53 61 bd
       0.05828631 -0.020507578 -0.018384025 -0.055011027
000080 eb 91 a1 3e e9 29 ab 3e d8 47 0e 3f 87 06 00 bd
       0.3155664 0.33430412 0.55578375 -0.031256225
000090 f4 4b 82 bc cb e8 28 bc a8 63 5a bc 70 8b 96 3d
       -0.015905358 -0.010309408 -0.013329424 0.07350814
0000a0 28 eb 25 bd 00 42 7b 3c 49 6a a9 be 9d 7f 2b 3d
       -0.040507466 0.01533556 -0.33088902 0.04186975
0000b0 b2 a9 d7 3c f8 20 b0 3c 9f 0f a1 bf a3 a0 cb bd
       0.026326034 0.021500096 -1.2582892 -0.099427484
0000c0 46 97 0a 3f 36 ba c5 3d 0c 04 7f bc ce 6e 2b 3d
       0.54137075 0.096546575 -0.01556493 0.04185372
0000d0 60 d7 1a 3f f1 24 b0 bd 28 7f da 3c 38 14 6b bd
       0.60484886 -0.08600796 0.026671961 -0.05739233
0000e0 d0 8e 7f 3d 80 3c 52 bb 20 80 a0 bd 1b 1d 90 be
       0.062392056 -0.0032079518 -0.07836938 -0.28147206
0000f0 93 d7 26 bf ac 59 db 3c 28 c5 0b 3c 38 b6 48 bc
       -0.6517269 0.026776157 0.008530892 -0.012250476
000100 e0 25 b0 bf 77 e0 f1 bd 56 2c 95 3d ab 11 67 bd
       -1.3761559 -0.118103914 0.07283847 -0.056413334
000110 36 72 f6 3e a7 cc 12 3e d8 be 3f be c8 bb 5c 3e
       0.4813401 0.14335881 -0.18725145 0.21556008
000120 53 42 9f be a6 db ae be 85 98 3e bd f0 50 9b bc
       -0.3110529 -0.34151953 -0.046532173 -0.018959492
000130 b0 fc 72 3d 48 2b 5e 3d 5c 56 07 3d b8 d1 3a 3c
       0.059323013 0.054240495 0.033041343 0.01140254
000140 5c 1a e5 bc 00 3b 33 3b d7 cd 67 3f 20 67 8b 3e
       -0.02796667 0.00273484 0.9054846 0.27227116
000150 71 b1 b8 3e 1e b3 b5 3d 06 4f ea 3e 88 bf 87 3d
       0.36072877 0.088720545 0.45763415 0.066283286
000160 c4 cd 8c be ee f9 e6 bd 12 be 12 be 1a 2e 48 bd
       -0.27500737 -0.11278139 -0.14330319 -0.04887209
000170 a6 d7 13 3d c7 a9 04 be 2e d8 32 bf a6 6b 2e 3d
       0.03609433 -0.1295539 -0.69861114 0.04258313
000180 12 e2 a8 bc b3 8b 95 3d 36 7b e1 bc e8 0c 41 3d
       -0.020615611 0.07302036 -0.027524572 0.04713145
000190 22 ee ba bb e2 2a 8a 3d 0d c0 5c 3f e1 da 2c 3e
       -0.005704657 0.067464605 0.86230546 0.1688037
0001a0 c0 c6 f8 3b be fc 19 3d a0 fa b5 3e 91 50 da 3c
       0.007592052 0.03759455 0.35542774 0.026649745
0001b0 20 54 2d 3f c7 ff ad 3d d5 b7 be 3e 26 b0 d2 3d
       0.6770649 0.08496051 0.37249628 0.10287504
0001c0 5f 07 6f 3e 23 cd 88 be 58 df 40 3d 16 f2 25 3d
       0.23342656 -0.26719007 0.047087997 0.040514074
0001d0 28 cb 90 bc 00 92 36 bb 7c bf a4 bd 50 26 31 3d
       -0.017674997 -0.002785802 -0.08044335 0.04324943
0001e0 7f 32 17 3f 82 d4 bb 3d d6 44 0f 3f 7e 84 88 3d
       0.59061426 0.09171392 0.5596441 0.06665896
0001f0 94 3e 2c 3e f9 f3 65 3e 94 04 d1 3e 4d 4d 3c 3e
       0.16820747 0.2245635 0.40823805 0.18388863
000200 1a 22 fd 3b 07 ab be bd 0a cd 3c be 94 a3 7e be
       0.0077250125 -0.093099646 -0.18437591 -0.24867088
000210 92 98 69 bd 80 83 6c bc 04 76 39 3d 38 36 89 3d
       -0.057030268 -0.014435649 0.045278564 0.066997945
000220 23 ac dd be 55 0d 8d be 5f 46 99 bf 0c e1 e2 bd
       -0.43295392 -0.27549234 -1.19746 -0.110780805
000230 0c 43 a4 bd 58 2c 79 bc f4 0f ad 3e 5f 22 06 3e
       -0.08020601 -0.015208326 0.33801234 0.13099049
000240 2c d0 04 3f a8 aa 26 3d da 1e 14 3f 69 69 d8 3d
       0.51880145 0.040690094 0.57859576 0.105669804
000250 ae 3d 86 bb 00 2b ed 3a 11 bd 86 3e 80 1d ba 3d
       -0.0040967083 0.001809448 0.2631612 0.09087658
000260 58 91 4a 3d 64 20 9b bc 3b 56 4a bd df 20 e6 bc
       0.049455017 -0.018936343 -0.049398642 -0.028091846
000270 ab 40 e2 ba 9d 93 88 bd 5d 83 ab bd 5b 77 e3 3d
       -0.0017261704 -0.0666878 -0.08374665 0.111067496
000280 b5 86 f3 bd f6 bb ca bd b2 75 64 3e e3 e0 cc 3b
       -0.11890928 -0.09899132 0.22310522 0.0062523945
000290 e8 fd ca 3e 84 2c c4 3e 24 4a 9f 3c 8a 76 9a 3d
       0.3964684 0.38315213 0.019444533 0.07542141
0002a0 55 74 9f 3d ec 97 83 bd 60 f4 87 3b 70 bb 28 3c
       0.077858604 -0.06425461 0.004149005 0.010298595
0002b0 6c 88 b1 3e 93 0d c8 be 88 5f e7 3e 5b eb d6 3d
       0.34674394 -0.39072856 0.45190072 0.10494109
0002c0 00 dd 3c 3b 97 e1 40 3d 12 a2 8a bd 32 5b 05 3d
       0.002881825 0.04709014 -0.06769194 0.032557674
0002d0 7a da 5f bd 3f 00 70 3d 50 b7 a2 3e 70 aa 8b bd
       -0.054651715 0.058593985 0.3178048 -0.06819618
0002e0 f2 d0 9c 3d d0 12 0d 3d 00 c2 82 be c1 87 84 3d
       0.07657041 0.03444177 -0.25538635 0.064712055
0002f0 08 f9 df be 69 4c 90 bd 34 0a e6 3c 5f f8 53 3c
       -0.43744683 -0.07045824 0.028081037 0.012937634
000300 28 8e 58 3c e6 a7 56 bd 30 25 a0 bd 98 a7 84 3d
       0.013217486 -0.052406214 -0.07819593 0.064772785
000310 b9 35 e9 3e dd f5 8a bb d3 58 eb 3c 48 47 26 3c
       0.455488 -0.004240735 0.028728878 0.010148831
000320 11 47 12 bd c8 4a fc 3c ba 81 99 bf e7 51 ac bd
       -0.035712305 0.030797377 -1.1992714 -0.08414059
000330 94 26 ff be 61 57 27 bf 19 a1 e9 3e 82 f2 89 3e
       -0.4983412 -0.65367705 0.4563072 0.2694283
000340 db 9d 1f bc 3c f1 70 3d 95 23 63 3f de 85 72 3e
       -0.0097422255 0.05882381 0.8872617 0.23683879
000350 3d e3 34 3d 2f 1c 9b bd 30 5f eb 3d 39 12 a7 3d
       0.044162024 -0.07573735 0.11492765 0.081577726
000360 08 16 a5 3c 0a f2 3a bd 3b 58 e0 be 1b af c8 bd
       0.020152107 -0.045640983 -0.43817315 -0.09799024
000370 39 91 23 3f 6c 77 3b 3e ee a8 32 3e 31 92 2a bd
       0.6389347 0.18307275 0.17447254 -0.041643325
000380 03 68 28 3f 87 99 14 3e 53 6f a2 bd f7 e9 75 3e
       0.6578371 0.14511691 -0.0793139 0.24015032
000390 28 42 ee 3d 67 b8 fc bd 08 d7 54 3a 1c 5d 8c 3d
       0.11633712 -0.123398595 0.00081192004 0.06853697
0003a0 f9 84 45 3f f1 ac 60 3e 55 4e 9e 3e 14 f2 7d bd
       0.77156025 0.21940972 0.30919138 -0.06199844
0003b0 bf 68 ce 3e c7 67 c8 3c 8c b4 a5 3c d3 26 ac be
       0.4031429 0.024463547 0.020227693 -0.3362337
0003c0 64 88 f8 3e 3b 92 e4 3d c0 78 42 3e ef a8 55 3d
       0.48541558 0.11160704 0.18991375 0.05216306
0003d0 8c 73 79 3e 11 bb 51 3d 22 9b 8b 3d 36 81 00 3d
       0.24360484 0.05120379 0.068166986 0.031373225
0003e0 e4 6b 57 3d 58 a0 0c 3d c7 1a aa 3c 1f 07 bd bc
       0.052593127 0.034332603 0.020764722 -0.023074685
0003f0 00 aa 3a 3a b4 5d 04 bd d1 95 4c 3f 95 fa 86 3e
       0.0007120669 -0.032315925 0.799161 0.26363054

fa1.bias f4 [150]
000000 f6 32 36 3f 13 6a ab be ea 1c a0 be 22 90 71 3f
       0.7117151 -0.33479366 -0.3127206 0.94360554
000010 c2 3b 00 3f f3 a7 04 3e 22 f6 6a 3f a5 03 c1 3e
       0.50091183 0.12954693 0.9178182 0.37698093
000020 f2 b9 06 3f 34 ba f9 3e 96 20 61 be 5a a3 05 bf
       0.5262748 0.48774874 -0.21985087 -0.5220238
000030 0b f2 2c bf cf ba 25 bf 86 a6 22 bf 26 96 90 be
       -0.6755683 -0.6473817 -0.63535345 -0.28239554
000040 3c 1b fd 3e ed ae 40 3f 98 0b b4 be cf 17 2d bf
       0.4943484 0.75266916 -0.35165095 -0.67614454
000050 69 07 c0 be 06 32 2f 3e ab b8 ea be e3 f8 1c be
       -0.37505654 0.17108926 -0.45844015 -0.15329318
000060 9c cc a2 3e 7b c1 ec be c4 2d 0a 3f 10 ba b0 be
       0.3179673 -0.46241364 0.5397608 -0.34516954
000070 4c 97 02 bf 8e 14 62 3f 77 b0 86 3e c9 7e c5 be
       -0.5101211 0.88312614 0.26306507 -0.38573292
000080 28 e2 2d be d4 9f 31 bf b7 ad 14 3f d6 b3 bd 3e
       -0.16980803 -0.69384503 0.5807757 0.37051266
000090 be e2 42 3f b0 9f 19 be 57 12 1c bf aa 10 d8 be
       0.7612723 -0.15002322 -0.60965484 -0.42200214
0000a0 1e 6b 61 be 52 e1 3a 3f de c7 6b 3f 98 f4 86 3e
       -0.22013518 0.7300006 0.9210185 0.26358485
0000b0 59 19 62 3f 53 26 2f 3f 19 a5 79 3f 52 ac 7b 3e
       0.8831993 0.68417853 0.97517544 0.24577454
0000c0 9c 67 2a be 4f fe 0a bf 1f fa cd be e8 70 05 3f
       -0.16641086 -0.54294294 -0.4022989 0.52125406
0000d0 e8 f2 4b be 67 f6 66 3f 3a 1a 43 3f b5 d8 52 3f
       -0.1991688 0.9021973 0.76211894 0.8236192
0000e0 a8 55 d6 3e 52 47 f1 be 3f 22 a9 be dc 72 4d be
       0.41862226 -0.47124726 -0.3303394 -0.20063347
0000f0 af a3 7b 3f f2 08 44 3f 30 77 5d 3f 4f eb 4a 3f
       0.98296636 0.7657615 0.8650999 0.792653
000100 ff d4 53 3f a9 d9 10 3f 87 75 9a be 6e 7f 19 bf
       0.8274688 0.56582123 -0.3016779 -0.5996007
000110 bb c5 2f 3f 49 e3 31 be 8a ff 20 bf 1a a1 61 3f
       0.6866109 -0.17371859 -0.6288992 0.88136446
000120 32 7c 4e 3f 89 7e a1 3e 18 84 aa bd a0 18 7d 3f
       0.80658257 0.3154185 -0.08325976 0.988657
000130 1d a5 0d bf 19 75 b4 be c6 c9 51 be 40 c3 6f 3f
       -0.5533007 -0.35245588 -0.20487127 0.936573
000140 06 ac 40 3f 18 7c 63 3f 16 b8 cb 3b ca 2b 1f bf
       0.75262487 0.8886123 0.006217013 -0.6217619
000150 f8 7f 7b 3f b3 33 19 bf 38 2c 9c 3e 41 d8 54 3f
       0.9824214 -0.5984451 0.30502486 0.8314248
000160 56 31 f7 be f0 c6 8c bd 65 88 32 bf 8c ee 2c 3f
       -0.48279828 -0.06873882 -0.6973937 0.67551494
000170 58 1f 25 be d2 0c 5a 3f d0 1b f4 3e a4 cf 9b be
       -0.16125238 0.8517581 0.4767747 -0.30431855
000180 fd 9c d0 be 22 9f 55 be 56 c3 72 3f 04 9c a4 be
       -0.40744773 -0.20861486 0.9482931 -0.3215028
000190 f4 07 05 bf 95 6e e6 bd 4c 06 c2 3d 7c bf 5e 3f
       -0.5196526 -0.112515606 0.09473857 0.8701093
0001a0 aa 09 ba be 95 4f 25 3f 32 a2 63 be ca 9a 71 3f
       -0.36335498 0.6457456 -0.22229841 0.94376814
0001b0 11 7d 1c bf 4c 5f 12 3f f9 aa 88 3f 73 62 69 3f
       -0.61128336 0.5717666 1.0677177 0.91165847
0001c0 68 23 f3 3e 22 ca a8 3e 9f 52 72 3f cf 96 2c bf
       0.4748795 0.32966715 0.9465732 -0.67417616
0001d0 c4 1c 1f 3f a4 69 88 3e 00 63 9a 3e 2e 07 35 3f
       0.6215327 0.26643097 0.30153656 0.7071408
0001e0 8f fc c5 3e 38 5e 1a 3f 5a 9a 4b 3f fd c2 e9 be
       0.3866925 0.60300016 0.79532397 -0.45656577
0001f0 13 5a 29 bf 6c 25 9d bd c8 2a f6 bd 82 b0 40 3f
       -0.6615307 -0.07673153 -0.120198786 0.7526933
000200 cc 64 24 3f 2b b4 4f 3f 4a 36 5f 3f cb 87 8f 3e
       0.64216304 0.8113429 0.87192214 0.2803329
000210 c2 1f 47 3f 8e fe 1e 3f ec a5 18 be 05 5c 8e 3e
       0.77782834 0.6210717 -0.14907044 0.2780458
000220 6c 08 26 3f 4f 62 2f 3f aa ed 03 bf e3 09 7d 3f
       0.648566 0.6850938 -0.5153452 0.9884321
000230 5c 5a 11 3f de 2b 8e be 5b 2e 9e 3d 78 d5 75 3e
       0.567785 -0.27767843 0.07723685 0.24007213
000240 29 b6 77 3f 42 7d 15 bf dc 27 6c be d2 9c 43 be
       0.9676233 -0.58394253 -0.2306208 -0.19102791
000250 f0 65 56 3f 8a f5 15 be
       0.83749294 -0.14644447

fca1.weight f4 [300, 300]
000000 a9 1d fb bc 89 c9 89 3c e6 c1 35 3c d7 a0 86 bd
       -0.030653792 0.016819732 0.011093592 -0.065736465
000010 6e 42 68 bd 77 2c 2e bd 18 82 da bc 1a fd 61 bd
       -0.056703977 -0.042522874 -0.026673362 -0.055173017
000020 e8 48 bf 3c 60 5d dc 3a 18 52 1c bb 84 1d 62 bd
       0.023350194 0.0016812496 -0.0023852643 -0.05520393
000030 c5 78 ed bc d6 b2 f8 3c 03 f7 d8 3c 3e cb 4c bd
       -0.028988251 0.030358713 0.026484972 -0.049998514
000040 80 6d 02 bd a8 1e 01 3c a2 0c 15 bd 4a 06 43 bd
       -0.03184271 0.007880844 -0.036389 -0.04761342
000050 f0 c9 de bb a1 d1 26 bd f2 f5 0c bd 5c 28 c2 bb
       -0.006798975 -0.04072726 -0.03441424 -0.0059252214
000060 5d c1 a7 bc 1d ab 9f 3b 6f 6e 00 bd f1 8d c0 3c
       -0.020477945 0.004872693 -0.031355318 0.023505183
000070 e8 1a 15 3c 7d 57 0f bd 4a 33 62 3d d0 88 bf 3c
       0.009100653 -0.034995545 0.055224694 0.023380667
000080 7f 10 27 ba 8b c3 62 3d 8c 7a 4c bd a1 59 4c 3d
       -0.00063730025 0.055362266 -0.049921557 0.049890164
000090 b6 bc 4f 3d 0b e1 11 bc b9 11 33 3b d4 7d a4 bd
       0.05071708 -0.008903752 0.0027323796 -0.08031812
0000a0 8c 3d 5e 3d 61 ed 99 3c 1c 1b 15 bd b8 e5 92 3c
       0.054257914 0.018789949 -0.036402807 0.017931804
0000b0 71 d1 f1 bb b8 3f 8f bd e2 e9 a8 3c 63 fc 37 bd
       -0.0073797037 -0.06994575 0.020619337 -0.04491843
0000c0 d6 f0 52 bd c0 2b 26 bd 63 49 07 bd aa 26 3e bd
       -0.05149921 -0.040569067 -0.03302897 -0.04642359
0000d0 9c 85 05 3d d6 27 49 3d 7e 3f 16 3d f9 e8 94 bd
       0.032598123 0.049110256 0.036681645 -0.072709985
0000e0 2c 26 bb bc 42 fb 5c bc c7 8e ac 3a 46 28 53 3b
       -0.02284535 -0.013487639 0.001316511 0.003222005
0000f0 5c 6f 79 bc 3d 73 87 bd c1 3a 63 bd f0 29 4f 3d
       -0.015224304 -0.06613777 -0.055475954 0.050577104
000100 fa 71 3a bd 6a 00 81 3b 3a c6 ab bc 1a 0f 14 bd
       -0.045518853 0.003936817 -0.020968545 -0.036147214
000110 5c b5 94 bd 9c 8f ab 3c 00 ca a7 3b f2 94 a7 3c
       -0.07261154 0.020942502 0.005120516 0.020456765
000120 d2 bd 9b bd 8a 64 ed bc fc 76 a4 bc af ce a9 bd
       -0.07604565 -0.028978605 -0.020076267 -0.08291375
000130 a2 6a 94 3c be 78 50 bd 5b 4e 29 3c ea 98 22 3d
       0.018117253 -0.0508964 0.010333623 0.03969661
000140 1e fa 4d 3d 50 3d de 3c 30 f1 2d 3b e6 47 16 3b
       0.05028736 0.027128845 0.0026541464 0.0022931038
000150 64 6a a9 bd 34 25 2a bd 8b 59 f4 bc 72 4e 68 bd
       -0.082722455 -0.041539386 -0.029827854 -0.056715436
000160 03 49 f4 bb 44 87 39 bd 67 92 1f bd cf 80 9e bc
       -0.0074549927 -0.045295015 -0.03895798 -0.01934853
000170 00 f8 3f 3a 4c 96 47 3d d0 63 4a 3c ec 7c fa 3c
       0.00073230267 0.04872732 0.012352899 0.030577146
000180 64 38 7a bd 86 fa ee bb 2c 23 db 3c 24 86 b4 3c
       -0.061088935 -0.0072930483 0.02675017 0.02203662
000190 f6 6b 3e 3b 98 45 e3 bb c0 1b 39 3c 30 5f 12 bd
       0.002905605 -0.0069357865 0.01129812 -0.03573531
0001a0 42 4a f6 bc 8a 06 0e 3c 60 3e ba bc 80 02 1b 3d
       -0.030064706 0.008668551 -0.02273482 0.03784418
0001b0 d9 bf 39 3b 80 5e a2 bc 4b ab 17 3d f2 67 65 bd
       0.002834311 -0.019820452 0.037028592 -0.056007333
0001c0 6c 2f 72 bc 3a 54 3b 3d b0 c2 98 ba 60 d7 92 bc
       -0.014781814 0.04573462 -0.0011654701 -0.017924964
0001d0 fc 41 c2 3c 52 1c c2 bc 6d a1 05 3d 88 8b 21 bd
       0.023713104 -0.023695145 0.03262465 -0.039439708
0001e0 f4 64 d4 3c 38 f7 a6 bc 86 b9 a1 3c bf 7a c5 bc
       0.025927044 -0.020381555 0.019741785 -0.024106381
0001f0 00 8a 58 3d e3 b7 77 bd c0 93 97 ba a8 e4 ba bb
       0.052865982 -0.060478102 -0.0011564419 -0.0057035275
000200 e2 5c c8 3c 1f 16 89 bb e0 e9 b6 3b a8 17 4b bc
       0.024458352 -0.0041835452 0.0055820793 -0.012395777
000210 31 56 aa bb 98 b3 34 3c 90 c7 65 3d 57 eb f9 bc
       -0.005198263 0.011029147 0.05609852 -0.030507727
000220 2f 7a 6d bd c4 9d 07 3d 38 4b 27 3c d0 da 7c bd
       -0.05797785 0.03310944 0.010210805 -0.061732113
000230 16 af 63 bd 4b f8 5d bd 0d 76 a4 bc f8 91 92 3c
       -0.055586897 -0.05419187 -0.020075822 0.017891869
000240 b8 70 08 3c e8 af 38 bd b0 8e f1 3c f8 13 b7 bc
       0.0083276555 -0.045089632 0.029486984 -0.022348389
000250 3e 39 48 bd 52 2a 45 bd db e8 44 bc 50 c6 bb 3c
       -0.048882715 -0.048136063 -0.012018408 0.022921711
000260 89 06 14 bd 66 8d b4 3c 07 42 77 bd e1 11 d0 bc
       -0.036139045 0.02204008 -0.060365703 -0.02539915
000270 03 51 81 3a c4 a3 90 bd 37 fe 42 bd ee c2 9f 39
       0.0009866062 -0.07062486 -0.04760572 0.00030472077
000280 40 c9 50 3c 1b d9 0c 3d 9c 8e 08 3d f4 ab 0e 3d
       0.012743294 0.034386735 0.033339128 0.034831956
000290 e4 bd 98 3c c0 da 64 3b 02 21 9f 3c 01 58 75 bd
       0.018645234 0.0034920424 0.019424919 -0.05989838
0002a0 0e d6 24 bd c8 1c 00 bd 14 00 63 bd a3 b7 57 bb
       -0.0402432 -0.031277448 -0.055419996 -0.0032915852
0002b0 a8 5c a3 3c d6 20 f8 3c 43 8b 11 3a 28 13 f1 bb
       0.019941643 0.030289095 0.00055520626 -0.00735702
0002c0 7d 9a 8f bd 0e 68 b5 ba b0 df 0b 3d fa 9d d7 3c
       -0.07011888 -0.0013840215 0.034148872 0.026320446
0002d0 f4 7b 68 3b d0 57 af bb 7d b5 42 bd 5e 12 58 3d
       0.0035474272 -0.0053510442 -0.047536362 0.05275189
0002e0 d9 63 5a bd d0 1a 8c 3c 9f 5a 78 3c 0c 78 8b 3c
       -0.05331788 0.017102629 0.0151583245 0.017025016
0002f0 00 b6 15 3d 8a 88 23 bd 45 de 35 bd af 69 57 bd
       0.03655052 -0.039925136 -0.044401426 -0.052591022
000300 9f d3 9d 3c 3c e0 07 bd 3b cf 9e bc bc b7 7f b9
       0.019265948 -0.03317283 -0.019385925 -0.00024387141
000310 36 a9 1b bd fe 10 4d bc 76 6d 05 bd 80 38 52 bd
       -0.03800317 -0.012516258 -0.032575093 -0.051323414
000320 b0 c2 23 3d 22 a0 66 bd 52 bf 56 bc 27 ad 98 bd
       0.03998059 -0.05630506 -0.013107138 -0.07454901
000330 f9 31 33 bd 32 ce d1 bb 89 53 0d bd aa 24 d0 bc
       -0.04374883 -0.006402754 -0.034503493 -0.025408108
000340 80 3c 0d 3d 52 8e 43 3d 28 a8 d4 39 d0 6b 04 bc
       0.034481525 0.04774315 0.00040561077 -0.008082345
000350 99 ee a2 bd 68 8f 28 bd fa 11 90 bc 9d 68 eb bb
       -0.07955665 -0.041152388 -0.017586697 -0.0071841017
000360 10 40 29 3d cb 15 0c bd 55 57 82 bd 4a 0f 34 3c
       0.04132086 -0.03420047 -0.063643135 0.010989973
000370 b7 ce 2d bc 88 28 f6 bc 49 ee 33 bc dc f7 79 bd
       -0.010608367 -0.030048624 -0.010982105 -0.061027393
000380 24 a6 f2 3c 45 51 22 bd 06 b6 63 bd 00 1e 57 bd
       0.029620238 -0.039628286 -0.055593513 -0.052518845
000390 50 72 da 3b a1 7f 9d bd 3a 99 80 bd be 66 5b bd
       0.006666459 -0.07690359 -0.06279226 -0.05356478
0003a0 00 82 dc b9 a4 e8 62 3d 9b 3c bb bc 44 fd f3 3c
       -0.00042058527 0.055397645 -0.022856047 0.029783852
0003b0 54 2e ae bd 62 96 c5 bc 3c 0d 23 3d 38 c5 1f bc
       -0.0850493 -0.02411956 0.039807543 -0.00975161
0003c0 f2 67 c4 bc 0a ba e0 bc 54 99 3a 3d d8 50 5e bd
       -0.023975346 -0.02743246 0.04555638 -0.054276317
0003d0 11 b2 a5 bd 9c 0c 1a bc 04 dc ef bc f0 93 53 3d
       -0.08090604 -0.00940242 -0.029279716 0.051654756
0003e0 2e 7e 9a bd 0a 80 ce bc 7a 58 8d bc a8 56 a4 bd
       -0.07543598 -0.025207538 -0.017254103 -0.08024341
0003f0 db 25 74 bd be b7 58 bd 30 7a 28 3d 67 b7 9e bd
       -0.059606414 -0.052909605 0.041132152 -0.07749825

fca1.bias f4 [300]
000000 a0 f4 49 bd 67 e5 14 bd 4c 25 8b bc 9a 56 12 3d
       -0.04930556 -0.036351588 -0.016985558 0.03572712
000010 94 0b 26 3d a0 f1 46 bc 14 6b bc bc 1b ed 5c 3d
       0.040538386 -0.012142569 -0.023000278 0.05393706
000020 55 74 d6 3c f6 bd ac bc 2c 7b 13 3d 28 b3 4b 3d
       0.026178518 -0.021086674 0.036006138 0.049731404
000030 9a 07 69 bd 6b 62 38 bc cd 75 50 3d e9 6d 3c bc
       -0.056892015 -0.011253933 0.050893594 -0.011500814
000040 40 da 68 3c 45 18 35 bd 5d 0d e5 3c cb 76 1f 3d
       0.014212191 -0.0442126 0.027960474 0.03893165
000050 52 02 37 bd 71 68 44 3d a2 6e 3c bd 18 52 9c 3c
       -0.044679947 0.047951166 -0.046003945 0.019082114
000060 a9 d5 34 bd 67 e5 8d bc de 26 99 3d 7b 4b 0d bd
       -0.044149075 -0.017321302 0.074781165 -0.034495812
000070 6b dc 3b bc a6 ca 3e bd 71 95 f7 3c d1 6c 5e bb
       -0.011466126 -0.04657998 0.030222626 -0.0033939371
000080 36 5d d3 3d 4f 7b ab bd 21 b6 27 3d f3 da 7d bc
       0.10320513 -0.083731286 0.040945176 -0.015494096
000090 93 9a 92 3b 59 1c e0 bc 87 16 d9 3c 2c 31 88 bd
       0.004473993 -0.027357267 0.0265 -0.06650004
0000a0 ad 38 5a 3d 49 e7 aa bd dd 1e 98 bd 5f 8c 71 3b
       0.053276706 -0.083448954 -0.07427762 0.003685735
0000b0 ee ef 63 3c a3 00 e1 bc ce 38 f0 bb 4d e4 48 3e
       0.013912184 -0.027466124 -0.0073309904 0.1961834
0000c0 0b 4a 26 bd 23 0c 16 bc ff 81 4d bd cc 98 95 bc
       -0.040597957 -0.009158167 -0.050172802 -0.018261336
0000d0 5b fc f1 3c 82 c0 cb 3d 80 41 95 bc 7c ab 88 3c
       0.029539278 0.09948827 -0.01821971 0.016683333
0000e0 e0 25 5e bd 98 de 0f bc 4d 56 c1 3e 40 41 bf 3b
       -0.05423534 -0.008781098 0.37761155 0.005836636
0000f0 a4 e3 1e bd 9f 10 20 3d 09 80 3c 3d 3c ba 74 bc
       -0.038791314 0.03907835 0.04602054 -0.01493698
000100 3e 55 59 bd 40 e7 64 bc 6b 21 5a bd e3 2e 8f 3d
       -0.05305981 -0.01397115 -0.053254526 0.06991365
000110 c8 4e 89 bd ab f1 3e 3d f6 4b 68 3c b0 d2 fa bc
       -0.067044795 0.04661719 0.014178267 -0.030618042
000120 f5 78 da 3c 0f d0 79 3d 1f 75 ea 3c 90 d8 8c 3c
       0.026669005 0.060989436 0.0286203 0.017193109
000130 e6 b1 c8 3c d1 5f d6 bc f5 ff 2a bc 1b 99 b9 3a
       0.024498891 -0.026168736 -0.0104370015 0.0014160009
000140 1c 38 2d 3d d4 43 18 3d d5 7a f1 bc 53 19 6f 3b
       0.04228984 0.03717406 -0.029477516 0.00364836
000150 63 93 90 3d 5e 1e 31 bc c9 3f 55 3c 21 f4 39 bd
       0.07059362 -0.010810463 0.013015696 -0.045398835
000160 65 f5 25 3d 4d be 4c 3d 74 c2 bd 3d 2a c4 07 bc
       0.04051723 0.049986172 0.092656046 -0.008286515
000170 9e 2d bd bb 46 0e d6 bc 01 6d 9e 3c 4c 66 38 3d
       -0.0057732603 -0.026129853 0.019339086 0.045019433
000180 05 75 a5 3d ac 8e d1 3c 11 aa ba 3c 4c f3 83 bd
       0.0807896 0.025580727 0.022786172 -0.064428896
000190 7d 45 93 bb ea ee 86 3c 6b d9 08 3d 8d 14 90 3b
       -0.0044943676 0.016471345 0.03341047 0.004396981
0001a0 b0 45 08 3b a2 ca 50 bd d9 9e 09 3d 0a 0e d6 bc
       0.002079349 -0.050974496 0.033598755 -0.026129741
0001b0 8c ef 19 3a 43 53 88 bd 24 11 40 bb c7 92 39 bd
       0.0005872182 -0.06656506 -0.0029307092 -0.045305993
0001c0 eb 9d 3b bd 61 e4 03 3d 65 24 64 3d 61 07 7b 3c
       -0.0458049 0.03220022 0.05569877 0.0153215835
0001d0 ae fe 63 3d 31 ac 2c 3d 61 c4 5f bc 43 90 18 bd
       0.055662803 0.042156402 -0.01365766 -0.037246954
0001e0 52 a6 61 bd d1 a5 22 3d 00 69 ec bc ac 26 2f bd
       -0.055090256 0.039708916 -0.028858662 -0.04276149
0001f0 6a fe 17 bd 4b 1c 23 3d c2 d2 74 3e d4 7a 38 bd
       -0.037107863 0.039821904 0.23908523 -0.045039013
000200 00 1e c2 3c 51 fa 88 bd 80 f3 77 bc 86 6f ee 3c
       0.023695946 -0.06688369 -0.0151337385 0.029105913
000210 6e 55 e1 3d 0b 84 8d 3d 5a 0b 3a bd 81 01 80 bc
       0.110026225 0.06909951 -0.045420982 -0.015625717
000220 67 d5 84 bc 39 d8 42 bd 80 40 55 bc ba a7 08 3c
       -0.01621504 -0.047569487 -0.013015866 0.00834077
000230 bf a9 56 3d 7b c2 be 3c 74 5a 68 3d 2d 33 4f bd
       0.052407976 0.023286095 0.056726888 -0.050585914
000240 b2 97 40 bd a5 51 4e bc 6e e4 2f bc d1 53 57 3d
       -0.047019668 -0.012592708 -0.010735614 0.052570168
000250 9f ff 02 3c 87 d9 5a bc 75 1f 1c 3d 40 4b 1f 3d
       0.007995515 -0.013357527 0.038115937 0.038890123
000260 af 3f 2c 3d 96 ae 0e 3c 7f 5f d1 39 14 bb 42 bd
       0.04205292 0.008708617 0.00039934737 -0.047541693
000270 96 d4 68 bd 81 e9 44 3a 0b ca 9e bc d7 00 1c bd
       -0.056843363 0.00075116014 -0.019383451 -0.03808674
000280 48 6a 1e bc 81 a8 4d 3d 3b 9e 1d bd 8a d4 5e 3d
       -0.009668894 0.050209526 -0.03848098 0.05440191
000290 58 62 95 3b b4 12 0f 3b 4b 25 30 3c 3d 3f 62 bd
       0.0045588426 0.0021831216 0.010751079 -0.05523609
0002a0 1c 3a a6 bc e7 3a b7 3b 45 73 eb bc ea 9b 63 3d
       -0.02029138 0.0055917385 -0.028741488 0.055568613
0002b0 87 b0 7f bd 8b bd a7 bc 6d 1f cc 3d be ab 34 bd
       -0.06242421 -0.020476123 0.099669315 -0.0441091
0002c0 8d 52 94 bb e4 50 23 bd d1 51 4a bd 76 21 68 bd
       -0.0045264424 -0.039872065 -0.049394432 -0.056672536
0002d0 62 02 44 3c f2 53 d6 bc 76 9e 09 3b 6a b5 cf bd
       0.011963459 -0.026163075 0.002099899 -0.10142024
0002e0 12 6a 74 3c ee fc b2 3c b5 09 27 bd e5 2f b9 3e
       0.014917867 0.021849122 -0.04078074 0.36169353
0002f0 87 df 85 3c 20 19 2f bd 89 60 aa 3a 67 1c 8b bc
       0.016341938 -0.04274857 0.001299874 -0.016981317
000300 07 99 7c bd d1 47 69 3c 5d e5 98 bd 47 78 70 3d
       -0.061669376 0.014238314 -0.074656226 0.058708455
000310 f2 46 b3 bb 85 e3 a7 3b 1e 7b 0b 3d 97 3d 98 3c
       -0.005471104 0.005123558 0.03405296 0.018584056
000320 84 ac 75 3d c6 96 69 bd 27 6c 7f 3c f9 26 d6 3c
       0.059978977 -0.057028554 0.01558975 0.02614163
000330 44 d7 1d bd 0c 8d 07 3d ef 8c a8 bd d9 11 4e 3c
       -0.03853537 0.033093497 -0.08230006 0.012577497
000340 ac 73 65 bd 4d 45 b7 bb be 36 cf bd c8 ac ba bc
       -0.056018516 -0.005592978 -0.10117863 -0.022787467
000350 bc 21 91 bd b1 27 d2 3d 7c ce 09 3d b9 68 85 bd
       -0.070865124 0.10261477 0.033644184 -0.06514115
000360 fc d0 80 3d 0b 72 2f 3a 27 ed b3 3c ea 92 db bc
       0.062898606 0.0006692714 0.021963669 -0.026803453
000370 2a 9d 01 3d 34 8f 9c 3e c6 49 35 bd ce 07 8c bd
       0.031644024 0.30578005 -0.04425981 -0.06837426
000380 e3 d6 b0 3a 58 28 1e bd 39 28 87 3c 9c 6b 8a 3d
       0.0013491776 -0.038612694 0.016498672 0.06758806
000390 c8 a6 5e bc 2c 76 ad 3d 1d bd 97 3c d3 64 63 bd
       -0.013589568 0.08469805 0.018522793 -0.055516075
0003a0 b2 cb 2a bd 60 d2 98 bc 0c 51 12 bc e6 6d 05 3c
       -0.041698165 -0.018655002 -0.008930456 0.008143878
0003b0 23 81 50 bd fb 20 1d bc e0 ac a4 bc 6a 4b 5e bb
       -0.050904404 -0.009590383 -0.020101964 -0.0033919462
0003c0 a6 3a ea 3c 16 08 9d bc 04 9d 80 3b 00 61 93 bc
       0.028592419 -0.019168895 0.0039249677 -0.01799059
0003d0 ae 44 76 bd f0 3d ea bc 5b c6 1e bd eb 54 6b bd
       -0.06012409 -0.028593987 -0.038763385 -0.05745403
0003e0 83 af 22 3d 5a b6 94 bc aa 45 f1 3c 9d 6f b3 3b
       0.039718162 -0.018153358 0.029452164 0.005475952
0003f0 a3 1a 8c bd 51 15 25 3d e0 7d ce bd 2b 42 75 3b
       -0.06841018 0.040303532 -0.100826025 0.0037423472

fca2.weight f4 [1, 300]
000000 84 b1 2e 3b 50 8e a8 bb d9 68 a8 bf 00 b0 80 36
       0.00266561 -0.005143918 -1.3156997 3.8351864e-06
000010 62 44 c3 bb 90 fa eb be 1a f4 82 bb 10 ef 4f bf
       -0.0059590796 -0.46089602 -0.0039963843 -0.81224155
000020 a7 1f 42 bf 5d c2 34 bf 08 83 46 bf f1 01 b9 bb
       -0.7582955 -0.70609075 -0.7754369 -0.0056459834
000030 b9 32 c1 3c 29 95 89 b9 6f fb 4a bf d6 52 59 bf
       0.023583757 -0.0002624181 -0.7928991 -0.8489202
000040 19 62 5f bf 93 7e a5 bb ea 75 55 3b 57 2e 97 bb
       -0.8725906 -0.005050489 0.0032571503 -0.0046136784
000050 4f fb 6d bb cf 6f 3c bf 4d 37 2f bf d2 16 ca bb
       -0.0036313122 -0.73608106 -0.6844376 -0.006167271
000060 9d 99 16 bf 1e 20 24 bf 2b e1 64 bf 59 1f 77 3c
       -0.58828145 -0.64111507 -0.8940608 0.015083157
000070 38 91 c6 bb 42 03 3e bf d1 b1 8e bf 11 f0 a4 bf
       -0.006059792 -0.7422372 -1.1148015 -1.2885762
000080 74 48 97 bf ab f5 17 bf ff 20 ae bb 4c 0d 95 bf
       -1.1818986 -0.59359235 -0.005313992 -1.1644683
000090 da c4 bc bb 97 8a a9 be 9c 62 27 bf 7d 3f 3e bf
       -0.005760771 -0.33113548 -0.6538484 -0.74315625
0000a0 a4 6c 77 bf df 03 c5 3c 58 9c 22 bf 92 56 2c bf
       -0.9665015 0.024049697 -0.6351981 -0.67319596
0000b0 17 ac 8a bf 05 1e ba bb fe 0c 52 bf 2c 12 85 3e
       -1.0833768 -0.005679848 -0.82051075 0.25990427
0000c0 77 02 78 bf da 61 5f bf 38 94 17 bb 9e 6a 54 3b
       -0.9687876 -0.87258685 -0.0023129117 0.0032412182
0000d0 ca 2c 93 bf 7c d4 7a bf ce 89 71 bf 48 6c 18 bf
       -1.1498044 -0.97980475 -0.943509 -0.59540224
0000e0 0e c9 c8 bb ea 69 0b 3a 60 b0 55 3f 20 ab bd b9
       -0.006127483 0.00053182116 0.8347225 -0.00036176387
0000f0 18 3f 2d 3b 69 d6 45 bf 70 f0 25 bf 24 78 d6 ba
       0.0026435312 -0.7728029 -0.64820004 -0.0016362709
000100 9e 72 cc bb e4 e9 a0 bc 02 23 9d b9 24 4a 92 bf
       -0.0062392494 -0.019642778 -0.00029971456 -1.1428876
000110 1b 83 af be 74 e2 67 bf a1 93 a5 bf a3 0c e5 bb
       -0.34279713 -0.90579915 -1.2935678 -0.006990032
000120 51 30 85 bf df c7 8f bf 53 46 92 bf 89 b8 96 bf
       -1.040537 -1.1232871 -1.1427711 -1.1775066
000130 07 e5 3c bf 00 75 3b bf 62 11 2b 3b ae 9e 1d bf
       -0.7378697 -0.732254 0.002610289 -0.6157025
000140 f2 9a 83 bb db 3d 40 bf 7d 6a dd be 08 54 8c bf
       -0.0040162737 -0.75094384 -0.43245307 -1.0963144
000150 d6 0b 42 bf cb 09 3a bf 4f ee 5d bf 39 4f 48 bb
       -0.7579931 -0.7267119 -0.86691755 -0.0030564799
000160 58 06 93 bf de e7 9a bf fc 7d a1 bf 04 1e 53 bf
       -1.1486311 -1.210201 -1.2616572 -0.82467675
000170 07 ca 61 bf 4a 6c 6b bf fc 9d 8f bf 9a 97 e9 38
       -0.88198894 -0.9196211 -1.1220088 0.00011138544
000180 a3 33 80 bf b8 61 1d bf 92 aa d1 bb ef ae 37 bb
       -1.0015758 -0.6147723 -0.0063985074 -0.0028027853
000190 7c 30 63 bf 89 87 29 bf 1e a9 9f 3c 52 af 28 3c
       -0.88745856 -0.66222435 0.019489821 0.010295706
0001a0 14 f3 b4 3a bb f7 30 bf 36 7d c9 bb b2 a8 ca be
       0.0013805353 -0.69128007 -0.0061489595 -0.3958183
0001b0 15 fe 42 bf 21 93 a6 bc 69 ee 96 bf 04 40 35 bb
       -0.7616895 -0.020333828 -1.1791507 -0.0027656564
0001c0 b1 9e 9a bb 47 53 aa bf d1 5a 6b bf 22 25 aa bf
       -0.0047186245 -1.3306664 -0.9193545 -1.3292582
0001d0 6f b5 26 bf b8 e4 8e bf 3f 43 b7 bb 0f c8 7a bb
       -0.65120596 -1.116355 -0.005592733 -0.0038266217
0001e0 69 17 cc bc 7e c5 ae bb f3 e3 58 bf 00 4f 99 bb
       -0.024913507 -0.0053336015 -0.8472282 -0.004678607
0001f0 33 1b e5 be e7 6a 6c bf a9 74 83 3e 76 06 3e bf
       -0.44747314 -0.9235062 0.25674942 -0.7422861
000200 8a c5 85 3b a8 05 22 bf 10 6b de 3a ca c5 9c 3b
       0.0040823864 -0.6328988 0.0016969163 0.0047843205
000210 d5 f6 a6 bf 88 58 72 bf ba 88 38 bf e0 84 36 bf
       -1.3044077 -0.9466634 -0.7208363 -0.712965
000220 10 9d 33 bf b5 07 4c bf 68 23 e6 bb 0f b0 01 bc
       -0.70161533 -0.7969926 -0.0070232637 -0.007915511
000230 f4 0d 89 bf 87 e9 f0 be 6c 08 6e bf c1 e3 a2 3b
       -1.0707383 -0.47053167 -0.929816 0.004970998
000240 56 0b d3 3c 54 a2 5c bf 43 7c eb 3c 53 ba 63 bf
       0.025762241 -0.86185193 0.028745776 -0.88956183
000250 91 eb 66 bf 7e 32 5e bf b7 16 4b bf 4e 42 89 bf
       -0.90203196 -0.86795795 -0.79331535 -1.072336
000260 29 5a 48 bf 7d 6c 54 bf 9f ff 90 bb a0 41 d4 3a
       -0.78262573 -0.8297804 -0.0044250037 0.0016193874
000270 28 dd fb 39 d1 f3 86 3c 9e a2 83 bf ab 54 9b bb
       0.00048039225 0.016473683 -1.0284002 -0.004740318
000280 2d 1c ca 3c c9 c1 38 bf 6d df 71 bb 34 06 68 bf
       0.024671638 -0.7217069 -0.0036906854 -0.90634465
000290 b1 17 0d 3c b4 fa 3c bf 10 e0 51 bf 31 b4 e7 be
       0.0086116055 -0.7382004 -0.8198252 -0.45254663
0002a0 58 58 27 bf 7f eb 8f 3c bd 39 79 bf d6 79 92 bf
       -0.65369177 0.017568348 -0.97353727 -1.1443431
0002b0 da 24 2c bf 4f 64 6b bf 9e da 91 bf d9 e0 a4 be
       -0.6724373 -0.91949934 -1.1394842 -0.32202795
0002c0 6a 71 28 bc e7 48 85 bb 00 e6 f6 b6 b5 64 21 bf
       -0.010280946 -0.0040675285 -7.358147e-06 -0.6304429
0002d0 94 e4 66 bb 94 b6 54 bb 4a e2 18 bf 46 4b 05 40
       -0.0035231458 -0.0032457458 -0.5972029 2.0827193
0002e0 29 55 62 bf da 4b 2a bf b3 95 4f bf 51 59 54 3f
       -0.88411194 -0.6652199 -0.810878 0.82948786
0002f0 cd 68 1b bf 00 a1 89 bb 6a f9 66 bf 73 6e 75 bf
       -0.6070679 -0.004200101 -0.90224326 -0.9587166
000300 6d 17 84 3b f2 96 d0 bb 9c 22 84 3c 38 22 69 bf
       0.004031113 -0.0063656503 0.016129784 -0.9106784
000310 8f ee 5f bf 49 78 89 bf 54 fb 1b bf 39 40 c0 bb
       -0.87473387 -1.0739833 -0.6093037 -0.005867031
000320 3a b6 8d bf 2b d3 46 bf 7f 38 30 bf 7d 54 98 3c
       -1.1071236 -0.77665967 -0.68836206 0.018594975
000330 18 52 9c 3c 7b 2e 89 bf 8f de 92 3c bf 59 7b bf
       0.019082114 -1.071731 0.01792839 -0.98183817
000340 2a c8 0b bf b9 16 81 3b 64 24 41 bf 52 f6 4e bc
       -0.546023 0.0039394763 -0.7544615 -0.0126319695
000350 6f e5 b7 3c 43 29 8b be ef b7 55 bf 22 26 c5 ba
       0.02244827 -0.27179918 -0.83483785 -0.0015041272
000360 09 45 c0 be f3 f9 b1 be c6 b0 bc 3c a2 01 8a bb
       -0.3755267 -0.3476101 0.02303351 -0.0042116204
000370 fe 2e 0f bc 87 12 9f 3e 53 ad a2 bc 75 71 d3 3c
       -0.008739231 0.31068823 -0.019858038 0.025810936
000380 c0 37 56 bf b0 66 8d bb 23 65 bc 3c d3 cd 6a bf
       -0.8367882 -0.00431522 0.022997444 -0.9172031
000390 2e e1 47 ba 0e 10 60 bf d1 77 ff 3b 6d 52 bf 3b
       -0.0007624802 -0.875245 0.0077962657 0.0058386833
0003a0 26 19 22 3b 3f 88 33 bf e7 8e 53 bc 2b 47 8c 3b
       0.0024734228 -0.7012977 -0.012912489 0.004280945
0003b0 f3 27 8c bf 92 27 47 bf 95 8f e0 bb b6 a5 31 bf
       -1.0949692 -0.77794755 -0.006853054 -0.6939348
0003c0 66 9d 3d bf 70 bf 9a be 04 4c 6e bf fe 57 89 bf
       -0.74068296 -0.3022418 -0.9308474 -1.0729978
0003d0 8e a7 b4 3b b9 e5 19 bb f3 d5 71 bf 5c 10 d0 bc
       0.005513138 -0.0023482873 -0.94467086 -0.025398426
0003e0 3c 38 42 bf 10 db 91 bb 51 a6 1b bf 36 b2 10 bf
       -0.75867057 -0.004451163 -0.60800654 -0.5652193
0003f0 96 5e 86 bb 6d da 73 bf e3 8b 4a bf 39 85 4e bf
       -0.004100631 -0.95255166 -0.791197 -0.8067203
