src/Models/stage_2/400_actor.pt (torch_old, 382508 bytes, 6 tensors)

fa1.weight f4 [300, 14]
00000000: d797 83bd e5a1 9ebc 60f4 1bbd 2bbb efbd
00000010: 5467 97bd 5089 3bbc 6cc3 83bd 8d31 a5bd
00000020: 4bb7 3bbd 2fa6 e5bd 0cc6 3ebd 893f 333b
00000030: c1ea 88be ef85 52bd ee62 423d 6e6d 5cbd
00000040: d06f 11bb d4dc 5b3d 587b c13d 6136 673d
00000050: 860b 463d 775c 3dbb 942a 773c ed86 e5bc
00000060: d426 a93b ce50 14bc 9fd3 503f 9f12 6fbc
00000070: 8c2e 96bd ae27 53bd bc84 90bc ad4b 20bd
00000080: f6df 35bd 1f69 66bd 062c 09bd 3797 6c3a
00000090: 5b7b 8cbd 94c3 babd 4a59 9bbd 6625 a1bd
000000a0: 83d8 b03d 7404 07bb 184b 3fbe bd1c b43d
000000b0: 4078 f1ba 7d6e 823c c83c 8a3c f338 d23d
000000c0: 3e49 3bbd 54f5 2cbc f3e4 cfbc 224a 1c3c
000000d0: d4bc 073b db7d b9be bfaf adbe ff0a 523d
000000e0: 803a b0ba 3498 91bd 7b65 d03c 39bd 2dbc
000000f0: 2f07 83bd 207a 28bd 7ef1 cabd 317e 4abb
00000100: 8793 af3a bfab 62bd 3a82 9abd 5c96 abbb
00000110: d804 8b3e 9a06 78bc de00 c9bd 73a8 9abc
00000120: 460b ddbb ab69 90bd e4e4 dfbc 7b44 04bd
00000130: f6c1 24bd 5ac2 cdbc 4b3a 6ebd 3e8c f9bc
00000140: 87cb debc 11cd 8dbc 6c0f 863e 2b1f 82bd
00000150: ff1b 40bd cd90 e9bc 87d6 5cbd 3598 a03b
00000160: 2624 153d 7274 4ebc 14c7 403c 9589 023b
00000170: 7871 d43c 9ea9 b3bc a206 5f3c bd60 623c
00000180: ac7f 803b 57ae 60bc 363f 07bd c9fa 8fbd
00000190: 159c 3dbd ce90 23bd 9114 0dbe 8d41 f1bd
000001a0: a1e9 06bd 05e8 963b 3ff5 8fbd bdec 303c
000001b0: 9ecb 0dbd f077 8b3b 6b81 db3d 8ccc 413b
000001c0: fd6a 7abd 1e35 efbb de3e 53bd b9de 203d
000001d0: cc49 c43c df7c 2abd 71b3 dd3c e7db 323d
000001e0: 5d8c 66bd 8848 86bd e49a 6c3b 2b1c 0cbd
000001f0: e442 49bc 181a c2bc b7d2 b93c c8d3 41bd
00000200: 6b87 07ba 0a21 73bd 6035 263d 26f2 2bbd
00000210: 25ae 04bc d2b2 31bd 6aec c53c 5675 e4bc
00000220: 7f88 9e3b ec92 c4bb 3a73 31bc aa92 f2bc
00000230: bd5f 0ebd 7366 16bd 3dc7 843b 1247 0dbd
00000240: 38b0 483c f467 213d 2155 033d cae2 71bd
00000250: a011 553c 8c60 4ebd a456 063d d989 0cbd
00000260: e13b ccbc 0a41 2c3d 0cfc 95bd 16e0 2cbd
00000270: 2059 a2bd 3f41 13be 3cef 8bbd 4dd9 3d3d
00000280: b7af 593d 39f0 823d d77e 67bc b800 32bc
00000290: 8281 88bc 3b63 383d 6c64 743e 6cf5 29bd
000002a0: 4461 8fbd 2878 2abd e5a7 b5bd 750d 89bb
000002b0: 507b b33d 1d57 3e3d 1af8 c2bd 4ca1 23bc
000002c0: 52b8 81bd fae7 54bd aa39 b4bd 0bb8 4cbe
000002d0: ecfd 9dbe f830 32bd 0677 723d 2fba 9b3d
000002e0: 476d 563d 692f 7fbd 165b 63bb e1be 59bd
000002f0: 3547 093d d1cf 3a3d 37b7 503b c5cb 99bc
00000300: 3cf9 b03d 393a 203e fb07 13bf 4844 f13b
00000310: ecc1 49bd 4f82 0cbd 5c05 593c 6508 da3c
00000320: 9beb 97bc 6506 353d e736 37bd 76ca 3bbd
00000330: 1e98 cf3c a598 32bd 7363 3e3d f81f 093d
00000340: c7a5 90bc 3d76 02bd d265 9abb ca08 b2bb
00000350: 6ba5 21bd 2ad6 67bc 4ad9 babd 2a11 643b
00000360: c4b7 ea3c be77 ddbc 8530 8bbc 3ec3 bebd
00000370: 2483 84bd ed22 63bc 5692 823e 8a64 763d
00000380: 5118 43be 6b0e 303d 64d1 243b a95a 72bd
00000390: 6c80 3d3d f4c6 0dbd 2556 053d 427d 98bc
000003a0: 8104 d5bb a012 44bd 372c 1f3d 8087 1abe
000003b0: 7f20 99be e554 d9bd d78b 453d 8b08 81bd
000003c0: a832 97bd 3093 79bd 5c14 a23d 2608 293e
000003d0: 1853 19bd e0e3 6fbe 0a66 1cbd b931 923d
000003e0: 18f1 d23d 8224 803e c0fe 10be aba9 afbc
000003f0: b202 cfbd 6c82 1abe 903e 033e 146b 8e3d
-0.064254455 -0.019364307 -0.03807485 -0.11705621 -0.07392755 -0.011446312 -0.06433758 -0.08066092
-0.0458291 -0.11213338 -0.04657559 0.0027351102 -0.26741603 -0.05139726 0.047457628 -0.053815298
-0.002219189 0.053677395 0.09447354 0.056448344 0.048350833 -0.0028894225 0.015085835 -0.02801844
0.0051620994 -0.009052468 0.8157291 -0.014591842 -0.07333097 -0.051551513 -0.017641418 -0.03913467
-0.04440304 -0.056252595 -0.03348925 0.00090252183 -0.06859466 -0.09119335 -0.0758539 -0.07868461
0.08635046 -0.002060202 -0.1868099 0.08794544 -0.0018422678 0.015921826 0.016874686 0.102647685
-0.045724146 -0.010556538 -0.025377726 0.009539159 0.0020711916 -0.36228833 -0.33923146 0.051280018
-0.0013445169 -0.071091086 0.025439015 -0.010604196 -0.063978545 -0.041132092 -0.09909342 -0.003089797
0.0013395407 -0.05533957 -0.0754437 -0.00523643 0.27152133 -0.015138293 -0.098146185 -0.018879151
-0.0067457287 -0.070514046 -0.027330823 -0.03229187 -0.040224038 -0.025117088 -0.05816106 -0.03046238
-0.027196659 -0.017309697 0.2618364 -0.06353601 -0.0469017 -0.02851143 -0.053915527 0.004900957
0.036411427 -0.012601005 0.011766214 0.001991843 0.025933012 -0.021931466 0.013612421 0.0138170095
0.0039214697 -0.013713441 -0.033019267 -0.07030255 -0.04629143 -0.03993302 -0.13777377 -0.11780081
-0.03293765 0.0046052956 -0.07029199 0.01079863 -0.034618013 0.004256241 0.10718044 0.0029571382
-0.06113719 -0.0073000332 -0.051573627 0.039274905 0.02396097 -0.041622993 0.027063103 0.043666746
-0.056286205 -0.06556803 0.0036103064 -0.03420655 -0.012284014 -0.023694083 0.022683484 -0.04732111
-0.000517002 -0.05935768 0.040578246 -0.041978978 -0.00809816 -0.043383427 0.024160583 -0.027887981
0.004838049 -0.0059989598 -0.010830695 -0.02961095 -0.034759272 -0.036718797 0.0040520714 -0.034491606
0.012249045 0.039405778 0.032063607 -0.059054174 0.01300469 -0.050385043 0.03279747 -0.03431115
-0.024930896 0.042054214 -0.07323465 -0.042205893 -0.079271555 -0.14380358 -0.0683274 0.046349812
0.05314609 0.06393475 -0.014129362 -0.010864429 -0.016663317 0.04501651 0.23866433 -0.04149382
-0.07000974 -0.041618496 -0.08869914 -0.0041825124 0.08763754 0.046469796 -0.09519978 -0.009987187
-0.063339844 -0.051979043 -0.08800061 -0.19992082 -0.3085779 -0.04350373 0.05919554 0.07603871
0.05235031 -0.062301073 -0.0034691743 -0.053160552 0.033515174 0.045608345 0.0031847486 -0.018773923
0.08641288 0.1564721 -0.5743405 0.007362876 -0.049257204 -0.03430396 0.013245907 0.026615331
-0.018544963 0.04419555 -0.044730093 -0.04584738 0.02534109 -0.043602604 0.04648156 0.033477753
-0.017657174 -0.031851042 -0.004711845 -0.0054331766 -0.039464395 -0.014150182 -0.09123476 0.003480027
0.02865208 -0.027034637 -0.01699091 -0.09314583 -0.064703256 -0.013863307 0.2550227 0.060154475
-0.19052245 0.0429825 0.002514922 -0.05916849 0.04626505 -0.034613565 0.032552857 -0.018614415
-0.006500781 -0.047869325 0.038860526 -0.15090752 -0.29907605 -0.106118955 0.048229065 -0.063004576
-0.07382709 -0.060931385 0.079140395 0.16507015 -0.03743276 -0.23426771 -0.03818325 0.0713839
0.10299891 0.25027853 -0.1415968 -0.021443209 -0.10107936 -0.15088814 0.12816834 0.06954017

fa1.bias f4 [300]
00000000: bf52 123c 47ab 84be e15a b53d ec82 9c3c
00000010: 5c2c c63d 1166 4f3e d5bc 21be 5990 163e
00000020: 07fb 7fbe 534d 45bc a109 81be fc06 4ebe
00000030: 819b 763e 9111 d2bd f5b9 73be f227 43be
00000040: 4bc1 0fbc 73a9 08be f02b 083d 3d85 04be
00000050: bfe5 c83d b1f9 83bd 58ac 06be 55d9 aebd
00000060: fa5a 2e3d a2cd 7cbe 2065 a2be e9b5 14be
00000070: 0ae6 90be 906e 54bd 8c18 64be 5e0d 193e
00000080: 7b7a 523e 99e6 38bd 9048 023e 4aa0 513e
00000090: 8216 45be 0ad5 f73d 0b61 59be 4cde 6ebe
000000a0: a2e0 593d 31b6 32be c560 a73c 22ff 30be
000000b0: 9929 8a3d b446 e4bd e008 b03d bf5d f6bd
000000c0: e676 6f3b 027d 06be 05a3 2ebe b465 683d
000000d0: 9d06 eabc b053 3c3e 84a3 84be 05a7 8fbe
000000e0: 98cf 9abe 285f c0bd 502a 99bd fe3d 5abd
000000f0: 1888 bb3e 77d6 913d f9bd 963e 16c3 e73d
00000100: 2546 9bbd 8d44 fdbc d5fc 05be 559d acbd
00000110: 755c 6dbe 05dd 4e3e 03f1 1f3e d08f 9cbd
00000120: 0d07 27be 3bca c63d db3b 8dbe 76a5 e1bd
00000130: 07c4 ebbb 2d44 da3d 7bf8 44bd 63cc 9dbe
00000140: 3afc 3abd c4e2 d93d 2fa4 383e b0e2 b8bb
00000150: f4d0 90bd e25c 29bb 3d9e 0ebe 9053 113c
00000160: 4e1d 6abe 63be 9f3d 2d24 9e3d 506b aebd
00000170: 3af0 c6bd be4d 0e3e 914b adbd 770c 33be
00000180: 31e4 5c3d 6d73 56be 08e8 90be 478b 1ebd
00000190: fe20 013e 7763 023e c6b6 86be af93 87be
000001a0: 11e4 bfbd e44a 04be 83c9 70be 4136 89be
000001b0: fb6e b43e 76f6 633c 9829 a9be 325a b2be
000001c0: fe06 86be 4f5f 17be a6ce 3dbe 6a6d bf3d
000001d0: 587b 42be 0277 313e 8f81 9c3e b7ea 9abe
000001e0: e151 d6bc ab1a 833c 4fad 1bbe ae11 3ebe
000001f0: 1719 44be 73cb 963e ec1b 963e 5526 12bd
00000200: bb23 6ebe 2f94 cdbd dca2 503d 2e3b c0bb
00000210: acda dabd 941d 2bbe 527a 073c 5aa8 edbd
00000220: d161 34be 1d23 abbd 16fd 06be 91ca 22bd
00000230: fcfb 87be bfec 493e 6b74 ff3c f132 453e
00000240: e71f 9d3e f3f0 82bd 403e 9e3e 4a66 56bc
00000250: 3abc 99bd 1a93 8cbe 6875 303e 55a5 6bbe
00000260: b827 fb3d 6f2e 093e 5e4b 46be 5945 363e
00000270: 3d81 e83d 10dd 65be a1b0 0bbe c66e 4dbe
00000280: 691a f0bd a8d9 88be f407 f63c 60d9 f3bd
00000290: 56fb 893c 885e 60be de4e b2be 1689 febd
000002a0: 012e c9bd 1a9a a8bd 746e 1abe f142 e3bd
000002b0: 54b1 03be fa86 593e 4277 79be c62e adbe
000002c0: 78f9 4e3d bd53 503d c21b 3cbe de35 093e
000002d0: cf44 bfbd 16ed ff3d 5871 9cbe b568 a23d
000002e0: 2d78 5d3d 9b40 c7be 5487 dc3d dbc3 693d
000002f0: 2ebd 9f3d 4df8 3cbe ac95 77be d2ba 2bbe
00000300: adb0 2dbe cab1 ebbd 7e01 5bbe 90d1 52be
00000310: 3f20 82be 781b 33be 53b8 b43d 71ee 9b3d
00000320: 1d33 1abe e0f6 253e 5ec0 4fbe 14b4 443e
00000330: d40c a0bd e2ed b8bc 039a 4abd 62b0 8cbe
00000340: 323c 453e 364b 073e ce63 5bbe 3849 4d3d
00000350: 47a9 61be 76d1 82be 6c61 f3bd 9e1f bdbe
00000360: 52b9 62be 7e05 20be 225b 8abe 2ffd ee3d
00000370: 0320 783e 80f8 08be 0597 893e 5531 33be
00000380: c7c4 3abe abeb 0e3e ed61 77bd a8a4 173d
00000390: 5812 4abe 3c79 553d 793e 72be 143b 7dbe
000003a0: 5f1d abbd 6f97 77be 2c5e 9b3e f9d5 173e
000003b0: 2274 0cbe 8f9b 793e 9769 913d a6a0 183d
000003c0: 53af 93bb 7e63 9d3e 553a 62be a172 9b3b
000003d0: 62ac d83c fd31 19be 6e70 383e aac0 723e
000003e0: 23a5 3c3e 0785 64be 6f14 37be c51b 51be
000003f0: 8dbb 043d 78ae 60be 1cc4 ec3d 4eca 06be
0.008930861 -0.25911924 0.088552244 0.019105397 0.0967643 0.20253779 -0.1579469 0.14703502
-0.24998103 -0.012042361 -0.2520266 -0.20119852 0.24082758 -0.10257257 -0.23801406 -0.19058207
-0.008774112 -0.1334589 0.033245027 -0.12941451 0.098094456 -0.06444109 -0.13151681 -0.085375465
0.04256723 -0.24687818 -0.31717777 -0.14522518 -0.28300506 -0.051863253 -0.22274989 0.14946505
0.20554535 -0.04514179 0.12722993 0.20471302 -0.19246867 0.12101181 -0.21228425 -0.23326987
0.053192742 -0.17452313 0.020431885 -0.17284825 0.067462154 -0.11146298 0.08595443 -0.120295994
0.0036539375 -0.13133624 -0.17054375 0.056737617 -0.028567607 0.18391299 -0.25906003 -0.28057113
-0.30236506 -0.093931496 -0.074787736 -0.053281777 0.3662727 0.07120984 0.29441813 0.113165066
-0.075817384 -0.030916477 -0.13084729 -0.08428446 -0.23179801 0.202015 0.15619282 -0.076446176
-0.16311283 0.09706541 -0.2758473 -0.11017887 -0.007194999 0.10657535 -0.048088532 -0.30819997
-0.0456507 0.10638955 0.18031381 -0.0056422576 -0.07071105 -0.0025842716 -0.1392755 0.0088700205
-0.22862741 0.07799985 0.07721744 -0.08516562 -0.09713788 0.13896844 -0.08461679 -0.17485224
0.053928558 -0.20942469 -0.28302026 -0.038707044 0.12610242 0.12733255 -0.2631132 -0.2647986
-0.09369672 -0.12919194 -0.2351437 -0.26799205 0.3524092 0.013913741 -0.33039546 -0.3483444
-0.2617721 -0.14782451 -0.18535861 0.09347041 -0.18992364 0.17330554 0.30567595 -0.30257198
-0.02616209 0.016003927 -0.1520283 -0.18561432 -0.19150196 0.29452094 0.29318178 -0.035681088
-0.23255818 -0.100380294 0.050936565 -0.00586643 -0.106862396 -0.16710502 0.0082689095 -0.11604376
-0.17615439 -0.08356307 -0.13182482 -0.039743964 -0.26559436 0.19719218 0.031183442 0.19257714
0.30688402 -0.06393614 0.30906868 -0.013085911 -0.075066045 -0.2745598 0.17232287 -0.23012288
0.12263435 0.1339662 -0.19364688 0.17799892 0.11352775 -0.2244761 -0.13641597 -0.20061788
-0.11723787 -0.2672856 0.03003309 -0.11906695 0.01684348 -0.21911061 -0.34825796 -0.12428491
-0.09823228 -0.082325175 -0.15081197 -0.110967524 -0.12860614 0.21242896 -0.243619 -0.33824748
0.05053088 0.05086111 -0.18369964 0.13399455 -0.09339296 0.124963924 -0.30555224 0.079301275
0.054069687 -0.38916478 0.10767999 0.057071548 0.07799755 -0.18454094 -0.24178189 -0.16770485
-0.16961928 -0.1150852 -0.21387288 -0.20587754 -0.25415227 -0.17490947 0.088242196 0.076138385
-0.1505856 0.16207457 -0.20288226 0.1920932 -0.07814947 -0.022574369 -0.049463283 -0.2747832
0.19261244 0.13212284 -0.21424791 0.050118655 -0.2203723 -0.2555043 -0.11883816 -0.36938184
-0.22141007 -0.15627095 -0.27022654 0.11669385 0.24230962 -0.13376045 0.2687303 -0.17499287
-0.18239127 0.13957088 -0.060396124 0.037022263 -0.1973356 0.05211757 -0.23656644 -0.24729568
-0.083552115 -0.24178861 0.30345285 0.14827718 -0.13716176 0.24375747 0.07100218 0.03726258
-0.0045069843 0.3073997 -0.22092564 0.0047438894 0.026449386 -0.14960475 0.18011639 0.23706308
0.1842237 -0.22316371 -0.17878889 -0.2042075 0.032405425 -0.21941555 0.115608424 -0.1316311

fa2.weight f4 [300, 300]
00000000: efa4 f1bc 071c a2bc b1b9 b9bc 5ae7 46bd
00000010: c2a2 b0bc a1fb f63c e39f 023d ae71 363d
00000020: 1a6f c9bc 19ed a83c 996b c13b 0f4d 3ebd
00000030: 3c3e 98bd 3d20 52bd f78c 0d3d 4e05 94ba
00000040: 2a3b 04be fc34 9cbc 672d 0abd e80a 8a3b
00000050: 2eb6 b53b 621e 2d3c d684 123d aca1 f53c
00000060: f541 25bd 38f8 d53b e13a 11bd e134 d4bd
00000070: 2788 21bd 5cf4 1bbd d2e1 693c bd55 90bd
00000080: 7fc8 ef3c ab60 6b3d 5aed 95bc 3d6f 87bc
00000090: 9f05 7dbd 57de 2d3d 3418 503d 80d2 203b
000000a0: 31ac abbc 215e 433d 0818 e73c c20e b13c
000000b0: 5606 193c 2ceb 6cbd b8de 973c 831b 9ebd
000000c0: 6d92 643d 7ffa 4ebc 59ac 16bd 6b24 47bc
000000d0: 85f1 d3b9 bf40 7abd 805f dcb6 cf34 cb3c
000000e0: 561e cfbd 96d7 81bb ec19 d5bc 856a 23bc
000000f0: 6b2b 51bd 8688 653d 2d70 20be 0477 4f3d
00000100: b858 fabc 475f 91bc 3341 e4bc 71dc 15bd
00000110: 6bd7 333d 2f30 283d 3781 1cbd 838f 6b3d
00000120: d1fa 64bd 5885 dabc 5476 ef3c 84d6 86bc
00000130: fa87 69bd af56 49bc 7b64 4f3d 4735 353d
00000140: c539 08be 6d0b eabd 281a 5e3d c4b7 0dbc
00000150: bcff eabd 56c8 30bc 7e44 df3b ae29 833d
00000160: 9b62 323d d2d2 d0bc 9884 a4bb 5174 b1bc
00000170: bd91 053b 4ace 3ebc a5bf a7bc 055c 33bd
00000180: ad39 f3bd a490 693d 0261 913d 60ce c0bc
00000190: b783 08bc 0add 1abd ff86 0fbd 82f9 dabc
000001a0: 2a17 823d 404f 06bd 236b 2dbd 2e95 b13c
000001b0: 3720 96bc 6d71 383c 2a93 1b3b c753 76bd
000001c0: 3a33 7b3d 1ca3 8ebc 0a84 4abd 28ff f5bc
000001d0: 985a ae3c 579d c0bc 57d7 5ab9 d2e5 523d
000001e0: acac 0e3d b764 c43c d17a 9bbd b9f7 33bd
000001f0: 8667 66bc 4dc4 0dbe 26cb 3abd ce88 e4bd
00000200: a4c1 c03c bdf0 a4bc 30a4 993c 0e0b 5a3d
00000210: f0e6 cf3c 67f6 a1bc 1e06 60bd 77da 50bd
00000220: a25d 4bbd 5f6e 07bd d167 7b3d ab0e da3c
00000230: 863f 163d 3947 37bd 6ee8 1abd 52bb d53b
00000240: 9fff b1bc ef30 f1bc fed0 c2bc e654 243d
00000250: e361 e8bc 090a 9bbd 35c0 cabd 86e3 d9bc
00000260: d28a bdbc f18a 7ebd cc9f 283d bde9 5a3d
00000270: 034f 06bd 8083 993c a55a 24bd 6444 aa3c
00000280: 0c74 613d bfbd 703c 51db c3bc 13d2 d9bc
00000290: fe15 afbb 40c2 423c 0d89 f1bd 9b3c ecbd
000002a0: e865 04bd 45a2 01be 40bf 65bd 3ede febc
000002b0: 28de 31bd b326 093d e026 5f3b 63ef 6a3b
000002c0: 9628 15bc d5f3 28bd 5225 18bd 3913 603d
000002d0: 2fbf 69bd db3f 31bd 6926 133d ff86 bbbb
000002e0: cdff 64bc 185f af3c 9ee9 4ebc 56c1 243d
000002f0: c18b 313d 9e96 eebd 6377 2dbc 47bb 40bd
00000300: bd2b 37bc f7ad 8dbb f87b 27bd a8c7 ba3c
00000310: c621 c3bc e835 92bc 27e6 303d f48e f5bc
00000320: 6b29 89bc eb8e 3e3c 87f2 1a3d 2acf f4bd
00000330: d776 8cbd 4c0b 033c 7cac 18bd 80df b7bd
00000340: caeb 4c3d 42b9 3bbd 3a55 223d 0342 debc
00000350: 20c1 05bd 2200 62bd 12f9 76bd a9a2 8fbd
00000360: 5950 acbc ec8a 96bc 1907 31bd 0ee2 b6bc
00000370: 5704 f1bc 0c0c 883d c5ce 27bc 8613 8ebb
00000380: 1061 1abc 5c03 84bd a503 bb3c b8da e9ba
00000390: 4b4a 4dbd 3253 143d c6ac 0f3d 5d04 1bbd
000003a0: ad1a 8a3d 2075 0e3d 9800 7dbd 7593 21be
000003b0: c214 8b3d 3671 40be 2ecd 1dbd 452d f5bd
000003c0: bc09 dcbc c265 ddbc 3828 023d c7bd 53bd
000003d0: 55ae cdbd e06e ddbc afc6 98bd df01 a6bc
000003e0: 624f dc3c cc48 00bd 2269 b0bc 23b5 99bc
000003f0: eb54 bbbd 798f d03c 8a28 5abd da25 b7bb
-0.029497592 -0.019788755 -0.022671552 -0.048560478 -0.021561984 0.030149283 0.03189076 0.044542007
-0.02458911 0.02062087 0.005902719 -0.046460208 -0.07433745 -0.051300276 0.034558263 -0.0011293085
-0.12913194 -0.019068234 -0.033734705 0.004212726 0.005545399 0.010566326 0.035771213 0.029984318
-0.040346105 0.006529834 -0.035456542 -0.10361648 -0.039436486 -0.038074836 0.014275031 -0.07047603
0.029270409 0.057465237 -0.018301655 -0.016532535 -0.06177294 0.042448368 0.050804332 0.002453953
-0.02095613 0.04769719 0.028209701 0.021613482 0.0093398895 -0.057841465 0.018538818 -0.07720091
0.055803705 -0.012632965 -0.036785457 -0.012154679 -0.00040425002 -0.061096903 -6.5676286e-06 0.024805455
-0.10113208 -0.0039624674 -0.026013337 -0.009974127 -0.051066797 0.056038402 -0.15667792 0.05065061
-0.030559883 -0.017745627 -0.02786312 -0.036587182 0.04390661 0.041061576 -0.038209166 0.05750991
-0.05590326 -0.026674911 0.029231228 -0.01645971 -0.057014443 -0.012288733 0.050632935 0.044240262
-0.13303287 -0.114279605 0.054224163 -0.00864977 -0.11474559 -0.010789951 0.006813585 0.06404434
0.04355107 -0.025491152 -0.005020689 -0.02166191 0.0020381056 -0.011645863 -0.020477125 -0.04378893
-0.11876235 0.057022706 0.07098581 -0.023535907 -0.0083321845 -0.037808456 -0.03504085 -0.026730303
0.063520744 -0.032790422 -0.0423385 0.02167758 -0.018325908 0.011257512 0.002373884 -0.06013849
0.06132815 -0.017411761 -0.04944233 -0.030028895 0.021283433 -0.023512525 -0.0002087032 0.051488705
0.03483264 0.023973806 -0.07591785 -0.04393742 -0.014062768 -0.13844414 -0.045603894 -0.11158906
0.023529835 -0.020134324 0.018755049 0.0532332 0.025378674 -0.019770814 -0.054693334 -0.050989594
-0.049649842 -0.033064242 0.061378304 0.026618322 0.036681674 -0.044745658 -0.03781932 0.0065225745
-0.021728335 -0.029442279 -0.023781296 0.040120028 -0.028366989 -0.075702734 -0.09899942 -0.02659775
-0.023137484 -0.062144224 0.04116802 0.053445566 -0.032790195 0.018739462 -0.040125508 0.020784564
0.05504231 0.0146936765 -0.02390829 -0.026589429 -0.005343198 0.011887133 -0.117937185 -0.11534997
-0.032323748 -0.12659557 -0.056090593 -0.031111833 -0.043424755 0.033484172 0.003405027 0.0035848252
-0.009103915 -0.04124816 -0.037144966 0.054705832 -0.057067093 -0.043273788 0.035925303 -0.00572288
-0.013977003 0.021407649 -0.012628941 0.040223442 0.04334617 -0.11649822 -0.010587546 -0.0470536
-0.011179862 -0.0043237167 -0.04088971 0.022800282 -0.023819815 -0.01784797 0.04318824 -0.029975392
-0.016743382 0.011630754 0.03782895 -0.11953576 -0.068586044 0.007998299 -0.03727387 -0.08978176
0.050029553 -0.045830972 0.03963206 -0.027131086 -0.03265488 -0.055175908 -0.060296126 -0.07013447
-0.021034406 -0.01837679 -0.04321966 -0.022324588 -0.029421015 0.06642923 -0.010242169 -0.0043358235
-0.009422556 -0.06445953 0.022828886 -0.0017841673 -0.05011968 0.036212154 0.03507688 -0.037845958
0.06743369 0.034779668 -0.061768144 -0.15778907 0.067910686 -0.18793187 -0.038525753 -0.11971525
-0.02686011 -0.027026061 0.031776637 -0.051694658 -0.10043017 -0.027030408 -0.07459771 -0.020264564
0.026893321 -0.031319425 -0.021534506 -0.01876313 -0.09147056 0.025459038 -0.053261317 -0.005589229

fa2.bias f4 [300]
00000000: c46c 19bd 2503 6abd 53bc 53bd b98b 62bd
00000010: 8035 16be 6c42 943c 1f4c c73c 7ba9 9dbc
00000020: 2386 03be 653d bbbc 3d8e 95bd 01b3 063d
00000030: 79fc a6be 9f8a fcba 724c 59bd 2973 8dbe
00000040: 926d 88bd 5585 8fbd 4c53 abbd 1d66 ddbc
00000050: 4a7f 80bd 7710 333b 0272 5dbd 52ab 8ebc
00000060: b674 1ebd aa9c c43c 1453 54bc c2d5 c0bd
00000070: a8f8 15be 9132 bebe 94fa 86bd 3d44 55be
00000080: e468 03bc 435b 76bd 99cb acbd 6d4a 8fbd
00000090: 033f 38bc 50ba 64bd 364b 7fbd ff27 98bd
000000a0: 75f0 9c3c bfae 0c3e e716 ed3c 8aca 213e
000000b0: f5d9 d9ba 76e1 adbd 8f6a 25bd 382a e6bd
000000c0: 0e9c 82bd c918 173f 7608 03bd 00fc 26bc
000000d0: 1744 4ebd aa93 c8bd 172b 643c 90f5 21bd
000000e0: 6c72 2f3e 1a04 a2be 1826 2bbc d83e 29bd
000000f0: adc1 96bd d055 56bd f40d 8f3d 30f6 b7bd
00000100: 7e45 063c d2f0 8abd b544 d03d e01f f6bc
00000110: fac8 1b3c 1950 8cbc f29e 8ebb 95cd 48bd
00000120: 3382 a73c 231e 3dbd 2533 65bd f093 2abc
00000130: 2d71 a0bd 11ed 65bd bc57 53bd 410f 38bd
00000140: 84dc c5bd 992e 14be 2661 7fbe 3c65 92bb
00000150: a65a d2bd faeb c5bd e13a 2abd 07af 35bd
00000160: fede 6fbe 0d8f 7ebd b4b8 6fbe 8a40 5cbd
00000170: 5302 8dbd e07f 45bd 50c6 a33a 9ebc 29ba
00000180: 0cea 61bd 4f9f 22bd fa51 263b 5a3a 0bbd
00000190: a975 223c 7553 b8be 68cc 8fbe ed70 9abc
000001a0: 6f0d b0be 08dc 89bd 359a 3b3c e410 5dbe
000001b0: 9109 a3bd 6eb6 d4bc 6dcf 7cbd 13b3 5ebd
000001c0: d4f9 80bd 558f 79bd 2a94 89be b456 38bd
000001d0: 8be9 2ebd b84d c4bd 497c 983c 2242 74bb
000001e0: 8c21 66bd 3bbe 30bb a760 a3bb e3aa 1abd
000001f0: b810 eabd 3f82 a5bc dc28 91bd 391f 72bd
00000200: 1e8f 44bd 9072 cbbd ad92 5dbd 7c8b bdbd
00000210: 6763 69bc 8a10 a3bd 91bb 8cbd 0977 c3bc
00000220: 8aae b4bd 24e7 88bd 96e6 313d d8be 8bbd
00000230: c90f a8be 7272 c9bc 6426 17bc 0554 57bd
00000240: 1d36 5dbe b0ad 8cbd 25df c0bd 6209 9fbd
00000250: 1cde 5a3c 9cf4 60bc f0c3 96bd b50c c1bb
00000260: 4bbd 97be 5195 3bbd ce67 8abd 3d99 82bd
00000270: f447 c6bc 25b5 89bd c02f 943b 4e20 a1bd
00000280: 3068 dd3a 0f1d 20bd efe9 29bd 0701 b9bd
00000290: 3a02 01bd c6ce 2f3c ff43 bebd 4c92 e1bd
000002a0: 820a 88bd b09e 55bd afdd 0b3c 08b1 dcbc
000002b0: 09c3 97bd 6698 aebd 2188 2fbd 0434 c43b
000002c0: d732 01bd 853b 91bd f88f 47be 51f3 27bd
000002d0: 6181 9dbd 60dd 08be 2749 20bd cf67 8bbd
000002e0: f279 61bd d835 dbbc 68ce a6bd c8da 473d
000002f0: 0c96 83bc be05 0cbd 6149 6bbd 9f76 4abd
00000300: ad4c a8bc 829f 77bd 77bf 86bd 6d2f 0cbe
00000310: 1bc0 b2be 557d e3bc 50dd aebb bc85 a6bb
00000320: ad00 36bd 9053 8bbd 7b25 dabc 6913 17bd
00000330: f499 b6be 6a2a 00bd bb34 6abe 8b16 28bd
00000340: 050b bebd 4cdd 8dbe c960 75bd 4342 b2bd
00000350: ebd5 babd 1b13 133c 4cd3 2fbd 27a0 a2bd
00000360: 00b5 5abe 4333 4fbe cb41 77bd 994b a73c
00000370: a3d5 70bb d425 acbd fb9c 89bd 8d3f 903c
00000380: 0294 6a3d c2cf b33c 7a0b 16bd ec93 5fbc
00000390: 4f2d 77bd c39d e6bc 20b9 77bd c02c 1cbd
000003a0: f10a 3dbd 5da4 c53b 7e4c 683c dab4 6dbe
000003b0: 7159 b5be d3a5 7fbd 8a69 88be 5155 64bd
000003c0: d2dd c6bb 8bcc 99bd 7c51 0aba f085 64bc
000003d0: 9c07 a7bd 2803 5bbd a7e9 9ebd 261c 49bd
000003e0: cddc 6dbe 8daf 973b 60ca 7dbe b055 89bd
000003f0: 10ef d2bd 73be 8fbe 7b5e 17bd abf0 f73c
-0.037457243 -0.057131905 -0.05169327 -0.05530903 -0.14668846 0.018098079 0.02432829 -0.019245854
-0.12844138 -0.022856424 -0.073025204 0.032885555 -0.32614496 -0.0019267387 -0.05305142 -0.27626923
-0.06661524 -0.07007853 -0.08365497 -0.02702623 -0.062742785 0.0027323046 -0.054063804 -0.017415676
-0.038685523 0.024000484 -0.0129592605 -0.09415771 -0.14645636 -0.37147954 -0.06590763 -0.20826812
-0.008020613 -0.060145628 -0.08437271 -0.069966175 -0.011245492 -0.055841744 -0.062327586 -0.07429504
0.019157628 0.13738535 0.028941585 0.15799919 -0.0016620742 -0.08490269 -0.040384825 -0.11238521
-0.06377421 0.59022194 -0.03199049 -0.010191917 -0.050357904 -0.0979379 0.013926289 -0.039540827
0.17133492 -0.31643754 -0.010446094 -0.041319698 -0.073611595 -0.05232793 0.06985083 -0.089825034
0.008195279 -0.06784214 0.10169355 -0.030044496 0.009508366 -0.017128037 -0.004352444 -0.049024183
0.020447826 -0.04617132 -0.05595698 -0.010411248 -0.078340866 -0.056134287 -0.051597342 -0.044936422
-0.09661201 -0.144709 -0.24939403 -0.0044676345 -0.10271196 -0.096641496 -0.041560058 -0.044356372
-0.23424909 -0.062148143 -0.23410302 -0.053772487 -0.06885209 -0.048217654 0.0012495015 -0.00064749445
-0.055154845 -0.03970271 0.0025378452 -0.033991195 0.009915748 -0.36001173 -0.28085637 -0.018852675
-0.3438525 -0.06731421 0.01145034 -0.21588475 -0.07960809 -0.025965896 -0.061721254 -0.054369997
-0.06297651 -0.060927708 -0.26870853 -0.04500456 -0.042703193 -0.09585136 0.018613951 -0.0037270864
-0.056184337 -0.0026968855 -0.004985887 -0.037760627 -0.1142897 -0.020203708 -0.070878714 -0.059111807
-0.04798805 -0.099339604 -0.05409496 -0.0925512 -0.014244891 -0.07962139 -0.06871713 -0.023860471
-0.08822353 -0.066847116 0.043432795 -0.0682351 -0.32824543 -0.024590705 -0.009225462 -0.05257036
-0.21602674 -0.06869066 -0.094175614 -0.077654615 0.013358619 -0.013730194 -0.07361591 -0.0058914074
-0.29636607 -0.045796696 -0.067580804 -0.06376884 -0.024204232 -0.06724004 0.004522294 -0.0786749
0.0016892012 -0.039090212 -0.041482862 -0.09033399 -0.031496264 0.010730451 -0.09290313 -0.11014232
-0.06642629 -0.05215329 0.00853674 -0.026939884 -0.07410247 -0.085251614 -0.042854432 0.005987646
-0.031542625 -0.070914306 -0.19488513 -0.04100353 -0.07690693 -0.13365698 -0.039132264 -0.06806909
-0.055047937 -0.026759073 -0.081448376 0.04879263 -0.016062759 -0.034185164 -0.057443026 -0.049429532
-0.020544374 -0.060454853 -0.06579488 -0.13689966 -0.3491219 -0.027769724 -0.005336441 -0.0050818603
-0.04443424 -0.06803048 -0.0266292 -0.036883745 -0.35664332 -0.03129045 -0.22871678 -0.041037124
-0.092794456 -0.277079 -0.059906755 -0.08704045 -0.09122833 0.008976723 -0.042926118 -0.07940703
-0.21358109 -0.20234399 -0.06036548 0.02042179 -0.003674843 -0.08405653 -0.06719395 0.017608428
0.057270057 0.021949653 -0.03663204 -0.013646107 -0.060345944 -0.028151399 -0.060479283 -0.038128614
-0.046153013 0.0060315565 0.014178393 -0.2321352 -0.354198 -0.062414 -0.2664302 -0.055745427
-0.0060689235 -0.075097166 -0.00052764243 -0.013947949 -0.08155748 -0.053469807 -0.077594094 -0.04909911
-0.2322876 0.0046290816 -0.24784231 -0.06705797 -0.10299504 -0.2807499 -0.036955338 0.030266127

fa3.weight f4 [2, 300]
00000000: cb3c eb3e 671e 32bc b40b 0d3e 32ef 8c3d
00000010: 46c0 063f a101 7a3c 143e 123d 2402 de3e
00000020: 4210 e63e e1a3 543d efc8 1e3f dffc 5b40
00000030: a5f2 773f d3be 423e 4197 923d ade0 373f
00000040: 5168 80bc 6b2e 1cbb 9221 a83c b6e8 003e
00000050: 748f cfbc 0b94 813e d2b8 fd3e 66fb 35bc
00000060: 158e 653a f384 7fbc a22b fa3c b232 913f
00000070: ffef b43d fec7 6a3f 7904 a23c e750 cf3e
00000080: 8a3b dd3c 722c bb3c bef7 cb3c 30e5 7d3e
00000090: 4478 983e 39d4 c13d ed6b b03c 67dd eabb
000000a0: f14e a83e a6b6 5a40 6a84 993c 4b48 8540
000000b0: 5880 ce3c 754d 2a3d 41d8 bc3a bee1 0640
000000c0: 6c41 873e 2cad 8f40 53cc 433c a1a5 073c
000000d0: 0c3a 5740 dd14 333b f641 913d e4b0 913f
000000e0: 2582 5740 fb38 323f c827 ae3d bc56 ec3b
000000f0: e046 eb3d 2045 6aba ae05 5a40 9975 f43d
00000100: 2909 0fba f117 873c 991c 103f dd97 5d3d
00000110: 9fa7 ba3d 87af c9ba 3f53 4b3f 3675 033e
00000120: 11aa 78bc 0b06 8e3c 1411 c73c e502 97bc
00000130: 4b17 013c 62d9 8abb 492a f73f 245b 263b
00000140: 6cf9 c83d 9bd3 ba3f 0113 023f 6ea0 c13e
00000150: 0484 513e 0af7 9b3f 7607 993c 8ffb 07bc
00000160: ea2a 353f 9cf2 8f3e 16a8 2e3f 9778 453d
00000170: 5182 563c 6e0e 093c 34a5 123e ad0b cdbc
00000180: 6800 083e 631e 4fba a0e7 203a b594 a53d
00000190: 1feb ca3f e755 5d3f 1f5e 3f3f c0d0 ca3e
000001a0: 6ac3 753f cb39 52bc a676 303d 9eaa 463f
000001b0: 1db3 b9bc 5559 393d ec5a 88bc b4f0 833c
000001c0: 1b7e e33d 1831 503f 3c75 393f f6a0 673d
000001d0: 8d79 aa3c 906e b23b 7c6a 9a3d 332f 9c3c
000001e0: 6a34 033c 9e18 3d3e 83b1 a43d 8261 d83d
000001f0: 88e3 903d fc1e 46bb 8406 a9bb 411d 5c3b
00000200: 6a94 25bc ba56 8b3e db1c bf3e 1c18 953c
00000210: 79fc 9a3e b2e2 733d 32b9 083e 85de 873d
00000220: aef1 033d 4b8c 1d3e 8fc6 893f b8fd e93e
00000230: e49c 7e3f d3c8 99bb 78e9 c13b 5927 c93d
00000240: ef46 223f a937 013e c1ce d43d 8d3e 2c3e
00000250: f640 c63d d357 dd3f bcf3 03bc 1b30 9a3e
00000260: 9b12 463f 67e6 d0bc 59b0 593c 67cd 143b
00000270: 2ebe d3ba 7860 a8b9 3959 07ba 0d01 82bb
00000280: d468 d73d 5d88 d73c 2b2b bc3f 839a 7bbb
00000290: da7b 173e 8749 1a40 27b4 6e3c 7188 3e3d
000002a0: 1915 2c3c 486b 063e bbfe da3e ff92 eb3d
000002b0: bfa4 3840 50b7 10bc c5bd b7bc ae27 283e
000002c0: 8c59 1d3c 85ea 0a3b b570 623f f7d6 9dbc
000002d0: 232a 033d f718 943c ec62 85bc 8c30 273b
000002e0: bec7 0a3e 6beb 06bc 475e a23c 2782 2240
000002f0: 162d db3a 7375 bebc 9617 9dbc c626 4abc
00000300: 6323 613d 1240 103e ab28 be3f 439f 303e
00000310: 05eb 683f b45f d9bc 244f d43a c5e1 3d3c
00000320: 4806 b43c 4e51 de3c 0521 7fbc 0318 133e
00000330: bbd3 773f 2313 973e 4649 373f 8352 0e3f
00000340: c75f 18bc 3284 203f 6a3b abba 3036 f63d
00000350: 9414 90bc 1926 413c 05d6 ef3d 52b0 623d
00000360: 68ef 563f 5d20 7a3f dc98 0b3e 4000 be3e
00000370: ef4d 753f 643d f1bb 61c1 8fbc c000 58bb
00000380: 6025 b93f 2525 aa3f b174 0e3b 1164 7d3c
00000390: c960 563d 9d71 453e c6c2 393c adaf c83d
000003a0: a619 24bc 6fbd cf3c 60b9 6b3d 9d2a 133f
000003b0: dc54 5c3f 6488 4b3e f5d3 5a3f f1e2 993e
000003c0: 4d6e 743d ca6f be3e 343f c7bb 3822 46bc
000003d0: 9f9b 893d 53ff f9bb 5160 d6bc cc8b 843e
000003e0: c72b 5e3f 7ad6 0b3e 1244 563f cb9d 053c
000003f0: a7eb dfba bd6e 4b3f c753 8a3c 648c 703f
0.4594482 -0.010871506 0.13773996 0.068815604 0.52637136 0.015259177 0.035703734 0.43361008
0.4493428 0.0519141 0.6202535 3.437309 0.9685462 0.19018106 0.07157756 0.71827203
-0.015674742 -0.0023831378 0.02052382 0.12588772 -0.025336958 0.2530826 0.4955507 -0.011107301
0.00087568286 -0.015595662 0.030538384 1.1343596 0.08834838 0.91711414 0.019777523 0.4049141
0.02700593 0.022848342 0.024898406 0.2479446 0.29779255 0.094643064 0.021535838 -0.0071675065
0.32872728 3.417398 0.018739898 4.165075 0.025207683 0.041577775 0.001440771 2.1075282
0.264171 4.489889 0.01195057 0.008279235 3.362918 0.0027325668 0.07092659 1.1382108
3.3673184 0.69618195 0.085036814 0.007212488 0.11488128 -0.0008936692 3.4065967 0.119364925
-0.0005456382 0.016490908 0.56293637 0.054099906 0.091140024 -0.0015387394 0.794239 0.12837681
-0.015177266 0.017336866 0.024300136 -0.018433997 0.007879089 -0.00423734 1.930978 0.0025383914
0.098131984 1.4595827 0.5081025 0.3781771 0.20460516 1.2184765 0.018680315 -0.008299722
0.70768607 0.28114784 0.6822523 0.048210707 0.013092593 0.008365257 0.14320832 -0.025029982
0.13281405 -0.00079009513 0.00061380304 0.08085004 1.5853003 0.864592 0.7475299 0.3961239
0.96001303 -0.012831162 0.043081902 0.7760409 -0.022668416 0.04525121 -0.016644917 0.016105987
0.11108037 0.8132491 0.7244451 0.05654999 0.020809913 0.005445309 0.075398415 0.019065475
0.008008102 0.18466422 0.0804167 0.10565473 0.07074648 -0.003023087 -0.0051582474 0.0033586773
-0.010106185 0.27214605 0.37326702 0.018199973 0.30270746 0.059542365 0.13351896 0.06634239
0.032212906 0.15385549 1.076372 0.45701385 0.99458146 -0.0046931296 0.005917724 0.09821958
0.63389486 0.12618889 0.10390998 0.16820736 0.09680359 1.7292427 -0.008053716 0.30114827
0.7737214 -0.02550049 0.013286673 0.0022705437 -0.00161547 -0.00032115332 -0.00051631365 -0.0039674104
0.10518041 0.02631014 1.4700674 -0.0038391657 0.1479334 2.4107378 0.014569319 0.04651684
0.010503077 0.13126862 0.4277247 0.11502647 2.8850553 -0.008832768 -0.022429356 0.16421387
0.009603869 0.0021196913 0.8845323 -0.019267542 0.032022607 0.01807831 -0.016282521 0.0025511114
0.13552758 -0.008234839 0.019820346 2.5391939 0.0016721811 -0.023249364 -0.019176286 -0.012338346
0.054965388 0.14086941 1.4856161 0.17248254 0.9098361 -0.026534893 0.0016197902 0.011589472
0.021975651 0.027138378 -0.015571837 0.14364628 0.9680745 0.29506788 0.7159618 0.5559465
-0.009300179 0.62701714 -0.0013063971 0.12022054 -0.017587937 0.011788868 0.11710743 0.055343933
0.83959055 0.9770563 0.1363253 0.37109566 0.9582204 -0.0073620547 -0.017548265 -0.0032959431
1.4464531 1.3292586 0.0021737034 0.015465752 0.052338395 0.19281621 0.0113379415 0.097991325
-0.010015881 0.025358884 0.057549834 0.574869 0.86066985 0.19876248 0.8547967 0.30055955
0.059675504 0.37194663 -0.0060805324 -0.012093119 0.067191355 -0.007629314 -0.026168974 0.25887907
0.8678555 0.13656035 0.8369762 0.008155297 -0.001708378 0.7946585 0.016885651 0.9396422

fa3.bias f4 [2]
00000000: 0db9 8940 1007 073d
4.303839 0.03296572
