src/Models/stage_2/420_actor.pt (torch_old, 382508 bytes, 6 tensors)

fa1.weight f4 [300, 14]
-0.070079684 -0.025693204 -0.04347625 -0.12255185 -0.08075053 -0.01817941 -0.07038762 -0.08688701
-0.052258603 -0.119135104 -0.0534529 -0.0048190984 -0.25807923 -0.058147714 0.03849504 -0.06309352
-0.0053905076 0.059140235 0.09295502 0.05636102 0.05146584 0.00046856538 0.013653974 -0.03442322
0.00032433664 -0.0028460328 0.84358275 -0.022073168 -0.07333097 -0.051551513 -0.017641418 -0.03913467
-0.04440304 -0.056252595 -0.03348925 0.00090252183 -0.06859466 -0.09119335 -0.0758539 -0.07868461
0.08635046 -0.002060202 -0.18694904 0.093640916 0.0010970113 0.026913777 0.022461204 0.109491885
-0.044073097 -0.0130850235 -0.023901943 0.012173353 -0.020459233 -0.3747489 -0.34232125 0.06322103
-0.0013519777 -0.07109487 0.025432887 -0.010616062 -0.06399656 -0.041148204 -0.09910837 -0.003098016
0.0013294555 -0.05534409 -0.07545313 -0.0052241846 0.27151754 -0.015135931 -0.09815553 -0.018894333
-0.0067610997 -0.070528425 -0.027342748 -0.032304965 -0.040235303 -0.025127867 -0.05817544 -0.030474871
-0.027213054 -0.017292667 0.2618189 -0.06354334 -0.0469017 -0.02851143 -0.053915527 0.004900957
0.036411427 -0.012601005 0.011766214 0.001991843 0.025933012 -0.021931466 0.013612421 0.0138170095
0.0039214697 -0.013713441 -0.033031937 -0.07030922 -0.046300244 -0.039947383 -0.13779278 -0.1178193
-0.032947186 0.004599049 -0.0702882 0.010799103 -0.034621615 0.004261233 0.10718171 0.0029548523
-0.06113719 -0.0073000332 -0.051573627 0.039274905 0.02396097 -0.041622993 0.027063103 0.043666746
-0.056286205 -0.06556803 0.0036103064 -0.03420655 -0.012284014 -0.023694083 0.022682652 -0.04732111
-0.0005176533 -0.05935768 0.040578246 -0.041978978 -0.008098763 -0.043383427 0.024159748 -0.027888814
0.004837421 -0.005999588 -0.010831298 -0.029611783 -0.034759272 -0.036718797 0.0040520714 -0.034491606
0.012249045 0.039405778 0.032063607 -0.059054174 0.01300469 -0.050385043 0.03279747 -0.03431115
-0.024930896 0.042054214 -0.07336747 -0.04231958 -0.07951348 -0.14412789 -0.06863724 0.046158664
0.05294554 0.06376832 -0.014400968 -0.011035337 -0.016882306 0.04523045 0.23859741 -0.04158841
-0.069576256 -0.04515105 -0.09217903 -0.00081378646 0.083574146 0.05124119 -0.09288047 -0.006580876
-0.06997389 -0.059729528 -0.093671665 -0.20621955 -0.30779186 -0.041346565 0.060878478 0.08574961
0.06018111 -0.054085657 -0.006911369 -0.067433 0.029100202 0.031259328 0.0008965689 -0.019936038
0.06334377 0.15881708 -0.5958749 0.0044930577 -0.049257204 -0.03430396 0.013245907 0.026615331
-0.018544963 0.04419555 -0.044730093 -0.04584738 0.02534109 -0.043602604 0.04648156 0.033477753
-0.017657174 -0.031851042 -0.004797292 -0.0055212155 -0.039469417 -0.0141411135 -0.09132631 0.0033701465
0.028619226 -0.027110398 -0.01706601 -0.093319006 -0.06483323 -0.013861311 0.25491527 0.060149588
-0.1894161 0.040445108 0.0001840233 -0.05686557 0.04386664 -0.03337073 0.03275104 -0.018114202
-0.003647955 -0.05071508 0.037036996 -0.15624419 -0.30290434 -0.10198143 0.040362876 -0.0762111
-0.08979718 -0.065427214 0.09146983 0.16960275 -0.047139153 -0.25370297 -0.056738555 0.07634999
0.10344893 0.23834147 -0.13059221 -0.027027512 -0.1044858 -0.16577579 0.13412374 0.077094555
00000000: f085 8fbd 8e7a d2bc 2714 32bd 77fc fabd
00000010: 8960 a5bd fcec 94bc 6227 90bd d1f1 b1bd
00000020: 1e0d 56bd 1bfd f3bd 6ef1 5abd 87e9 9dbb
00000030: f622 84be 4c2c 6ebd faac 1d3d 2d37 81bd
00000040: dba2 b0bb 083d 723d 345f be3d d0da 663d
00000050: d8cd 523d c8a9 f539 ebb4 5f3c 5dff 0cbd
00000060: ba0b aa39 8284 3abb 0af5 573f cad2 b4bc
00000070: 8c2e 96bd ae27 53bd bc84 90bc ad4b 20bd
00000080: f6df 35bd 1f69 66bd 062c 09bd 3797 6c3a
00000090: 5b7b 8cbd 94c3 babd 4a59 9bbd 6625 a1bd
000000a0: 83d8 b03d 7404 07bb 926f 3fbe cfc6 bf3d
000000b0: 97c9 8f3a 487a dc3c 8f00 b83c 483d e03d
000000c0: fe85 34bd 9162 56bc 02ce c3bc be72 473c
000000d0: 1f9a a7bc 16df bfbe bb44 afbe 077a 813d
000000e0: d834 b1ba 309a 91bd a158 d03c feee 2dbc
000000f0: a110 83bd 058b 28bd 54f9 cabd 1508 4bbb
00000100: 2041 ae3a 7cb0 62bd 2c87 9abd a32f abbb
00000110: 5904 8b3e b2fc 77bc c405 c9bd 4ac8 9abc
00000120: 378c ddbb 3571 90bd e6fd dfbc 3652 04bd
00000130: c6cd 24bd f5d8 cdbc 5f49 6ebd 70a6 f9bc
00000140: e9ed debc 5aa9 8dbc 200d 863e 0323 82bd
00000150: ff1b 40bd cd90 e9bc 87d6 5cbd 3598 a03b
00000160: 2624 153d 7274 4ebc 14c7 403c 9589 023b
00000170: 7871 d43c 9ea9 b3bc a206 5f3c bd60 623c
00000180: ac7f 803b 57ae 60bc 7f4c 07bd 48fe 8fbd
00000190: 53a5 3dbd de9f 23bd 8d19 0dbe 3f4b f1bd
000001a0: a1f3 06bd 9fb3 963b 43f3 8fbd b9ee 303c
000001b0: 65cf 0dbd d0a1 8b3b 1682 db3d 32a6 413b
000001c0: fd6a 7abd 1e35 efbb de3e 53bd b9de 203d
000001d0: cc49 c43c df7c 2abd 71b3 dd3c e7db 323d
000001e0: 5d8c 66bd 8848 86bd e49a 6c3b 2b1c 0cbd
000001f0: e442 49bc 181a c2bc f8d0 b93c c8d3 41bd
00000200: 20b3 07ba 0a21 73bd 6035 263d 26f2 2bbd
00000210: adb0 04bc d2b2 31bd aaea c53c 1577 e4bc
00000220: 3a83 9e3b 3198 c4bb c275 31bc 6994 f2bc
00000230: bd5f 0ebd 7366 16bd 3dc7 843b 1247 0dbd
00000240: 38b0 483c f467 213d 2155 033d cae2 71bd
00000250: a011 553c 8c60 4ebd a456 063d d989 0cbd
00000260: e13b ccbc 0a41 2c3d af41 96bd 4c57 2dbd
00000270: f7d7 a2bd 4396 13be ae91 8cbd de10 3d3d
00000280: 6cdd 583d f798 823d 0af2 6bbc 8fcd 34bc
00000290: c34c 8abc 9043 393d e152 743e 9c58 2abd
000002a0: ff7d 8ebd 4ff0 38bd 5cc8 bcbd 4954 55ba
000002b0: ec28 ab3d 48e2 513d 1e38 bebd 64a4 d7bb
000002c0: 794e 8fbd f3a6 74bd eed6 bfbd 382b 53be
000002d0: e596 9dbe 045b 29bd b65b 793d 7e9d af3d
000002e0: 7880 763d ec88 5dbd c478 e2bb 501a 8abd
000002f0: 8c63 ee3c c809 003d b807 6b3a e750 a3bc
00000300: 61ba 813d f2a0 223e 428b 18bf 803a 933b
00000310: ecc1 49bd 4f82 0cbd 5c05 593c 6508 da3c
00000320: 9beb 97bc 6506 353d e736 37bd 76ca 3bbd
00000330: 1e98 cf3c a598 32bd 7363 3e3d f81f 093d
00000340: c7a5 90bc 3d76 02bd 9a32 9dbb 50eb b4bb
00000350: afaa 21bd 21b0 67bc 4a09 bbbd addd 5c3b
00000360: de72 ea3c a016 debc 04ce 8bbc 091e bfbd
00000370: 49c7 84bd 8d1a 63bc 4184 823e 6a5f 763d
00000380: 4bf6 41be c5a9 253d 61f6 4039 dfeb 68bd
00000390: 82ad 333d bfaf 08bd f425 063d 3c64 94bc
000003a0: 8712 6fbb 9eba 4fbd 1bb4 173d 7afe 1fbe
000003b0: 4716 9bbe a4db d0bd 8b53 253d 9114 9cbd
000003c0: 95e7 b7bd b4fe 85bd 8954 bb3d 58ac 2d3e
000003d0: fc14 41bd 5be5 81be b066 68bd 625d 9c3d
000003e0: 08dd d33d c90f 743e f7b9 05be cd68 ddbc
000003f0: a7fc d5bd 21c1 29be bc57 093e c0e3 9d3d

fa1.bias f4 [300]
0.002001871 -0.26324716 0.088552244 0.012376339 0.096751414 0.20252062 -0.1579469 0.14702745
-0.24998103 -0.012042965 -0.2520266 -0.2014418 0.23628286 -0.10400534 -0.23801406 -0.19067945
-0.011241663 -0.14437304 0.0302632 -0.12941451 0.09808938 -0.06446173 -0.13434009 -0.08537925
0.041053105 -0.24687818 -0.3189641 -0.14563976 -0.28929767 -0.051073186 -0.22274989 0.1494278
0.20546384 -0.04514179 0.12722236 0.20471302 -0.19729564 0.12101016 -0.21228425 -0.23326987
0.0531443 -0.17731635 0.020362323 -0.17284825 0.067462154 -0.118415214 0.09159235 -0.12574941
0.0023802272 -0.1314389 -0.17627414 0.056737617 -0.026831076 0.18350771 -0.25906003 -0.28365782
-0.30414334 -0.09324242 -0.07597904 -0.053286765 0.37922496 0.07120984 0.29349384 0.11314862
-0.07582644 -0.03092987 -0.13084729 -0.08428891 -0.23179801 0.202015 0.1591428 -0.076446176
-0.17034476 0.09706368 -0.2758473 -0.11017887 -0.00854145 0.09809437 -0.048088532 -0.30840966
-0.059103344 0.1003179 0.18031381 -0.0056422576 -0.0754171 0.00821934 -0.1392755 0.0087972935
-0.22866452 0.08818908 0.07719129 -0.085169405 -0.09718692 0.12817143 -0.08462579 -0.17725803
0.0635028 -0.20942469 -0.28500366 -0.03877649 0.12607011 0.14396337 -0.2631132 -0.27096397
-0.09370653 -0.13042052 -0.2351437 -0.26802528 0.35365131 0.020947002 -0.34125605 -0.34803784
-0.2617721 -0.14782451 -0.18535861 0.08455713 -0.18994455 0.1685959 0.29307377 -0.30257198
-0.026394272 0.015998801 -0.15150799 -0.18561432 -0.19657603 0.29297003 0.30165607 -0.042986896
-0.23258457 -0.10383622 0.05030082 -0.005880549 -0.10695114 -0.16710502 0.0067167 -0.11604376
-0.17653595 -0.08356307 -0.13182482 -0.042409346 -0.26559436 0.19486687 0.04088114 0.1858141
0.30747393 -0.06400662 0.30375266 -0.013092693 -0.08322462 -0.27672467 0.1625894 -0.23082896
0.12249042 0.14241077 -0.19364688 0.17799135 0.12071614 -0.2244761 -0.13641597 -0.20865873
-0.11425424 -0.2672856 0.030028867 -0.11906695 0.018215405 -0.21911061 -0.3570488 -0.13818093
-0.11116292 -0.090753 -0.1549506 -0.11099536 -0.12860614 0.21239518 -0.243619 -0.33999485
0.048501898 0.05086111 -0.18372528 0.13398698 -0.09344095 0.13828227 -0.30555224 0.079301275
0.054065235 -0.39214894 0.10026774 0.0646984 0.07799369 -0.1907946 -0.25122023 -0.16770485
-0.1698178 -0.117023125 -0.21884675 -0.20593086 -0.25415227 -0.17490947 0.0880388 0.076138385
-0.15062386 0.16227224 -0.20288226 0.19181941 -0.07823285 -0.022696558 -0.0494788 -0.27880454
0.19247688 0.13212284 -0.21426679 0.050092738 -0.22076298 -0.2555043 -0.12057349 -0.37699893
-0.22141176 -0.1586414 -0.27022654 0.11667552 0.24782261 -0.13596305 0.26910052 -0.17704678
-0.18239127 0.13955164 -0.06770799 0.037022263 -0.1977346 0.052096736 -0.23656644 -0.24731056
-0.09353557 -0.24178861 0.30096814 0.16401222 -0.13718764 0.24704169 0.07100218 0.035958603
-0.010590747 0.30487892 -0.22092564 0.0047358577 0.029633727 -0.14960475 0.1762222 0.22829771
0.18418853 -0.22316371 -0.17878889 -0.20935553 0.037117023 -0.22291636 0.115608424 -0.1316311
00000000: d231 033b 55c8 86be e15a b53d 21c6 4a3c
00000010: 9b25 c63d 9161 4f3e d5bc 21be 5d8e 163e
00000020: 07fb 7fbe db4f 45bc a109 81be c246 4ebe
00000030: 22f4 713e c000 d5bd f5b9 73be 7941 43be
00000040: f42e 38bc 87d6 13be 88ea f73c 3d85 04be
00000050: 16e3 c83d 8304 84bd 7390 09be 51db aebd
00000060: 4d27 283d a2cd 7cbe 434f a3be 9722 15be
00000070: d31e 94be 1e32 51bd 8c18 64be 9a03 193e
00000080: 1d65 523e 99e6 38bd 9446 023e 4aa0 513e
00000090: de07 4abe 2dd4 f73d 0b61 59be 4cde 6ebe
000000a0: d6ad 593d 6b92 35be e3ce a63c 22ff 30be
000000b0: 9929 8a3d ad83 f2bd c594 bb3d 74c4 00be
000000c0: 96fd 1b3b eb97 06be 3581 34be b465 683d
000000d0: d8cc dbbc 72e9 3b3e 84a3 84be 993b 91be
000000e0: adb8 9bbe e2f5 bebd e69a 9bbd 3943 5abd
000000f0: c629 c23e 77d6 913d d344 963e 77ba e73d
00000100: e44a 9bbd a460 fdbc d5fc 05be aa9f acbd
00000110: 755c 6dbe 05dd 4e3e 55f6 223e d08f 9cbd
00000120: db6e 2ebe 53c9 c63d db3b 8dbe 76a5 e1bd
00000130: 70f1 0bbc b3e5 c83d 7bf8 44bd dfe7 9dbe
00000140: 5916 72bd 7973 cd3d 2fa4 383e b0e2 b8bb
00000150: 4874 9abd 69aa 063c 3d9e 0ebe 8622 103c
00000160: 0827 6abe 7a9c b43d 7816 9e3d 4c6d aebd
00000170: f009 c7bd 5f3f 033e 4950 adbd 2183 35be
00000180: c20d 823d 6d73 56be 00ec 91be 19d4 1ebd
00000190: 8618 013e 226b 133e c6b6 86be cabb 8abe
000001a0: 36e9 bfbd f58c 05be 83c9 70be 9c3a 89be
000001b0: c911 b53e 0c99 ab3c 1db9 aebe 0432 b2be
000001c0: fe06 86be 4f5f 17be a6ce 3dbe 4a2c ad3d
000001d0: d380 42be 67a4 2c3e c40d 963e b7ea 9abe
000001e0: cd38 d8bc eb0f 833c e924 1bbe ae11 3ebe
000001f0: 3a4b 49be 2b00 963e aa72 9a3e 0713 30bd
00000200: a62a 6ebe 16a8 d4bd 3c08 4e3d 9fb1 c0bb
00000210: 3309 dbbd 941d 2bbe c317 dc3b 5aa8 edbd
00000220: d7c5 34be 1d23 abbd 16fd 06be 6cb5 2dbd
00000230: fcfb 87be 2e8b 473e fb72 273d 0d46 3e3e
00000240: 396d 9d3e e715 83bd 7885 9b3e bc82 56bc
00000250: ab71 aabd dbae 8dbe d67d 263e 6d5e 6cbe
00000260: 42dc fa3d 21d4 113e 5e4b 46be 5d43 363e
00000270: 063a f73d 10dd 65be a1b0 0bbe a2aa 55be
00000280: 21fe e9bd a8d9 88be 19ff f53c 60d9 f3bd
00000290: 7938 953c 885e 60be 1acf b6be 4d7f 0dbe
000002a0: 63a9 e3bd b5dc b9bd 5fab 1ebe 8951 e3bd
000002b0: 54b1 03be 1f7e 593e 4277 79be ce13 aebe
000002c0: eda9 463d bd53 503d 7b22 3cbe e233 093e
000002d0: f85d bfbd de99 0d3e 5871 9cbe b568 a23d
000002e0: 8273 5d3d bfc7 c8be 2c59 cd3d 9880 843d
000002f0: 28bb 9f3d a95f 43be f09f 80be d2ba 2bbe
00000300: b8e4 2dbe d2a9 efbd 5d19 60be 8adf 52be
00000310: 3f20 82be 781b 33be b04d b43d 71ee 9b3d
00000320: 243d 1abe b22a 263e 5ec0 4fbe 4f6c 443e
00000330: 8b38 a0bd 22ee b9bc 48aa 4abd 78bf 8ebe
00000340: a918 453e 364b 073e c168 5bbe 0b2e 4d3d
00000350: b10f 62be 76d1 82be 3cef f6bd 0106 c1be
00000360: c4b9 62be e472 22be 225b 8abe 93f3 ee3d
00000370: 36c5 7d3e e639 0bbe 8bc7 893e c04b 35be
00000380: c7c4 3abe a0e6 0e3e 7daa 8abd a8a4 173d
00000390: f07a 4abe 6363 553d 793e 72be fb3e 7dbe
000003a0: 948f bfbd 6f97 77be 7f18 9a3e d2f2 273e
000003b0: eb7a 0cbe 7ff8 7c3e 9769 913d 5449 133d
000003c0: d084 2dbc 1719 9c3e 553a 62be 412f 9b3b
000003d0: 6ec2 f23c fd31 19be 9873 343e e0c6 693e
000003e0: eb9b 3c3e 0785 64be 6f14 37be 4c61 56be
000003f0: 0508 183d 3044 64be 1cc4 ec3d 4eca 06be

fa2.weight f4 [300, 300]
-0.029521191 -0.021853596 -0.022671552 -0.048656672 -0.0215517 0.030148337 0.03189076 0.044542007
-0.02458911 0.02062087 0.005902719 -0.046533823 -0.074360386 -0.052278996 0.034558263 -0.0011974234
-0.12928756 -0.024486128 -0.034627583 0.004212726 0.005545399 0.010566865 0.03253952 0.029984318
-0.042173117 0.006529834 -0.03554609 -0.10447744 -0.042492755 -0.038308624 0.014275031 -0.07053243
0.029268783 0.057465237 -0.018301655 -0.016532535 -0.063176766 0.042448368 0.050804332 0.002453953
-0.02101432 0.047505032 0.028432528 0.021613482 0.0093398895 -0.057841465 0.01693287 -0.07728519
0.055803705 -0.012629489 -0.037188623 -0.012154679 -0.00056473125 -0.06112455 -6.5676286e-06 0.024685847
-0.10154905 -0.0039533353 -0.026014283 -0.009974127 -0.051059496 0.056038402 -0.15684214 0.050644238
-0.030559883 -0.01775156 -0.02786312 -0.036638875 0.04390661 0.041061576 -0.038246915 0.05750991
-0.05594597 -0.026674911 0.029231228 -0.01645971 -0.057014443 -0.013068859 0.050632935 0.044094052
-0.13315411 -0.11437711 0.054224163 -0.00864977 -0.114835545 -0.010903699 0.006813261 0.064252794
0.04355107 -0.02555106 -0.005071398 -0.02166191 0.0020048472 -0.012805338 -0.02047618 -0.04467456
-0.11886387 0.057022706 0.07096371 -0.023554025 -0.0083321845 -0.037946504 -0.03504085 -0.026770718
0.063520744 -0.03365579 -0.0423385 0.02167758 -0.018505124 0.011169003 0.0023652907 -0.060203668
0.06132838 -0.017411761 -0.04944233 -0.03007087 0.021275053 -0.02370102 -0.0002329471 0.051488705
0.03482052 0.023973482 -0.07602358 -0.04393742 -0.014111163 -0.13874273 -0.046011273 -0.11167206
0.023545915 -0.020164462 0.018159883 0.05327252 0.02530231 -0.019770814 -0.05472682 -0.050989594
-0.049649842 -0.033064242 0.061378304 0.025908483 0.036681674 -0.044895343 -0.037914455 0.0065498604
-0.021772742 -0.029442279 -0.023823354 0.040120028 -0.028395029 -0.075730816 -0.0991024 -0.026573718
-0.023147352 -0.062208794 0.04116802 0.053445566 -0.03282888 0.018739462 -0.040125508 0.018296413
0.05484472 0.0146936765 -0.02390829 -0.026589429 -0.0054706167 0.011887133 -0.11809736 -0.11541285
-0.04693326 -0.12709087 -0.056113567 -0.031117154 -0.043424755 0.033621874 0.003405027 0.0032767723
-0.009165096 -0.04124816 -0.037211914 0.054715026 -0.057121065 -0.0437086 0.035925303 -0.0057231165
-0.013977003 0.02011478 -0.012680504 0.040108755 0.04334617 -0.118024334 -0.010581184 -0.0470536
-0.011204303 -0.004223155 -0.040935576 0.022851754 -0.023819815 -0.01784797 0.04316727 -0.029975392
-0.016794661 0.011630754 0.03782895 -0.11969423 -0.06865329 0.008016854 -0.03727387 -0.08994458
0.050005045 -0.045830972 0.039638657 -0.027187707 -0.033128954 -0.055175908 -0.06048997 -0.07018739
-0.021034406 -0.018938 -0.04321966 -0.022302864 -0.029433563 0.059682496 -0.010522972 -0.0043133744
-0.009422556 -0.06445953 0.021160446 -0.0017841673 -0.050152745 0.036212154 0.03507688 -0.037865143
0.06512202 0.034779668 -0.061791062 -0.15811619 0.06795904 -0.18847373 -0.038525753 -0.1200516
-0.028585518 -0.027055506 0.031776637 -0.051694658 -0.10053305 -0.027030408 -0.07471583 -0.020309607
0.026893321 -0.031319425 -0.021534506 -0.01895443 -0.09154239 0.02467378 -0.053261317 -0.005589229
00000000: 6dd6 f1bc 5006 b3bc b1b9 b9bc 384c 47bd
00000010: 318d b0bc a5f9 f63c e39f 023d ae71 363d
00000020: 1a6f c9bc 19ed a83c 996b c13b 409a 3ebd
00000030: 424a 98bd 8022 56bd f78c 0d3d ddf2 9cba
00000040: f563 04be 2297 c8bc a7d5 0dbd e80a 8a3b
00000050: 2eb6 b53b a520 2d3c 2948 053d aca1 f53c
00000060: b8bd 2cbd 38f8 d53b c798 11bd 45f8 d5bd
00000070: e20c 2ebd 81e9 1cbd d2e1 693c 4f73 90bd
00000080: 16c5 ef3c ab60 6b3d 5aed 95bc 3d6f 87bc
00000090: d262 81bd 57de 2d3d 3418 503d 80d2 203b
000000a0: 3926 acbc a394 423d 55eb e83c c20e b13c
000000b0: 5606 193c 2ceb 6cbd cdb6 8a3c b347 9ebd
000000c0: 6d92 643d ebeb 4ebc 1953 18bd 6b24 47bc
000000d0: 790a 14ba bc5d 7abd 805f dcb6 f939 ca3c
000000e0: f3f8 cfbd fb8a 81bb e81b d5bc 856a 23bc
000000f0: c323 51bd 8688 653d 3a9b 20be 5570 4f3d
00000100: b858 fabc b86b 91bc 3341 e4bc a512 16bd
00000110: 6bd7 333d 2f30 283d cca8 1cbd 838f 6b3d
00000120: 9a27 65bd 5885 dabc 5476 ef3c 84d6 86bc
00000130: fa87 69bd c51e 56bc 7b64 4f3d f79b 343d
00000140: 8d59 08be 8c3e eabd 281a 5e3d c4b7 0dbc
00000150: e62e ebbd 6ea5 32bc c741 df3b f896 833d
00000160: 9b62 323d 7550 d1bc f82d a6bb 5174 b1bc
00000170: c163 033b 7bcd 51bc a9bd a7bc acfc 36bd
00000180: e76e f3bd a490 693d 6c55 913d 5ff4 c0bc
00000190: b783 08bc cb6d 1bbd ff86 0fbd 444e dbbc
000001a0: 2a17 823d a7da 09bd 236b 2dbd 2e95 b13c
000001b0: 0f98 97bc 32fe 363c fe02 1b3b 1f98 76bd
000001c0: 7833 7b3d 1ca3 8ebc 0a84 4abd 2f57 f6bc
000001d0: 0549 ae3c a428 c2bc 4343 74b9 d2e5 523d
000001e0: f69f 0e3d 0964 c43c 40b2 9bbd b9f7 33bd
000001f0: 8232 67bc 9312 0ebe 5176 3cbd 52b4 e4bd
00000200: 5de3 c03c f12f a5bc 09c4 943c 4934 5a3d
00000210: ca46 cf3c 67f6 a1bc 3b29 60bd 77da 50bd
00000220: a25d 4bbd 5f6e 07bd d167 7b3d 073e d43c
00000230: 863f 163d 2ee4 37bd 304c 1bbd 36a0 d63b
00000240: c05c b2bc ef30 f1bc 3229 c3bc e654 243d
00000250: b19c e8bc c218 9bbd 33f6 cabd 20b1 d9bc
00000260: 849f bdbc a6ce 7ebd cc9f 283d bde9 5a3d
00000270: 9377 06bd 8083 993c a55a 24bd 5ce2 953c
00000280: dba4 603d bfbd 703c 51db c3bc 13d2 d9bc
00000290: dc42 b3bb 40c2 423c 07dd f1bd 935d ecbd
000002a0: 173d 40bd 1c24 02be 57d7 65bd 67e9 febc
000002b0: 28de 31bd 17b7 093d e026 5f3b 1ebf 563b
000002c0: 3329 16bc d5f3 28bd 856b 18bd dd1c 603d
000002d0: c7f7 69bd ca07 33bd 6926 133d fb88 bbbb
000002e0: cdff 64bc c0c7 a43c e3c1 4fbc 1449 243d
000002f0: c18b 313d beb6 f1bd b45c 2dbc 47bb 40bd
00000300: 4192 37bc 6462 8abb 10ac 27bd 9a33 bb3c
00000310: c621 c3bc e835 92bc 2ad0 303d f48e f5bc
00000320: f594 89bc eb8e 3e3c 87f2 1a3d 4022 f5bd
00000330: 199a 8cbd 1f59 033c 7cac 18bd dd34 b8bd
00000340: 17d2 4c3d 42b9 3bbd 255c 223d c1b8 debc
00000350: 3ab2 07bd 2200 62bd 55c4 77bd 68be 8fbd
00000360: 5950 acbc dd23 9bbc 1907 31bd 7fb4 b6bc
00000370: a81e f1bc a275 743d 8b68 2cbc 3557 8dbb
00000380: 1061 1abc 5c03 84bd ac58 ad3c b8da e9ba
00000390: f76c 4dbd 3253 143d c6ac 0f3d 7b18 1bbd
000003a0: b25e 853d 2075 0e3d a018 7dbd 36e9 21be
000003b0: 1c2e 8b3d 42ff 40be 2ecd 1dbd 9ddd f5bd
000003c0: 2d2c eabc 82a3 ddbc 3828 023d c7bd 53bd
000003d0: 46e4 cdbd e06e ddbc 9d04 99bd 5560 a6bc
000003e0: 624f dc3c cc48 00bd 2269 b0bc 5246 9bbc
000003f0: 947a bbbd ab20 ca3c 8a28 5abd da25 b7bb

fa2.bias f4 [300]
-0.038973186 -0.057131905 -0.052113168 -0.06282477 -0.14694996 0.018086053 0.022282071 -0.0203439
-0.13882095 -0.02561081 -0.07332759 0.048204634 -0.334457 -0.01455949 -0.05336952 -0.28084272
-0.06662448 -0.07449991 -0.08394345 -0.028360467 -0.06314626 -0.0007214613 -0.055287413 -0.027776659
-0.042079642 0.02398638 -0.015591622 -0.08643668 -0.1579854 -0.37613544 -0.065946594 -0.21875425
-0.013368424 -0.06555019 -0.09843208 -0.071713015 -0.010915557 -0.05602655 -0.062356208 -0.07429504
0.012288542 0.12944993 0.028916579 0.17801617 -0.0053966916 -0.08638916 -0.046282846 -0.11983407
-0.06466334 0.5885291 -0.03199049 -0.014493848 -0.058196526 -0.09813435 0.012846768 -0.043646194
0.16369638 -0.31728214 -0.012211605 -0.049533404 -0.08812516 -0.052355375 0.062650554 -0.09089091
0.008195279 -0.06784214 0.112522036 -0.030101791 0.009485951 -0.017272448 -0.012656051 -0.051229086
0.020427268 -0.048170976 -0.056045078 -0.010583487 -0.07837464 -0.057846874 -0.052590616 -0.045038275
-0.10099204 -0.15217483 -0.25143644 -0.0073435856 -0.10347019 -0.10266254 -0.041626777 -0.044442955
-0.23641206 -0.06788361 -0.23823856 -0.053772487 -0.06885209 -0.048217654 0.0012144801 -0.0006660785
-0.059639115 -0.039949887 0.0025006607 -0.04279149 0.0073399716 -0.36497602 -0.28403464 -0.024368374
-0.34796178 -0.076625146 0.011443091 -0.22484614 -0.08095985 -0.028446902 -0.06429192 -0.054369997
-0.06396821 -0.062763155 -0.27100888 -0.045103017 -0.042859185 -0.096549645 0.01834045 -0.0050086803
-0.05618915 -0.008252233 -0.008034594 -0.037796013 -0.11583742 -0.020260379 -0.070878714 -0.059111807
-0.050181128 -0.10605417 -0.054303028 -0.0925512 -0.016615741 -0.08187625 -0.074464776 -0.025206171
-0.08186193 -0.070092455 0.041875243 -0.06952875 -0.33398402 -0.02849097 -0.009225462 -0.045979366
-0.22112839 -0.068722166 -0.096194685 -0.09268269 0.013287548 -0.02447001 -0.07832594 -0.008228025
-0.29736662 -0.0479978 -0.07127264 -0.06376884 -0.029541738 -0.06907564 0.004404395 -0.0789111
-0.0061993934 -0.039119788 -0.043409895 -0.09033399 -0.0322993 9.269074e-05 -0.09555991 -0.11187056
-0.06981221 -0.05085889 0.0051409174 -0.029155137 -0.07846809 -0.085265934 -0.042854432 0.0057605025
-0.032305505 -0.070914306 -0.20139295 -0.041056395 -0.08112209 -0.13567306 -0.03933065 -0.068092905
-0.059344012 -0.026786545 -0.082948536 0.050838307 -0.01663311 -0.03424247 -0.06545409 -0.052657317
-0.025695458 -0.062181134 -0.04936434 -0.14087144 -0.35918173 -0.03220159 -0.005343533 -0.0045815627
-0.048721727 -0.06892683 -0.028197994 -0.039121646 -0.36734372 -0.02741526 -0.23299573 -0.04165364
-0.092794456 -0.2774246 -0.059906755 -0.087099135 -0.09211506 0.007520415 -0.042926118 -0.07945244
-0.21589234 -0.20182046 -0.06040254 0.035960265 -0.011808994 -0.08455609 -0.070060246 0.011092374
0.06661418 0.02067434 -0.036640678 -0.017335564 -0.060345944 -0.026882157 -0.060499176 -0.038785737
-0.046905663 0.005785246 0.008889335 -0.23577291 -0.36371934 -0.06548382 -0.27061462 -0.077544935
-0.008712335 -0.078353085 -0.00637142 -0.013988287 -0.0816812 -0.06078992 -0.08049338 -0.040000185
-0.23243715 0.01632754 -0.25276148 -0.07299764 -0.1031922 -0.2857551 -0.03713495 0.026739946
00000000: 59a2 1fbd 2503 6abd 9e74 55bd 46aa 80bd
00000010: 0d7a 16be 3429 943c e488 b63c 40a8 a6bc
00000020: 1427 0ebe c3cd d1bc c72c 96bd 3972 453d
00000030: f33d abbe ed8a 6ebc ff99 5abd 9eca 8fbe
00000040: 6a72 88bd 6993 98bd 8bea abbd 3654 e8bc
00000050: d452 81bd 7320 3dba 0e75 62bd e08b e3bc
00000060: b45b 2cbd 167f c43c 0174 7fbc b705 b1bd
00000070: edc6 21be d394 c0be 020f 87bd 1d01 60be
00000080: 3c07 5bbc 2e3f 86bd c296 c9bd 46de 92bd
00000090: 2ad7 32bc 187c 65bd 3969 7fbd ff27 98bd
000000a0: e255 493c 868e 043e 76e2 ec3c df49 363e
000000b0: bbd6 b0bb cdec b0bd 1593 3dbd 916b f5bd
000000c0: 376e 84bd d8a9 163f 7608 03bd 9b77 6dbc
000000d0: 7b5f 6ebd a9fa c8bd 407b 523c 5ac6 32bd
000000e0: 06a0 273e ce72 a2be 2f13 48bc 8ae3 4abd
000000f0: f77a b4bd 9772 56bd ef4e 803d 0325 babd
00000100: 7e45 063c d2f0 8abd f471 e63d 0898 f6bc
00000110: f66a 1b3c f37e 8dbc 535b 4fbc 97d5 51bd
00000120: 1657 a73c ee4e 45bd 868f 65bd 5d66 2dbc
00000130: e282 a0bd d8f0 6cbd 4269 57bd 0e7a 38bd
00000140: ead4 cebd b8d3 1bbe 47bc 80be 76a2 f0bb
00000150: 2ee8 d3bd bd40 d2bd d780 2abd d109 36bd
00000160: 0116 72be 9006 8bbd cff4 73be 8a40 5cbd
00000170: 5302 8dbd e07f 45bd 312f 9f3a c59b 2eba
00000180: 2548 74bd 7ea2 23bd 20e2 233b 2146 2fbd
00000190: 2584 f03b 23de babe fd6c 91be 2fa0 c7bc
000001a0: 0c28 b2be a5ed 9cbd cd7b 3b3c 113e 66be
000001b0: 47ce a5bd 7a09 e9bc 7bab 83bd 13b3 5ebd
000001c0: c401 83bd f889 80bd adc1 8abe f1bd 38bd
000001d0: 1d8d 2fbd d2bb c5bd b63e 963c db1f a4bb
000001e0: 9826 66bd 6034 07bc 88a3 03bc fecf 1abd
000001f0: 2b3c edbd 18f9 a5bc dc28 91bd 391f 72bd
00000200: ba8a 4dbd ee32 d9bd da6c 5ebd 7c8b bdbd
00000210: bc1d 88bc bcae a7bd fd80 98bd 2c7d cebc
00000220: 3aa7 a7bd a28c 8fbd 6085 2b3d 1765 8ebd
00000230: f4ff aabe e565 e9bc 6426 17bc dc54 3cbd
00000240: 7b6f 62be 35be 8cbd b801 c5bd 6cd0 bdbd
00000250: 04b4 593c 5575 c8bc 5a69 a0bd d7ce 06bc
00000260: 7040 98be 5799 44bd 64f7 91bd 3d99 82bd
00000270: 8401 f2bc 8777 8dbd be52 903b 259c a1bd
00000280: 4824 cbbb 123c 20bd 93ce 31bd 0701 b9bd
00000290: 454c 04bd f662 c238 eab4 c3bd 641c e5bd
000002a0: b4f9 8ebd 6951 50bd 2475 a83b c1d6 eebc
000002b0: e1b3 a0bd e89f aebd 2188 2fbd 99c2 bc3b
000002c0: c752 04bd 853b 91bd f439 4ebe c02a 28bd
000002d0: 5723 a6bd e1ed 0abe 2d19 21bd 4b74 8bbd
000002e0: b512 73bd 756f dbbc ece0 a9bd d43b 503d
000002f0: 2942 88bc d541 0cbd cb0c 86bd 33af 57bd
00000300: 487f d2bc a5b1 7ebd 4332 4abd 9a40 10be
00000310: abe6 b7be d0e5 03bd ce18 afbb ef20 96bb
00000320: 6f90 47bd 8329 8dbd 7bff e6bc 053e 20bd
00000330: 7a14 bcbe f895 e0bc 6f96 6ebe 029d 2abd
00000340: 050b bebd 990a 8ebe c960 75bd 0861 b2bd
00000350: d2a6 bcbd d06d f63b 4cd3 2fbd f6b7 a2bd
00000360: e212 5dbe 06aa 4ebe a768 77bd 124b 133d
00000370: 837a 41bc be2b adbd bf7b 8fbd cabc 353c
00000380: 046d 883d 3c5d a93c 8914 16bd 5003 8ebc
00000390: 4f2d 77bd f837 dcbc fccd 77bd cbdd 1ebd
000003a0: 2720 40bd 2992 bd3b 93a4 113c 746e 71be
000003b0: 6c39 babe 621c 86bd 008e 8abe e1cf 9ebd
000003c0: 2ebe 0ebc 9577 a0bd 58c7 d0bb 212f 65bc
000003d0: 7948 a7bd dafe 78bd b7d9 a4bd 3cd7 23bd
000003e0: 0104 6ebe 55c1 853c f469 81be c97f 95bd
000003f0: 6f56 d3bd 7e4e 92be d11a 18bd bb0d db3c

fa3.weight f4 [2, 300]
0.46037057 -0.010871506 0.1379332 0.114115044 0.52637136 0.015267634 0.03730178 0.44139728
0.4493428 0.05515537 0.6202535 3.6578696 1.0287111 0.21732317 0.071625486 0.8041322
-0.015674742 -0.0023831378 0.02052382 0.13874389 -0.025336958 0.26524004 0.4977629 -0.011107301
0.00087568286 -0.015595662 0.03941369 1.1955353 0.08834838 0.99005604 0.01980659 0.40496716
0.02793701 0.03404903 0.02636863 0.24920297 0.3302993 0.11876145 0.02157086 -0.0071675065
0.36287668 3.6741822 0.018739898 4.4240494 0.03029156 0.04160476 0.001440771 2.1075282
0.26432535 4.745149 0.01195057 0.008281206 3.3633966 0.0027356157 0.07106171 1.1448053
3.6180913 0.73583484 0.12486734 0.007212488 0.13069181 -0.00088754797 3.5926025 0.1402503
-0.0005456382 0.016491972 0.6274242 0.054259997 0.09125151 -0.0015387394 0.7991559 0.13376313
-0.015177266 0.017340153 0.024309136 -0.018406127 0.007880191 -0.00423734 1.9546708 0.0025383914
0.10098683 1.4795527 0.51408434 0.38640213 0.20460516 1.2290125 0.018680315 -0.008299722
0.76460844 0.28194788 0.69442016 0.048210707 0.013092593 0.008365257 0.14336604 -0.025029982
0.13294533 -0.00079009513 0.00061545154 0.081012204 1.5922259 0.8744855 0.7873062 0.49822515
1.0218487 -0.012831162 0.04310332 0.7760712 -0.022668416 0.04547553 -0.016641196 0.016105987
0.11121763 0.8197956 0.78707933 0.056633357 0.020883318 0.0054455455 0.10747479 0.019652879
0.008008575 0.21830924 0.08868409 0.105854966 0.07076621 -0.003023087 -0.0051582474 0.0033586773
-0.010100144 0.27223417 0.37436417 0.018199973 0.30407253 0.059782717 0.13450345 0.07521528
0.07103091 0.1998203 1.1633667 0.4584549 1.0714554 -0.0046912245 0.005917724 0.16356869
0.6439529 0.126401 0.111909576 0.16840892 0.09687013 1.8663338 -0.008053716 0.30187583
0.8522837 -0.025499543 0.013288411 0.0022705437 -0.00161547 -0.00023089041 -0.0005161496 -0.0039644684
0.13555546 0.026375474 1.5410233 -0.0038391657 0.15079817 2.4235404 0.015355845 0.046578266
0.011154182 0.22020748 0.4949373 0.15530472 2.88547 -0.008832066 -0.022429356 0.16558501
0.010546088 0.0021196913 0.9522195 -0.019265307 0.03314494 0.018788889 -0.016282521 0.0025563256
0.13620456 -0.008234839 0.019822655 2.5989723 0.0020393261 -0.023248186 -0.019176286 -0.012338346
0.065672874 0.14678046 1.8440293 0.17266685 0.9838149 -0.02627244 0.0016212879 0.0631807
0.025559697 0.027142342 -0.015570761 0.15576574 1.0436796 0.32563505 0.7448941 0.55779445
-0.009300179 0.65449053 -0.0013063971 0.120414935 -0.017587937 0.011793303 0.11710743 0.055431403
0.88963443 0.9770818 0.13651815 0.49764585 0.96665555 -0.007348937 -0.017548265 0.012409941
1.4663445 1.3325803 0.0021737034 0.018103458 0.052338395 0.23319238 0.0113379415 0.0981249
-0.009925581 0.025767623 0.05895817 0.5838609 0.91914594 0.20267202 0.9375296 0.3315302
0.060162656 0.37235862 -0.006076325 -0.012056114 0.067535274 -0.0074139074 -0.026168974 0.52802134
0.97107804 0.25055757 0.83700645 0.008696145 -0.001708378 0.8426019 0.016909922 1.0302238
00000000: b1b5 eb3e 671e 32bc 5c3e 0d3e 26b5 e93d
00000010: 46c0 063f 1925 7a3c c0c9 183d d3fe e13e
00000020: 4210 e63e 99ea 613d efc8 1e3f 891a 6a40
00000030: ceac 833f f789 5e3e 62b0 923d 9cdb 4d3f
00000040: 5168 80bc 6b2e 1cbb 9221 a83c e112 0e3e
00000050: 748f cfbc 8bcd 873e c7da fe3e 66fb 35bc
00000060: 158e 653a f384 7fbc 4070 213d 4d07 993f
00000070: ffef b43d 5074 7d3f 6e41 a23c db57 cf3e
00000080: 28dc e43c ff76 0b3d 0603 d83c 102f 7f3e
00000090: fd1c a93e 3439 f33d 5fb5 b03c 67dd eabb
000000a0: f9ca b93e cd25 6b40 6a84 993c d091 8d40
000000b0: 0126 f83c c169 2a3d 41d8 bc3a bee1 0640
000000c0: a755 873e 43d8 9740 53cc 433c e5ad 073c
000000d0: e441 5740 0448 333b cd88 913d fb88 923f
000000e0: cf8e 6740 ac5f 3c3f 73ba ff3d bc56 ec3b
000000f0: 13d4 053e 56aa 68ba 33ed 6540 c69d 0f3e
00000100: 2909 0fba 2c1a 873c df9e 203f bb3f 5e3d
00000110: 12e2 ba3d 87af c9ba 7b95 4c3f 34f9 083e
00000120: 11aa 78bc f00c 8e3c f423 c73c 72c8 96bc
00000130: eb1b 013c 62d9 8abb a732 fa3f 245b 263b
00000140: 2fd2 ce3d fc61 bd3f 089b 033f 80d6 c53e
00000150: 0484 513e 4850 9d3f 7607 993c 8ffb 07bc
00000160: 61bd 433f 795b 903e 85c5 313f 9778 453d
00000170: 5182 563c 6e0e 093c 8cce 123e ad0b cdbc
00000180: d222 083e 631e 4fba 4156 213a bae9 a53d
00000190: 0fce cb3f 48de 5f3f e68c 493f 5e17 ff3e
000001a0: f0cb 823f cb39 52bc 1b8d 303d 9aac 463f
000001b0: 1db3 b9bc 8d44 3a3d 1e53 88bc b4f0 833c
000001c0: 12c6 e33d 20de 513f 087e 493f 61f8 673d
000001d0: 7e13 ab3c 8c70 b23b be1b dc3d 13ff a03c
000001e0: 6636 033c 758c 5f3e 01a0 b53d 7dca d83d
000001f0: e0ed 903d fc1e 46bb 8406 a9bb 411d 5c3b
00000200: 137b 25bc 4762 8b3e a9ac bf3e 1c18 953c
00000210: 65af 9b3e b9de 743d 46bb 093e 780a 9a3d
00000220: a778 913d b19d 4c3e 33e9 943f 9aba ea3e
00000230: 7325 893f d8b8 99bb 78e9 c13b 8d7e 273e
00000240: 19da 243f 446f 013e d930 e53d 6373 2c3e
00000250: d963 c63d 07e4 ee3f bcf3 03bc 788f 9a3e
00000260: 442f 5a3f 6be4 d0bc a3b7 593c 67cd 143b
00000270: 2ebe d3ba 2c1b 72b9 374e 07ba 5fe8 81bb
00000280: 0dcf 0a3e 6111 d83c 4040 c53f 839a 7bbb
00000290: d66a 1a3e 491b 1b40 1597 7b3c dac8 3e3d
000002a0: 08c0 363c 127e 613e 6c68 fd3e 3308 1f3e
000002b0: 8aab 3840 5fb4 10bc c5bd b7bc 1e8f 293e
000002c0: 80c9 2c3c 85ea 0a3b a8c4 733f 47d2 9dbc
000002d0: fdc2 073d 28eb 993c ec62 85bc 0788 273b
000002e0: 3579 0b3e 6beb 06bc 1f63 a23c 9055 2640
000002f0: 37a6 053b fb72 bebc 9617 9dbc c626 4abc
00000300: 807f 863d 9e4d 163e 2709 ec3f 94cf 303e
00000310: 4bdb 7b3f 4d39 d7bc 6581 d43a e264 813d
00000320: 9262 d13c 9e59 de3c 811c 7fbc 0e81 1f3e
00000330: 4b97 853f a3b9 a63e 61b1 3e3f 9ecb 0e3f
00000340: c75f 18bc b18c 273f 6a3b abba 1b9c f63d
00000350: 9414 90bc b338 413c 05d6 ef3d 0a0c 633d
00000360: 15bf 633f 0822 7a3f 6acb 0b3e 70cb fe3e
00000370: bd76 773f 5acf f0bb 61c1 8fbc 1153 4b3c
00000380: 2db1 bb3f fe91 aa3f b174 0e3b b44d 943c
00000390: c960 563d fcc9 6e3e c6c2 393c b5f5 c83d
000003a0: e79e 22bc 9f16 d33c 1f7e 713d e877 153f
000003b0: 264d 6b3f 4189 4f3e f101 703f 54be a93e
000003c0: 1e6d 763d caa5 be3e e91b c7bb 0287 45bc
000003d0: ef4f 8a3d 5df0 f2bb 5160 d6bc 682c 073f
000003e0: 9298 783f 1549 803e 0e46 563f 477a 0e3c
000003f0: a7eb dfba c2b4 573f ad86 8a3c 60de 833f

fa3.bias f4 [2]
4.619841 0.029523063
00000000: bdd5 9340 5ada f13c
