src/Models/stage_2/540_critic.pt (torch_old, 374310 bytes, 7 tensors)

fc1.weight f4 [150, 14]
0	0xbd267408	-0.040638
1	0x3d92b632	0.07163657
2	0x3c2534eb	0.010083417
3	0x3e42b268	0.19013369
4	0x3d88bdec	0.0667685
5	0xbe0e50df	-0.13898037
6	0xbc501486	-0.012700206
7	0x3e0b783c	0.13620085
8	0x3d755483	0.05989505
9	0x3cf69fba	0.03010546
10	0x3f28dd26	0.65962446
11	0x3e870b46	0.26375788
12	0x3e0852fe	0.13312909
13	0xbd567db6	-0.05236598
14	0x3db96d62	0.09054066
15	0xbdc78e3b	-0.09743925
16	0x3e6fa82e	0.23403999
17	0xbd79be60	-0.06097257
18	0xbeae0acb	-0.3399261
19	0xbfade0f7	-1.3584279
20	0x3d65068b	0.055914443
21	0x3de44f00	0.111478806
22	0xbea7e97c	-0.32795322
23	0x3e333001	0.17498781
24	0x3f4f4ecd	0.80979615
25	0x3daff356	0.085913345
26	0xbcee0190	-0.02905348
27	0x3d9a157f	0.07523631
28	0xbd90b40f	-0.070655935
29	0x3d8e8920	0.06959748
30	0x3e2ceef1	0.16888024
31	0xbcaab4c3	-0.020838147
32	0x3e288f35	0.16460879
33	0xbe01920d	-0.1265337
34	0x3d15210f	0.03640848
35	0xbb6284e3	-0.003456407
36	0x3de56e1d	0.11202643
37	0xbcd74d1f	-0.026281891
38	0x3e0b84a9	0.13624825
39	0xbd3ace0f	-0.04560667
40	0x3ee18737	0.44048473
41	0xbe2aa7c9	-0.16665567
42	0xbda39316	-0.07987039
43	0x3e1e6e5c	0.15471786
44	0x3d47b863	0.04875983
45	0x3e0d5b55	0.13804372
46	0x3d5a70a6	0.053330086
47	0xbe0d43fd	-0.13795467
48	0xbd777000	-0.060409546
49	0xbea0ba46	-0.31392115
50	0xbcd13159	-0.025536226
51	0xbd10e006	-0.035369895
52	0x3f1439e0	0.5790081
53	0xbe8e854e	-0.27836078
54	0xbcb0d00d	-0.021583581
55	0x3d33aee0	0.043867946
56	0xbe099659	-0.1343626
57	0xbdbdc21b	-0.09265538
58	0xbda9a80a	-0.08284004
59	0x3ba96fc1	0.005170793
60	0x3e1802a6	0.1484476
61	0x3dec10f7	0.11526673
62	0xbd652089	-0.05593923
63	0x3ccc7452	0.02495781
64	0xbe0488cc	-0.12942809
65	0xbd160364	-0.036624327
66	0x3f8840a9	1.0644733
67	0x3d1bd1c9	0.038041864
68	0xbedb3621	-0.42814735
69	0xbe1369dc	-0.14395851
70	0xbdacb712	-0.084333554
71	0x3e07a6fb	0.13247292
72	0xbd60f19b	-0.054917913
73	0x3d8ec93a	0.06971975
74	0xbcd256fc	-0.025676243
75	0xbcd4f353	-0.025994932
76	0xbbd8adcf	-0.0066125165
77	0xbd66823d	-0.05627655
78	0x3db221dc	0.086978644
79	0x3d990492	0.07471575
80	0x3f124583	0.57137316
81	0xbe95a94f	-0.29230735
82	0x3dc28e12	0.09499754
83	0x3e053691	0.13009097
84	0xbda8baed	-0.08238778
85	0x3d8db222	0.06918742
86	0x3e025a6e	0.12729809
87	0xbe808f38	-0.25109267
88	0x3c51343a	0.012768799
89	0xbd80ddea	-0.06292327
90	0xbd8c7e51	-0.068600304
91	0xbd7c6f0c	-0.06162934
92	0xbc03180e	-0.008001341
93	0xbc836d32	-0.01604328
94	0xbf71f1c9	-0.9450956
95	0xbde7950c	-0.11307725
96	0x3f1f7b29	0.622973
97	0xbe679739	-0.2261628
98	0xbd9e1f15	-0.07720772
99	0xbbb89ed9	-0.0056341705
100	0x3c2d5bb9	0.01058095
101	0x3b0857f0	0.0020804368
102	0x3e0caed0	0.1373856
103	0x3e309b23	0.1724668
104	0xbe964d6c	-0.29355943
105	0x3db59d89	0.08867938
106	0x3d109b06	0.035304092
107	0xbd85cb5b	-0.065329276
108	0x3e5e46a9	0.21706642
109	0xbf140abb	-0.57828873
110	0xbdda5f49	-0.106627055
111	0xbc98a01f	-0.01863104
112	0xbdd668df	-0.10469221
113	0xbd2da7f0	-0.042396486
114	0xbe42e949	-0.19034304
115	0x3c65a154	0.014015514
116	0x3df81ce3	0.12114885
117	0xbb6006f3	-0.003418383
118	0xbd75fea3	-0.060057294
119	0xbe416fcc	-0.18890303
120	0xbb14de5b	-0.0022715542
121	0xbd111ab9	-0.035425875
122	0x3f5d7aec	0.8651569
123	0xbdc8ce1f	-0.098049395
124	0xbeaba4c7	-0.33524153
125	0xbe0535da	-0.13008824
126	0xbda5fcce	-0.08104859
127	0xbcebb1c0	-0.028771281
128	0x3caf2678	0.021380648
129	0xbcddd8b0	-0.027080864
130	0x3d503f90	0.050841868
131	0xbd4a1027	-0.04933181
132	0x3d3c3334	0.04594727
133	0xbcb2c50c	-0.021822475
134	0xbd818101	-0.06323434
135	0xbd077fad	-0.033080745
136	0x3ce738f8	0.028225407
137	0x3d3f1a20	0.046655774
138	0x3d48f06c	0.04905741
139	0xbd10b7c7	-0.035331514
140	0x3cd137a1	0.025539221
141	0xbc841825	-0.016124794
142	0xbe074c52	-0.13212708
143	0x3d9658e9	0.07341177
144	0x3d97d2f5	0.07413284
145	0x3e85a6dd	0.2610387
146	0x3d8823d4	0.06647459
147	0x3e245a60	0.160501
148	0x3d0ad843	0.03389765
149	0xbd1dc777	-0.038520303
150	0x3e482c17	0.19548069
151	0xbdc9f40a	-0.09861
152	0xbe27d020	-0.16387987
153	0xbe080dd8	-0.13286531
154	0x3d8cf8b9	0.068833776
155	0x3cb54fb7	0.022132738
156	0x3cd8e47a	0.026476134
157	0x3e762481	0.24037363
158	0x3e151358	0.1455816
159	0x3d8d1da6	0.068904206
160	0x3d702c34	0.058635905
161	0xba71d748	-0.00092255
162	0xbe21a4be	-0.157855
163	0xbdcecf40	-0.100981236
164	0x3dce76b7	0.10081237
165	0xbdf840da	-0.121217445
166	0xbdca94e4	-0.0989168
167	0x3d5120a3	0.051056515
168	0x3c82a3e4	0.01594729
169	0x3d027014	0.031845167
170	0xbc55c88f	-0.013048305
171	0x384d1ffc	4.8905596e-05
172	0xbc35abd5	-0.011088331
173	0xbdb26016	-0.08709733
174	0xbe050105	-0.1298867
175	0xbe150f1e	-0.14556548
176	0x3cb49f22	0.022048537
177	0x3cb80d20	0.022467196
178	0x3e49537f	0.19660757
179	0x3e9e97c0	0.3097515
180	0x3db49a45	0.08818487
181	0x3d639718	0.055564016
182	0xbbe55f13	-0.006999859
183	0xbca02d88	-0.019552961
184	0x3d66acd2	0.056317158
185	0x3e5252ea	0.20539442
186	0x3e0860ed	0.13318224
187	0xbc363049	-0.0111199105
188	0x3ca8bd7a	0.020598162
189	0x3d89c3e2	0.06726815
190	0xbe27a894	-0.16372901
191	0xbdac5096	-0.08413808
192	0x3dfd97f2	0.12382497
193	0xbde578b2	-0.112046614
194	0x3f099703	0.5374605
195	0xbd0984a3	-0.033573758
196	0xbdf72d69	-0.12069208
197	0xbe075b24	-0.13218361
198	0xbeee1de5	-0.46507183
199	0xbd8bb497	-0.06821554
200	0xbeb6ef70	-0.3572955
201	0x3e75ba08	0.23996747
202	0xbcddbc85	-0.027067432
203	0xbc97698a	-0.018482942
204	0x3e566f1b	0.20940821
205	0x3db87d64	0.09008291
206	0x3f6c9957	0.9242148
207	0x3e607fba	0.21923724
208	0x3e6dbe55	0.23217137
209	0xbe2061b1	-0.15662266
210	0x3e22e7d0	0.15908742
211	0xbcbde06c	-0.023178302
212	0x3dc4722f	0.09592091
213	0x3dbd1e96	0.092343494
214	0x3d12508f	0.035721358
215	0xbd71abd3	-0.059001755
216	0x3e204266	0.15650329
217	0x3db6d953	0.0892817
218	0x3c66c8df	0.014085977
219	0x3d0bbae4	0.03411378
220	0xbd7aef74	-0.061263517
221	0x3d621d9f	0.05520403
222	0xbf370b01	-0.71501166
223	0x3de73b76	0.11290638
224	0x3b32a31f	0.0027257872
225	0xbc92065b	-0.017825296
226	0x3d37b631	0.044851486
227	0xbdac1166	-0.08401756
228	0x3d16d334	0.036822513
229	0xbc8c709b	-0.017143538
230	0x3d3c4540	0.04596448
231	0xbd72d56f	-0.059285577
232	0xbda4e850	-0.080521226
233	0xbc88630b	-0.01664879
234	0xbcf17047	-0.029472483
235	0x3d89ab0e	0.06722079
236	0x3c9d9c9d	0.019239718
237	0xbd5a3d19	-0.053280924
238	0x3dd78271	0.105229266
239	0x3e183801	0.14865114
240	0xbcd9a47e	-0.026567694
241	0x3d47f462	0.048817046
242	0xbc6f67c2	-0.01461214
243	0xbd9a3da1	-0.07531286
244	0x3cd2375c	0.025661163
245	0x3d83f085	0.0644236
246	0x3d0dc123	0.034608018
247	0x3d755f71	0.059905473
248	0xbdeb963a	-0.11503263
249	0x3d2504fb	0.040287953
250	0x3e703cfc	0.23460764
251	0x3db41f05	0.08794979
252	0x3b921d1f	0.004459038
253	0xbced7912	-0.028988395
254	0x3e024f23	0.12725501
255	0xbba45423	-0.0050149127

fc1.bias f4 [150]
0	0xbdb8bb1b	-0.090200625
1	0x3ef9b226	0.4876873
2	0xbf032682	-0.51230633
3	0x3e8ab65f	0.27092263
4	0xbec590aa	-0.38586932
5	0xbe158b52	-0.14603928
6	0xbd6e9131	-0.058243934
7	0xbc4889c6	-0.012239879
8	0xbe161683	-0.14657025
9	0xbe421a18	-0.18955266
10	0xbee35224	-0.44398606
11	0x3ea6baa5	0.32564273
12	0x3ed2af36	0.411493
13	0xbe260158	-0.1621145
14	0x3e486d50	0.1957295
15	0xbbe2509a	-0.006906581
16	0xbe477a32	-0.19480208
17	0xbead6385	-0.3386499
18	0x3ddd2069	0.10797197
19	0xbf0133d8	-0.5046973
20	0xbe485ee3	-0.19567446
21	0x3e8d73a2	0.27627283
22	0xbde187db	-0.110122405
23	0x3e6fdb04	0.23423392
24	0xbd3eaa05	-0.046548862
25	0xbe981c0d	-0.297089
26	0x3e8f157c	0.2794608
27	0xbe9d3098	-0.30701137
28	0xbf0896b5	-0.5335496
29	0x3dd6bfde	0.104858145
30	0xbe2fd96d	-0.17172785
31	0x3e800966	0.2500717
32	0x3e06ff6b	0.13183372
33	0xbe3192bf	-0.17341135
34	0x3dad0893	0.08448901
35	0xbe6da646	-0.2320796
36	0x3ef8a8fd	0.48566428
37	0x3f11e339	0.5698734
38	0x3ebd3cfc	0.3696059
39	0x3e401594	0.18758231
40	0xbe44b118	-0.19208181
41	0x3ec82a80	0.39094925
42	0xbe138c08	-0.14408886
43	0x3d8ceb00	0.0688076
44	0xbe65902e	-0.22418281
45	0xbf02e43a	-0.51129496
46	0xbdb5ccfc	-0.08876988
47	0x3d9e19d2	0.077197686
48	0x3f1419f9	0.5785213
49	0xbe4bc2c8	-0.19898522
50	0xbe8ef091	-0.27917913
51	0xbdfbaa59	-0.122883506
52	0xbf0f23b8	-0.5591388
53	0xbe85f953	-0.26166782
54	0x3e0901ae	0.13379547
55	0x3efe869c	0.49712074
56	0xbed188a1	-0.40924552
57	0x3ef61aea	0.4806741
58	0x3e0a5905	0.13510521
59	0x3e3c720d	0.18402882
60	0xbd535c37	-0.051601615
61	0x3de5d7c8	0.11222798
62	0x3f0da924	0.55336213
63	0xbe3699ab	-0.17832057
64	0xbe02105c	-0.12701553
65	0x3e0b9277	0.1363009
66	0xbe9033fe	-0.28164667
67	0x3eb4c891	0.3530927
68	0x3ed0b564	0.4076339
69	0xbe818adc	-0.25301254
70	0xbeaf35e4	-0.34220803
71	0xbe2d98dc	-0.16952842
72	0x3db92efb	0.09042164
73	0xbe89e8fe	-0.2693557
74	0xbe300655	-0.17189915
75	0x3e036979	0.12833203
76	0xbda8b038	-0.08236736
77	0xbd0e9c15	-0.03481682
78	0x3ec23cc6	0.3793699
79	0xbd0e8922	-0.03479875
80	0xbe8dd052	-0.27697998
81	0x3ebd45c9	0.36967304
82	0xbed5ce75	-0.41759077
83	0x3e516538	0.20448768
84	0x3e0f026a	0.13965765
85	0x3d9c1280	0.07620716
86	0x3e2b194e	0.16708872
87	0x3eed587b	0.46356568
88	0x3ee96dc9	0.45591572
89	0x3ee555ca	0.44792014
90	0xbe118b1d	-0.14213224
91	0xbe9481d9	-0.29005316
92	0xbed5b0dd	-0.41736498
93	0xbeb38639	-0.3506334
94	0xbe5d8ff5	-0.21636946
95	0xbe1a9ef0	-0.15099692
96	0x3e64e77b	0.22353928
97	0xbe976ffb	-0.29577622
98	0xbdc400a7	-0.09570437
99	0xbe5fe976	-0.21866402
100	0x3cfa62a1	0.030564608
101	0xbe37aadc	-0.17936271
102	0x3d49a32b	0.049227875
103	0xbd8dba69	-0.069203205
104	0x3eb64d4b	0.35605845
105	0x3d4ae730	0.049536884
106	0xbe20d6d4	-0.1570695
107	0x3ec94301	0.39308932
108	0x3f12d597	0.5735716
109	0xbbe3cdb5	-0.0069520124
110	0xbe5a8811	-0.21340968
111	0xbf198521	-0.59968764
112	0xbe8591cd	-0.260878
113	0xbe8fd9e6	-0.2809593
114	0x3ef1700f	0.47155806
115	0x3e067b93	0.13133077
116	0x3cb5a98b	0.022175571
117	0xbe7fd440	-0.2498331
118	0x3e92d9f0	0.28681898
119	0x3dec49b4	0.11537495
120	0xbe2d29bf	-0.16910456
121	0xbe530503	-0.2060738
122	0x3c84aa09	0.01619436
123	0xbe57b651	-0.21065642
124	0xbe570f84	-0.21002012
125	0xbd338d74	-0.043836072
126	0xbe122880	-0.14273262
127	0xbf0e0340	-0.5547371
128	0x3df53f8d	0.11975012
129	0x3e3f2510	0.18666482
130	0x3dd3e657	0.10346668
131	0xbe9621e1	-0.29322723
132	0x3ec809e5	0.3907005
133	0xbce87e78	-0.028380617
134	0xbe8e623c	-0.27809322
135	0xbe86be88	-0.2631724
136	0xbe923fcd	-0.285643
137	0xbe71a7ac	-0.23599118
138	0xbcd9efe8	-0.026603654
139	0x3eda684c	0.42657697
140	0x3ef8664b	0.48515543
141	0xbef200a8	-0.47266126
142	0x3f01d036	0.5070833
143	0x3dcd3a93	0.10020938
144	0xbe7787ac	-0.24172848
145	0x3ed6e4cd	0.41971436
146	0xbe89ef8a	-0.26940566
147	0xbe4c18fe	-0.19931409
148	0x3cfd102c	0.0308915
149	0xbe812460	-0.25223064

fa1.weight f4 [150, 2]
0	0x3f0c00fb	0.54688996
1	0x3d89c8cb	0.06727751
2	0xbc614e7b	-0.013751621
3	0x3c930200	0.01794529
4	0x3c1e56c8	0.009664245
5	0xbd127611	-0.03575713
6	0xbd0f5af2	-0.03499884
7	0xbe905529	-0.28189972
8	0x3efbd64a	0.49186927
9	0xbd6597e6	-0.056053065
10	0xbe5835d9	-0.21114291
11	0x3df306cb	0.1186653
12	0x3e5318de	0.20614955
13	0xbda34c18	-0.07973498
14	0x3d946a38	0.07246822
15	0x3e54f7ed	0.20797701
16	0xbe9cec5c	-0.30649078
17	0x3d075a68	0.033045202
18	0xbecc9120	-0.39954472
19	0xbc57deba	-0.013175661
20	0xbbd1fe50	-0.0064084902
21	0xbcfc0281	-0.030762913
22	0xbd838287	-0.064213805
23	0x3d6ac463	0.057316195
24	0xbd811d29	-0.0630439
25	0xbced59c2	-0.028973464
26	0xbd50b9c8	-0.050958425
27	0xbd7c7545	-0.061635274
28	0x3d6ebda0	0.05828631
29	0xbca7ff82	-0.020507578
30	0xbc969a18	-0.018384025
31	0xbd61533e	-0.055011027
32	0x3e9e8194	0.30958235
33	0x3e9246cc	0.2856964
34	0x3f0c6d8b	0.5485465
35	0xbcf4e834	-0.02989588
36	0xbc824bf4	-0.015905358
37	0xbc28e8cb	-0.010309408
38	0xbc5a63a8	-0.013329424
39	0x3d968b70	0.07350814
40	0xbd25eb28	-0.040507466
41	0x3c7b4200	0.01533556
42	0xbec2d0b8	-0.38049865
43	0x3d057e02	0.032590874
44	0x3cd7a9b2	0.026326034
45	0x3cb020f8	0.021500096
46	0xbfa1247c	-1.2589259
47	0xbdc9db40	-0.09856272
48	0x3f013312	0.5046855
49	0x3db034bd	0.08603809
50	0xbc7f040c	-0.01556493
51	0x3d2b6ece	0.04185372
52	0x3f1dcfb2	0.6164504
53	0xbd941666	-0.07230835
54	0x3cda7f28	0.026671961
55	0xbd6b1438	-0.05739233
56	0x3d7f8ed0	0.062392056
57	0xbb523c80	-0.0032079518
58	0xbd8de64b	-0.069286905
59	0xbe88e59f	-0.26737687
60	0xbf39b8fe	-0.725479
61	0x3ca09e37	0.019606693
62	0x3c0bc528	0.008530892
63	0xbc48b638	-0.012250476
64	0xbfb037e9	-1.3767062
65	0xbdf042b0	-0.1173147
66	0x3d952c56	0.07283847
67	0xbd6711ab	-0.056413334
68	0x3ee46efa	0.44615918
69	0x3e117164	0.14203411
70	0xbe44b5c8	-0.19209969
71	0x3e31f43c	0.17378324
72	0xbe9504a2	-0.29105097
73	0xbea5248c	-0.32254446
74	0xbd3e9885	-0.046532173
75	0xbc9b50f0	-0.018959492
76	0x3d72fcb0	0.059323013
77	0x3d5e2b48	0.054240495
78	0x3d07565c	0.033041343
79	0x3c3ad1b8	0.01140254
80	0xbce51a5c	-0.02796667
81	0x3b333b00	0.00273484
82	0x3f5e09dc	0.86733794
83	0x3e826c69	0.25473335
84	0x3eac0b53	0.3360239
85	0x3dbd5c2f	0.09246098
86	0x3ed58218	0.41700816
87	0x3d56d51b	0.052449327
88	0xbe93bc07	-0.2885439
89	0xbdd48d93	-0.10378566
90	0xbe2c10a7	-0.16803227
91	0xbd326035	-0.04354878
92	0x3cdf0283	0.027222877
93	0xbdfb5637	-0.122723036
94	0xbf456831	-0.7711211
95	0x3cfa2f82	0.030540232
96	0xbca8e212	-0.020615611
97	0x3d958bb3	0.07302036
98	0xbce17b36	-0.027524572
99	0x3d410ce8	0.04713145
100	0xbbbaee22	-0.005704657
101	0x3d8a2ae2	0.067464605
102	0x3f5676b6	0.8377489
103	0x3e2570d0	0.16156316
104	0x3bf8c6c0	0.007592052
105	0x3d19fcbe	0.03759455
106	0x3ea94ac0	0.33064842
107	0x3cd8ea39	0.026478874
108	0x3f28aa71	0.6588507
109	0x3dae5c9a	0.08513756
110	0x3ead316d	0.3382677
111	0x3dd2f885	0.103013076
112	0x3e5772e5	0.21039923
113	0xbe87bf3b	-0.26513085
114	0x3d40df58	0.047087997
115	0x3d25f216	0.040514074
116	0xbc90cb28	-0.017674997
117	0xbb369200	-0.002785802
118	0xbda4bf7c	-0.08044335
119	0x3d312650	0.04324943
120	0x3f129552	0.57259095
121	0x3dbe6255	0.09296099
122	0x3f092617	0.53573745
123	0x3d90e9c9	0.07075841
124	0x3de3bae9	0.11119635
125	0x3e60c277	0.21949182
126	0x3ebed97d	0.37275305
127	0x3e3a4064	0.18188626
128	0xbb9ec1ef	-0.004844896
129	0xbda817d2	-0.08207668
130	0xbe2ece0d	-0.1707079
131	0xbe698e91	-0.22808291
132	0xbd699892	-0.057030268
133	0xbc6c8380	-0.014435649
134	0x3d397604	0.045278564
135	0x3d893638	0.066997945
136	0xbed5bb6b	-0.4174455
137	0xbe84d14b	-0.25940928
138	0xbf99585e	-1.1980093
139	0xbde13ef9	-0.10998339
140	0xbda4430c	-0.08020601
141	0xbc792c58	-0.015208326
142	0x3e9acbd4	0.30233634
143	0x3e0733d0	0.13203359
144	0x3f00dbd6	0.50335443
145	0x3d3372e7	0.04381075
146	0x3f07a50c	0.52986217
147	0x3dbb37e1	0.091415174
148	0xbb863dae	-0.0040967083
149	0x3aed2b00	0.001809448
150	0x3e7048a2	0.23465207
151	0x3db4e9dd	0.088336684
152	0x3d4a9158	0.049455017
153	0xbc9b2064	-0.018936343
154	0xbd4a563b	-0.049398642
155	0xbce620df	-0.028091846
156	0xbae240ab	-0.0017261704
157	0xbd88939d	-0.0666878
158	0xbe051265	-0.12995298
159	0x3dd8b4b1	0.10581339
160	0xbe050c47	-0.12992965
161	0xbdbea734	-0.09309235
162	0x3e4da80d	0.20083638
163	0x3bb3c9b3	0.005486691
164	0x3e945d8e	0.28977627
165	0x3ed8a4b4	0.4231316
166	0x3c9f4a24	0.019444533
167	0x3d9a768a	0.07542141
168	0x3d7e0912	0.06202037
169	0xbd6d1391	-0.057879988
170	0x3b87f460	0.004149005
171	0x3c28bb70	0.010298595
172	0x3e8ca5d7	0.27470276
173	0xbee01b90	-0.4377103
174	0x3ed7997f	0.42109296
175	0x3dc96607	0.09833913
176	0x3b3cdd00	0.002881825
177	0x3d40e197	0.04709014
178	0xbd8aa212	-0.06769194
179	0x3d055b32	0.032557674
180	0xbd5fda7a	-0.054651715
181	0x3d70003f	0.058593985
182	0x3e9eb39b	0.30996403
183	0xbd7f3873	-0.062309694
184	0x3d9cd0f2	0.07657041
185	0x3d0d12d0	0.03444177
186	0xbe9996d9	-0.299979
187	0x3d88f353	0.066870354
188	0xbeeda6a1	-0.4641619
189	0xbd815ef1	-0.06316937
190	0x3ce60a34	0.028081037
191	0x3c53f85f	0.012937634
192	0x3c588e28	0.013217486
193	0xbd56a7e6	-0.052406214
194	0xbda02530	-0.07819593
195	0x3d84a798	0.064772785
196	0x3ee0be5b	0.4389523
197	0xbb5b2493	-0.0033438548
198	0x3ceb58d3	0.028728878
199	0x3c264748	0.010148831
200	0xbd124711	-0.035712305
201	0x3cfc4ac8	0.030797377
202	0xbf998f0e	-1.1996782
203	0xbdaaf39b	-0.08347245
204	0xbef69a10	-0.48164415
205	0xbf3dd7a0	-0.7415714
206	0x3ed38c12	0.41317803
207	0x3e840534	0.2578522
208	0xbc1f9ddb	-0.0097422255
209	0x3d70f13c	0.05882381
210	0x3f58c108	0.8466954
211	0x3e6d5e87	0.2318059
212	0x3d34e33d	0.044162024
213	0xbd9b1c2f	-0.07573735
214	0x3da4deae	0.08050285
215	0x3da517c9	0.08061177
216	0x3ca51608	0.020152107
217	0xbd3af20a	-0.045640983
218	0xbee826a4	-0.4534198
219	0xbdc0a305	-0.094060935
220	0x3f1c7e46	0.6113018
221	0x3e38c1eb	0.18042724
222	0x3e251da9	0.16124596
223	0xbd1364ae	-0.035984688
224	0x3f213d58	0.6298423
225	0x3e0d4e2b	0.1379935
226	0xbdc64d14	-0.0968267
227	0x3e9462dd	0.28981677
228	0x3dd5e896	0.10444753
229	0xbde74f01	-0.11294366
230	0x3a54d708	0.00081192004
231	0x3d8c5d1c	0.06853697
232	0x3f3b5a2e	0.7318448
233	0x3e55d0c1	0.20880415
234	0x3e96e43d	0.29471007
235	0xbd7a6846	-0.0611346
236	0x3ec301e4	0.3808738
237	0x3cc0065d	0.023440534
238	0x3d12db7b	0.035853844
239	0xbea452f0	-0.32094526
240	0x3ee4631b	0.4460686
241	0x3dda88ee	0.106706485
242	0x3e23ac84	0.15983778
243	0x3d3e5ab3	0.046473216
244	0x3e5bd9d5	0.21469815
245	0x3d672aae	0.056437187
246	0x3d8b9b22	0.068166986
247	0x3d008136	0.031373225
248	0x3d576be4	0.052593127
249	0x3d0ca058	0.034332603
250	0x3caa1ac7	0.020764722
251	0xbcbd071f	-0.023074685
252	0x3a3aaa00	0.0007120669
253	0xbd045db4	-0.032315925
254	0x3f428949	0.7599073
255	0x3e818281	0.2529488

fa1.bias f4 [150]
0	0x3f3f13b7	0.7463946
1	0xbeab6a13	-0.33479366
2	0xbea01cea	-0.3127206
3	0x3f7d81be	0.99026096
4	0x3f08903e	0.53345096
5	0x3e16a07d	0.14709659
6	0x3f7610d3	0.9611942
7	0x3ec7fc41	0.39059642
8	0x3f0fdf26	0.5619987
9	0x3f06f702	0.52720654
10	0xbe612096	-0.21985087
11	0xbf05a35a	-0.5220238
12	0xbf2cf20b	-0.6755683
13	0xbf25bacf	-0.6473817
14	0xbf22a686	-0.63535345
15	0xbe909626	-0.28239554
16	0x3f049f25	0.51805335
17	0x3f49bf99	0.7880798
18	0xbeb40b98	-0.35165095
19	0xbf2d17cf	-0.67614454
20	0xbec00769	-0.37505654
21	0x3e44fe16	0.19237551
22	0xbeeab8ab	-0.45844015
23	0xbe1ddb0f	-0.15415595
24	0x3eb095a3	0.34489164
25	0xbeecc17b	-0.46241364
26	0x3f137975	0.57607204
27	0xbeb0ba10	-0.34516954
28	0xbf02974c	-0.5101211
29	0x3f6e7800	0.93151855
30	0x3e92d928	0.28681302
31	0xbec57ec9	-0.38573292
32	0xbe2eb013	-0.17059354
33	0xbf319fd4	-0.69384503
34	0x3f1ba0f0	0.60792446
35	0x3ec7e814	0.3904425
36	0x3f50ad4c	0.8151443
37	0xbe199fb0	-0.15002322
38	0xbf1c1257	-0.60965484
39	0xbed810aa	-0.42200214
40	0xbe616b1e	-0.22013518
41	0x3f42881c	0.75988936
42	0x3f759fe1	0.9594708
43	0x3e96fc3f	0.29489323
44	0x3f6d8207	0.9277653
45	0x3f39686e	0.7242497
46	0x3f827f51	1.0195104
47	0x3e8a2c7f	0.26987073
48	0xbe2a679c	-0.16641086
49	0xbf0afe4f	-0.54294294
50	0xbecdfa1f	-0.4022989
51	0x3f0df417	0.55450577
52	0xbe4bf2e8	-0.1991688
53	0x3f704bda	0.9386574
54	0x3f4bce47	0.7961163
55	0x3f5b3ab2	0.85636437
56	0x3ef0ce9f	0.4703264
57	0xbef14752	-0.47124726
58	0xbea9223f	-0.3303394
59	0xbe4d72dc	-0.20063347
60	0x3f82fb8c	1.0233016
61	0x3f4c5b14	0.79826474
62	0x3f64c263	0.8935911
63	0x3f542961	0.8287564
64	0x3f5e8836	0.8692659
65	0x3f1e31cd	0.6179474
66	0xbe9a7587	-0.3016779
67	0xbf197f6e	-0.5996007
68	0x3f3d5886	0.739632
69	0xbe32b364	-0.17451245
70	0xbf20ff8a	-0.6288992
71	0x3f6ac6bf	0.9170951
72	0x3f58234e	0.8442887
73	0x3ead92ea	0.3390115
74	0xbdaa8418	-0.08325976
75	0x3f8370ae	1.0268762
76	0xbf0da51d	-0.5533007
77	0xbeb47519	-0.35245588
78	0xbe51c9c6	-0.20487127
79	0x3f783252	0.9695178
80	0x3f4c139e	0.79717433
81	0x3f6d947e	0.92804706
82	0xbd243fe3	-0.04009999
83	0xbf1f2bca	-0.6217619
84	0x3f831700	1.0241394
85	0xbf1933b3	-0.5984451
86	0x3e9d5823	0.30731305
87	0x3f5d5dff	0.8647155
88	0xbef73156	-0.48279828
89	0xbd8cc6f0	-0.06873882
90	0xbf328865	-0.6973937
91	0x3f36cbc8	0.71404696
92	0xbe251f58	-0.16125238
93	0x3f630405	0.8867801
94	0x3f05aa37	0.5221285
95	0xbe9bcfa4	-0.30431855
96	0xbed09cfd	-0.40744773
97	0xbe559f22	-0.20861486
98	0x3f7c8885	0.9864581
99	0xbea49c04	-0.3215028
100	0xbf0507f4	-0.5196526
101	0xbde7cb4d	-0.113180734
102	0x3e0699b7	0.13144575
103	0x3f676bed	0.90399057
104	0xbeba09aa	-0.36335498
105	0x3f2b2451	0.6685229
106	0xbe63a232	-0.22229841
107	0x3f7b41bb	0.9814717
108	0xbf1c7d11	-0.61128336
109	0x3f1ebac5	0.6200374
110	0x3f8d884d	1.1057221
111	0x3f745010	0.95434666
112	0x3f011cf3	0.504348
113	0x3e99454b	0.2993568
114	0x3f7cde81	0.98777014
115	0xbf2c96cf	-0.67417616
116	0x3f26a149	0.6508985
117	0x3e9bd0bb	0.30432686
118	0x3eaa62c6	0.33278483
119	0x3f422eaa	0.75852454
120	0x3ed63137	0.41834423
121	0x3f2361ba	0.63820994
122	0x3f54cbe1	0.83123595
123	0xbee9c2fd	-0.45656577
124	0xbf295a13	-0.6615307
125	0xbd9d256c	-0.07673153
126	0xbdf62ac8	-0.120198786
127	0x3f47b32b	0.78007764
128	0x3f2c5428	0.6731591
129	0x3f57a6f3	0.8423912
130	0x3f685d6b	0.90767545
131	0x3ea2556c	0.31705797
132	0x3f54d66b	0.83139676
133	0x3f2b9c98	0.6703582
134	0xbe18a5ec	-0.14907044
135	0x3e8ac25c	0.2710141
136	0x3f318a9b	0.6935212
137	0x3f3602f4	0.71098256
138	0xbf03edaa	-0.5153452
139	0x3f83c424	1.0294232
140	0x3f19b6fb	0.6004483
141	0xbe8e2bde	-0.27767843
142	0x3d82bf23	0.06384113
143	0x3e8c06d3	0.27348956
144	0x3f803c90	1.0018482
145	0xbf157d42	-0.58394253
146	0xbe6c27dc	-0.2306208
147	0xbe439cd2	-0.19102791
148	0x3f5e2fcf	0.867917
149	0xbe15f58a	-0.14644447

fca1.weight f4 [300, 300]
0	0xbcfb1da9	-0.030653792
1	0x3c89c989	0.016819732
2	0x3c35c1e6	0.011093592
3	0xbd86a0d7	-0.065736465
4	0xbd68426e	-0.056703977
5	0xbd2e2c77	-0.042522874
6	0xbcda8218	-0.026673362
7	0xbd61fd1a	-0.055173017
8	0x3cbf48e8	0.023350194
9	0x3adc5d60	0.0016812496
10	0xbb1c5218	-0.0023852643
11	0xbd621d84	-0.05520393
12	0xbced78c5	-0.028988251
13	0x3cf8b2d6	0.030358713
14	0x3cd8f703	0.026484972
15	0xbd4ccb3e	-0.049998514
16	0xbd026d80	-0.03184271
17	0x3c011ea8	0.007880844
18	0xbd150ca2	-0.036389
19	0xbd43064a	-0.04761342
20	0xbbdec9f0	-0.006798975
21	0xbd26d1a1	-0.04072726
22	0xbd0cf5f2	-0.03441424
23	0xbbc2285c	-0.0059252214
24	0xbca7c15d	-0.020477945
25	0x3b9fab1d	0.004872693
26	0xbd006e6f	-0.031355318
27	0x3cc08df1	0.023505183
28	0x3c151ae8	0.009100653
29	0xbd0f577d	-0.034995545
30	0x3d62334a	0.055224694
31	0x3cbf88d0	0.023380667
32	0xba27107f	-0.00063730025
33	0x3d62c38b	0.055362266
34	0xbd4c7a8c	-0.049921557
35	0x3d4c59a1	0.049890164
36	0x3d4fbcb6	0.05071708
37	0xbc11e10b	-0.008903752
38	0x3b3311b9	0.0027323796
39	0xbda47dd4	-0.08031812
40	0x3d5e3d8c	0.054257914
41	0x3c99ed61	0.018789949
42	0xbd151b1c	-0.036402807
43	0x3c92e5b8	0.017931804
44	0xbbf1d171	-0.0073797037
45	0xbd8f3fb8	-0.06994575
46	0x3ca8e9e2	0.020619337
47	0xbd37fc63	-0.04491843
48	0xbd52f0d6	-0.05149921
49	0xbd262bc0	-0.040569067
50	0xbd074963	-0.03302897
51	0xbd3e26aa	-0.04642359
52	0x3d05859c	0.032598123
53	0x3d4927d6	0.049110256
54	0x3d163f7e	0.036681645
55	0xbd94e8f9	-0.072709985
56	0xbcbb262c	-0.02284535
57	0xbc5cfb42	-0.013487639
58	0x3aac8ec7	0.001316511
59	0x3b532846	0.003222005
60	0xbc796f5c	-0.015224304
61	0xbd87733d	-0.06613777
62	0xbd633ac1	-0.055475954
63	0x3d4f29f0	0.050577104
64	0xbd3a71fa	-0.045518853
65	0x3b81006a	0.003936817
66	0xbcabc63a	-0.020968545
67	0xbd140f1a	-0.036147214
68	0xbd94b55c	-0.07261154
69	0x3cab8f9c	0.020942502
70	0x3ba7ca00	0.005120516
71	0x3ca794f2	0.020456765
72	0xbd9bbdd2	-0.07604565
73	0xbced648a	-0.028978605
74	0xbca476fc	-0.020076267
75	0xbda9ceaf	-0.08291375
76	0x3c946aa2	0.018117253
77	0xbd5078be	-0.0508964
78	0x3c294e5b	0.010333623
79	0x3d2298ea	0.03969661
80	0x3d4dfa1e	0.05028736
81	0x3cde3d50	0.027128845
82	0x3b2df130	0.0026541464
83	0x3b1647e6	0.0022931038
84	0xbda96a64	-0.082722455
85	0xbd2a2534	-0.041539386
86	0xbcf4598b	-0.029827854
87	0xbd684e72	-0.056715436
88	0xbbf44903	-0.0074549927
89	0xbd398744	-0.045295015
90	0xbd1f9267	-0.03895798
91	0xbc9e80cf	-0.01934853
92	0x3a3ff800	0.00073230267
93	0x3d47964c	0.04872732
94	0x3c4a63d0	0.012352899
95	0x3cfa7cec	0.030577146
96	0xbd7a3864	-0.061088935
97	0xbbeefa86	-0.0072930483
98	0x3cdb232c	0.02675017
99	0x3cb48624	0.02203662
100	0x3b3e6bf6	0.002905605
101	0xbbe34598	-0.0069357865
102	0x3c391bc0	0.01129812
103	0xbd125f30	-0.03573531
104	0xbcf64a42	-0.030064706
105	0x3c0e068a	0.008668551
106	0xbcba3e60	-0.02273482
107	0x3d1b0280	0.03784418
108	0x3b39bfd9	0.002834311
109	0xbca25e80	-0.019820452
110	0x3d17ab4b	0.037028592
111	0xbd6567f2	-0.056007333
112	0xbc722f6c	-0.014781814
113	0x3d3b543a	0.04573462
114	0xba98c2b0	-0.0011654701
115	0xbc92d760	-0.017924964
116	0x3cc241fc	0.023713104
117	0xbcc21c52	-0.023695145
118	0x3d05a16d	0.03262465
119	0xbd218b88	-0.039439708
120	0x3cd464f4	0.025927044
121	0xbca6f738	-0.020381555
122	0x3ca1b986	0.019741785
123	0xbcc57abf	-0.024106381
124	0x3d588a00	0.052865982
125	0xbd77b7e3	-0.060478102
126	0xba9793c0	-0.0011564419
127	0xbbbae4a8	-0.0057035275
128	0x3cc85ce2	0.024458352
129	0xbb89161f	-0.0041835452
130	0x3bb6e9e0	0.0055820793
131	0xbc4b17a8	-0.012395777
132	0xbbaa5631	-0.005198263
133	0x3c34b398	0.011029147
134	0x3d65c790	0.05609852
135	0xbcf9eb57	-0.030507727
136	0xbd6d7a2f	-0.05797785
137	0x3d079dc4	0.03310944
138	0x3c274b38	0.010210805
139	0xbd7cdad0	-0.061732113
140	0xbd63af16	-0.055586897
141	0xbd5df84b	-0.05419187
142	0xbca4760d	-0.020075822
143	0x3c9291f8	0.017891869
144	0x3c0870b8	0.0083276555
145	0xbd38afe8	-0.045089632
146	0x3cf18eb0	0.029486984
147	0xbcb713f8	-0.022348389
148	0xbd48393e	-0.048882715
149	0xbd452a52	-0.048136063
150	0xbc44e8db	-0.012018408
151	0x3cbbc650	0.022921711
152	0xbd140689	-0.036139045
153	0x3cb48d66	0.02204008
154	0xbd774207	-0.060365703
155	0xbcd011e1	-0.02539915
156	0x3a815103	0.0009866062
157	0xbd90a3c4	-0.07062486
158	0xbd42fe37	-0.04760572
159	0x399fc2ee	0.00030472077
160	0x3c50c940	0.012743294
161	0x3d0cd91b	0.034386735
162	0x3d088e9c	0.033339128
163	0x3d0eabf4	0.034831956
164	0x3c98bde4	0.018645234
165	0x3b64dac0	0.0034920424
166	0x3c9f2102	0.019424919
167	0xbd755801	-0.05989838
168	0xbd24d60e	-0.0402432
169	0xbd001cc8	-0.031277448
170	0xbd630014	-0.055419996
171	0xbb57b7a3	-0.0032915852
172	0x3ca35ca8	0.019941643
173	0x3cf820d6	0.030289095
174	0x3a118b43	0.00055520626
175	0xbbf11328	-0.00735702
176	0xbd8f9a7d	-0.07011888
177	0xbab5680e	-0.0013840215
178	0x3d0bdfb0	0.034148872
179	0x3cd79dfa	0.026320446
180	0x3b687bf4	0.0035474272
181	0xbbaf57d0	-0.0053510442
182	0xbd42b57d	-0.047536362
183	0x3d58125e	0.05275189
184	0xbd5a63d9	-0.05331788
185	0x3c8c1ad0	0.017102629
186	0x3c785a9f	0.0151583245
187	0x3c8b780c	0.017025016
188	0x3d15b600	0.03655052
189	0xbd23888a	-0.039925136
190	0xbd35de45	-0.044401426
191	0xbd5769af	-0.052591022
192	0x3c9dd39f	0.019265948
193	0xbd07e03c	-0.03317283
194	0xbc9ecf3b	-0.019385925
195	0xb97fb7bc	-0.00024387141
196	0xbd1ba936	-0.03800317
197	0xbc4d10fe	-0.012516258
198	0xbd056d76	-0.032575093
199	0xbd523880	-0.051323414
200	0x3d23c2b0	0.03998059
201	0xbd66a022	-0.05630506
202	0xbc56bf52	-0.013107138
203	0xbd98ad27	-0.07454901
204	0xbd3331f9	-0.04374883
205	0xbbd1ce32	-0.006402754
206	0xbd0d5389	-0.034503493
207	0xbcd024aa	-0.025408108
208	0x3d0d3c80	0.034481525
209	0x3d438e52	0.04774315
210	0x39d4a828	0.00040561077
211	0xbc046bd0	-0.008082345
212	0xbda2ee99	-0.07955665
213	0xbd288f68	-0.041152388
214	0xbc9011fa	-0.017586697
215	0xbbeb689d	-0.0071841017
216	0x3d294010	0.04132086
217	0xbd0c15cb	-0.03420047
218	0xbd825755	-0.063643135
219	0x3c340f4a	0.010989973
220	0xbc2dceb7	-0.010608367
221	0xbcf62888	-0.030048624
222	0xbc33ee49	-0.010982105
223	0xbd79f7dc	-0.061027393
224	0x3cf2a624	0.029620238
225	0xbd225145	-0.039628286
226	0xbd63b606	-0.055593513
227	0xbd571e00	-0.052518845
228	0x3bda7250	0.006666459
229	0xbd9d7fa1	-0.07690359
230	0xbd80993a	-0.06279226
231	0xbd5b66be	-0.05356478
232	0xb9dc8200	-0.00042058527
233	0x3d62e8a4	0.055397645
234	0xbcbb3c9b	-0.022856047
235	0x3cf3fd44	0.029783852
236	0xbdae2e54	-0.0850493
237	0xbcc59662	-0.02411956
238	0x3d230d3c	0.039807543
239	0xbc1fc538	-0.00975161
240	0xbcc467f2	-0.023975346
241	0xbce0ba0a	-0.02743246
242	0x3d3a9954	0.04555638
243	0xbd5e50d8	-0.054276317
244	0xbda5b211	-0.08090604
245	0xbc1a0c9c	-0.00940242
246	0xbcefdc04	-0.029279716
247	0x3d5393f0	0.051654756
248	0xbd9a7e2e	-0.07543598
249	0xbcce800a	-0.025207538
250	0xbc8d587a	-0.017254103
251	0xbda456a8	-0.08024341
252	0xbd7425db	-0.059606414
253	0xbd58b7be	-0.052909605
254	0x3d287a30	0.041132152
255	0xbd9eb767	-0.07749825

fca1.bias f4 [300]
0	0xbd49f4a0	-0.04930556
1	0xbd14e567	-0.036351588
2	0x3b960621	0.0045783673
3	0x3d12569a	0.03572712
4	0x3d260b94	0.040538386
5	0xbc55b744	-0.013044182
6	0xbcbc6b14	-0.023000278
7	0x3d9edcfe	0.07756995
8	0x3cf310d9	0.02967112
9	0xbc655af8	-0.013998739
10	0x3d15caa9	0.036570225
11	0x3c9b50bd	0.018959397
12	0xbd69079a	-0.056892015
13	0xbc38626b	-0.011253933
14	0x3d8b144a	0.06790979
15	0x3c3dff22	0.011596473
16	0x3cd0cd9e	0.02548867
17	0xbd351845	-0.0442126
18	0x3ce50d5d	0.027960474
19	0x3d1f76cb	0.03893165
20	0xbd370252	-0.044679947
21	0x3d93530c	0.07193574
22	0xbc8df911	-0.017330678
23	0x3c9c5218	0.019082114
24	0xbd49c099	-0.04925594
25	0xbca1ff1e	-0.01977497
26	0x3daeab6c	0.0852879
27	0xbd0d4b7b	-0.034495812
28	0xbc3bdc6b	-0.011466126
29	0xbd371cd8	-0.044705242
30	0x3d40dc3f	0.047085043
31	0x3c8c5e09	0.017134683
32	0x3e0373a1	0.12837078
33	0xbdfcac83	-0.123375915
34	0x3d27b621	0.040945176
35	0x3badd5be	0.005305021
36	0x3b929a93	0.004473993
37	0xbd289ae9	-0.04116336
38	0x3d13bdbf	0.036069628
39	0xbdad38b0	-0.08458078
40	0x3d8e4a6e	0.0694779
41	0xbdb5ab89	-0.08870608
42	0xbda3e89c	-0.08003351
43	0x3c156652	0.009118633
44	0x3cbcd566	0.023050975
45	0xbce100a3	-0.027466124
46	0xba00762e	-0.00049004226
47	0x3e8f6a8c	0.28010976
48	0xbcc6b367	-0.024255468
49	0x3ba0c3a3	0.004906134
50	0xbd8eb9ad	-0.069690086
51	0xbc9598cc	-0.018261336
52	0x3d1688c3	0.03675152
53	0x3dde04b6	0.10840742
54	0xbbd850d6	-0.0066014333
55	0x3d07cb8b	0.033153098
56	0xbd5e25e0	-0.05423534
57	0xbc0fde98	-0.008781098
58	0x3eec3e36	0.46141213
59	0x3bbf4140	0.005836636
60	0xbd1ee3a4	-0.038791314
61	0x3d64023a	0.055666186
62	0x3d621107	0.05519202
63	0xbc74ba3c	-0.01493698
64	0xbd59553e	-0.05305981
65	0xbc64e740	-0.01397115
66	0xbd5a216b	-0.053254526
67	0x3dbb8b18	0.091573894
68	0xbd9f1818	-0.077682674
69	0x3d94d190	0.072665334
70	0x3d06868c	0.032843158
71	0xbcfad2b0	-0.030618042
72	0x3d41b3eb	0.047290724
73	0x3d8f8986	0.070086524
74	0x3d42784b	0.047478
75	0x3d0b193d	0.033959616
76	0xbb2f9f35	-0.0026797776
77	0xbc4ee582	-0.012627961
78	0xbc2afff5	-0.0104370015
79	0x3c32bfa1	0.010909946
80	0x3d110a1e	0.03541004
81	0x3d7bc1df	0.061464187
82	0xbd3c10f2	-0.045914598
83	0x3cf9e274	0.03050349
84	0x3dc893c3	0.09793808
85	0xbd1a8b38	-0.037730426
86	0x3cee22a1	0.029069247
87	0xbd39f421	-0.045398835
88	0x3d6946be	0.05695223
89	0x3d8863b0	0.06659639
90	0x3ddcb9bc	0.107776135
91	0x3befb24b	0.0073149554
92	0xbb9b9351	-0.004747786
93	0xbc54a2ac	-0.012978237
94	0x3cfd1553	0.030893957
95	0x3d38664c	0.045019433
96	0x3db6d8ae	0.08928047
97	0x3d1a7911	0.037713114
98	0x3cbaaa11	0.022786172
99	0xbd83f34c	-0.064428896
100	0x3c66d845	0.014089649
101	0x3c4f459b	0.012650873
102	0x3cbb596d	0.02286979
103	0x3b90148d	0.004396981
104	0x3b0845b0	0.002079349
105	0xbce2a659	-0.027667211
106	0x3d099ed9	0.033598755
107	0xbd1f0178	-0.03881976
108	0x3ca6d69c	0.020366006
109	0xbd885343	-0.06656506
110	0x3ccef301	0.025262358
111	0xbd3992c7	-0.045305993
112	0xbd3b9deb	-0.0458049
113	0x3d2ad979	0.041711304
114	0x3da382b8	0.07983917
115	0x3d09a073	0.033600282
116	0x3d932b4c	0.071859926
117	0x3d784c58	0.060619682
118	0xbc5fc461	-0.01365766
119	0xbd189043	-0.037246954
120	0xbd61a652	-0.055090256
121	0x3d22a5d1	0.039708916
122	0xbbf23522	-0.007391588
123	0xbd2f26ac	-0.04276149
124	0xbd1f2fd2	-0.038863964
125	0x3d8d1c80	0.068902016
126	0x3ea562d8	0.32301974
127	0xbd1c1c93	-0.038113188
128	0x3cc21e00	0.023695946
129	0xbd8c31f7	-0.068454675
130	0xbc77f380	-0.0151337385
131	0x3cee6f86	0.029105913
132	0x3e0ddd8b	0.13854043
133	0x3da3a56f	0.07990538
134	0xbd06ed36	-0.032941066
135	0xb9e826a3	-0.00044279275
136	0x3ba42585	0.0050093555
137	0xbd1e244c	-0.038608834
138	0xbc554080	-0.013015866
139	0x3c08a7ba	0.00834077
140	0x3d8ec842	0.0697179
141	0x3d08a2d2	0.033358403
142	0x3d9381b3	0.072024725
143	0xbd4f332d	-0.050585914
144	0xbd453766	-0.048148535
145	0xbb397b84	-0.002830238
146	0xbc2fe46e	-0.010735614
147	0x3d96cb8a	0.07363041
148	0x3d052219	0.03250322
149	0xb8fed362	-0.00012151037
150	0x3d37dd2a	0.044888653
151	0x3d690e94	0.05689867
152	0x3d83bec6	0.064328715
153	0x3cc52b04	0.024068363
154	0x39d15f7f	0.00039934737
155	0xbd42bb14	-0.047541693
156	0xbd68d496	-0.056843363
157	0x3a44e981	0.00075116014
158	0x3ba5619a	0.0050470354
159	0xbd1c00d7	-0.03808674
160	0xbc1e6a48	-0.009668894
161	0x3d6326ef	0.05545705
162	0xbd1d9e3b	-0.03848098
163	0x3d880dbd	0.06643245
164	0x3b956258	0.0045588426
165	0x3c1bda39	0.009512478
166	0x3cffa1d4	0.031205095
167	0xbd88c60e	-0.06678401
168	0xbbbfa6b1	-0.0058487286
169	0x3bb73ae7	0.0055917385
170	0xbc205470	-0.0097857565
171	0x3d985a6b	0.07439121
172	0xbd535da3	-0.05160297
173	0x3c109690	0.008824959
174	0x3df3258b	0.11872395
175	0xbd677751	-0.056510273
176	0xbb94528d	-0.0045264424
177	0xbd2350e4	-0.039872065
178	0xbd4a51d1	-0.049394432
179	0xbd72b337	-0.059252944
180	0x3c440262	0.011963459
181	0xbcd653f2	-0.026163075
182	0x3c0ac8ce	0.008470727
183	0xbdc4450e	-0.09583484
184	0x3d13581a	0.035972692
185	0x3cca15ed	0.024668658
186	0xbd196740	-0.037451982
187	0x3edc66cc	0.43047178
188	0x3c88007e	0.016601797
189	0xbd2f1920	-0.04274857
190	0x3c6ffb33	0.014647293
191	0xbc17e32e	-0.009270472
192	0xbdb0f12c	-0.0863975
193	0x3c6947d1	0.014238314
194	0xbd98e55d	-0.074656226
195	0x3db18f8b	0.08669957
196	0x3c8b334c	0.016992234
197	0x3cbcbb8b	0.023038646
198	0x3d482fe2	0.04887379
199	0x3c983d97	0.018584056
200	0x3d9fee04	0.0780907
201	0xbd22a65c	-0.039709434
202	0x3c996cd8	0.018728659
203	0x3cd626f9	0.02614163
204	0xbd1dd744	-0.03853537
205	0x3d732cec	0.059369013
206	0xbda8a663	-0.08234861
207	0x3cb15e9e	0.021651562
208	0xbd568a60	-0.05237806
209	0xbbb7454d	-0.005592978
210	0xbe00a951	-0.12564589
211	0xbcbaacc8	-0.022787467
212	0xbd9121bc	-0.070865124
213	0x3d9b08dd	0.0757005
214	0x3d6f96fc	0.0584936
215	0xbd8568b9	-0.06514115
216	0x3d35d99f	0.044396993
217	0xbc36dfd3	-0.011161762
218	0x3cb020e1	0.021500053
219	0xbcdb92ea	-0.026803453
220	0x3d019d2a	0.031644024
221	0x3ec7752c	0.38956583
222	0xbd3549c6	-0.04425981
223	0xbd8c07ce	-0.06837426
224	0x3c875157	0.016518278
225	0xbd8bbb3e	-0.06822823
226	0x3c872839	0.016498672
227	0x3dc561f9	0.096378274
228	0xbc5ea6c8	-0.013589568
229	0x3de6eee3	0.11276033
230	0x3c97bd1d	0.018522793
231	0xbd5095a3	-0.050923955
232	0xbd2acbb2	-0.041698165
233	0xb9ee4134	-0.00045443478
234	0xbc12510c	-0.008930456
235	0xbc56bb77	-0.013106219
236	0xbd04e319	-0.03244314
237	0x3c699572	0.014256822
238	0xbca4ace0	-0.020101964
239	0x3b04c14c	0.0020256815
240	0x3d4668b9	0.048439715
241	0xbcfc069d	-0.030764872
242	0x3c7bb1ec	0.015362244
243	0x3b10d3b3	0.0022098839
244	0xbd7644ae	-0.06012409
245	0xbcea3df0	-0.028593987
246	0xbc9ff114	-0.019524135
247	0xbd6b54eb	-0.05745403
248	0x3d64dee5	0.05587663
249	0xbd25c717	-0.04047307
250	0x3d240218	0.04004106
251	0x3b511dd7	0.0031908655
252	0xbd8c1aa3	-0.06841018
253	0x3d81a601	0.06330491
254	0xbdccdb39	-0.10002751
255	0xbceb424d	-0.028718138

fca2.weight f4 [1, 300]
0	0x3b2eb184	0.00266561
1	0xbba88e50	-0.005143918
2	0xc001d5d0	-2.028675
3	0x3680b000	3.8351864e-06
4	0xbbc34462	-0.0059590796
5	0xbf76bce2	-0.9638196
6	0xbb82f41a	-0.0039963843
7	0xbfd1f32e	-1.6402338
8	0xbfa3ff25	-1.2812239
9	0xbfb2b198	-1.3960447
10	0xbfa3bc45	-1.279183
11	0x3cc9dbdf	0.024640976
12	0x3cc132b9	0.023583757
13	0xb9899529	-0.0002624181
14	0xbfb9533e	-1.4478528
15	0xbfd70b08	-1.6800241
16	0xbfcfc070	-1.6230602
17	0xbba57e93	-0.005050489
18	0x3b5575ea	0.0032571503
19	0xbb972e57	-0.0046136784
20	0xbb6dfb4f	-0.0036313122
21	0xbfbdba8b	-1.4822553
22	0xbfbc9dc2	-1.4735644
23	0xbbca16d2	-0.006167271
24	0xbf92f6cd	-1.1481568
25	0xbfa54088	-1.2910318
26	0xbfd87433	-1.6910461
27	0x3c771f59	0.015083157
28	0xbbc69138	-0.006059792
29	0xbfad922a	-1.3560231
30	0xbfec69f2	-1.8469832
31	0xc002fa4f	-2.0465276
32	0xc00af6c0	-2.1713104
33	0xbf476c62	-0.77899754
34	0xbbae20ff	-0.005313992
35	0xbff60a8d	-1.922197
36	0xbbbcc4da	-0.005760771
37	0xbf06891c	-0.5255296
38	0xbfad14f9	-1.3522025
39	0xbf756b0b	-0.9586646
40	0xbfd79acf	-1.6844119
41	0x3cf0d2dd	0.029397422
42	0xbf842b15	-1.0325648
43	0xbfa49635	-1.285834
44	0xbfdb2c8b	-1.7122968
45	0xbbba1e05	-0.005679848
46	0xbfc0e666	-1.5070312
47	0x3ea6dcf3	0.32590446
48	0xbfdd6aa7	-1.7298173
49	0xbfd74148	-1.6816797
50	0x3c95b6c5	0.018275628
51	0x3b546a9e	0.0032412182
52	0xbfe7044f	-1.804819
53	0xbfeaefc3	-1.835442
54	0xbfd1056c	-1.632978
55	0xbfabf45f	-1.3433951
56	0xbbc8c90e	-0.006127483
57	0x3a0b69ea	0.00053182116
58	0x3f6304fc	0.8867948
59	0xb9bdab20	-0.00036176387
60	0x3b2d3f18	0.0026435312
61	0xbfc3c4f4	-1.529448
62	0xbfab7994	-1.3396478
63	0xbad67824	-0.0016362709
64	0xbbcc729e	-0.0062392494
65	0xbca0e9e4	-0.019642778
66	0xb99d2302	-0.00029971456
67	0xc007bdc3	-2.1209571
68	0xbf04840b	-0.5176398
69	0xbfeab662	-1.8336909
70	0xc001af6a	-2.0263314
71	0xbbe50ca3	-0.006990032
72	0xc000ac29	-2.0105078
73	0xc0013033	-2.0185668
74	0xc0097360	-2.147667
75	0xc0086469	-2.1311285
76	0xbf4fa5e5	-0.8111251
77	0xbfc18cb7	-1.5121068
78	0x3b2b1162	0.002610289
79	0xbfa088e6	-1.2541778
80	0xbaac5377	-0.0013147433
81	0xbfc0da38	-1.5066595
82	0xbf439b0e	-0.7640847
83	0xc00485a0	-2.0706558
84	0xbfc87cc3	-1.5663074
85	0xbf4ca03a	-0.79931986
86	0xbfdd515d	-1.7290455
87	0xbb484f39	-0.0030564799
88	0xbfee82b0	-1.8633633
89	0xbff1dd3e	-1.8895643
90	0xc005c125	-2.0899136
91	0xbfbecaf0	-1.4905682
92	0xbfd0ba24	-1.6306806
93	0xbfdf0d41	-1.742592
94	0xbfe9e873	-1.8274063
95	0x38e9979a	0.00011138544
96	0xbff10a4e	-1.883127
97	0xbf82d8d6	-1.0222423
98	0xbbd1aa92	-0.0063985074
99	0xbb37aeef	-0.0028027853
100	0xbfd41bbd	-1.6570965
101	0xbfa0c290	-1.2559376
102	0x3cfa9bcf	0.030591873
103	0x3c28af52	0.010295706
104	0x3ab4f314	0.0013805353
105	0xbfb991ba	-1.4497597
106	0xbbc97d36	-0.0061489595
107	0xbf1afd81	-0.60543066
108	0xbfcb78c0	-1.5896225
109	0xbca69321	-0.020333828
110	0xc00bbdbd	-2.1834557
111	0xbb354004	-0.0027656564
112	0xbb9a9eb1	-0.0047186245
113	0xc00741db	-2.1133945
114	0xbfe831d3	-1.8140205
115	0xc0037502	-2.0540166
116	0xbfb0e7ce	-1.3820741
117	0xbfee823b	-1.8633493
118	0xbbb7433f	-0.005592733
119	0xbb7ac80f	-0.0038266217
120	0xbccc1769	-0.024913507
121	0xbbaec57e	-0.0053336015
122	0xbfda3b09	-1.7049266
123	0xbb994f00	-0.004678607
124	0xbf39b435	-0.725406
125	0xbfe9ba4d	-1.825998
126	0x3ea574a9	0.32315567
127	0xbfb379b3	-1.4021515
128	0x3b85c58a	0.0040823864
129	0xbf97cd95	-1.1859614
130	0x3ade6b10	0.0016969163
131	0x3b9cc5ca	0.0047843205
132	0xc013d57a	-2.3099046
133	0xbfe777d2	-1.8083441
134	0xbfc0b6b9	-1.5055763
135	0xbfb81791	-1.4382192
136	0xbfb7cd43	-1.4359516
137	0xbfb82e03	-1.4389042
138	0xbbe62368	-0.0070232637
139	0xbc01b00f	-0.007915511
140	0xbfeaa2a9	-1.833089
141	0xbf8280fb	-1.0195612
142	0xbfd1879f	-1.6369513
143	0x3ba2e3c1	0.004970998
144	0x3cdc6ae0	0.02690643
145	0xbfce39ca	-1.6111386
146	0x3ceb7c43	0.028745776
147	0xbfe69685	-1.8014685
148	0xbfe14b67	-1.7601136
149	0xbfd3406c	-1.6504035
150	0xbfb4b412	-1.4117453
151	0xbfe1093c	-1.7580943
152	0xbfc4d26c	-1.5376716
153	0xbfc96076	-1.5732563
154	0xbb90ff9f	-0.0044250037
155	0x3ad441a0	0.0016193874
156	0x39fbdd28	0.00048039225
157	0x3c86f3d1	0.016473683
158	0xbffc8b1c	-1.9729953
159	0xbb9b54ab	-0.004740318
160	0x3cca1c2d	0.024671638
161	0xbfac9f93	-1.3486198
162	0xbb71df6d	-0.0036906854
163	0xbfde9f83	-1.7392429
164	0x3c0d17b1	0.0086116055
165	0xbfa9e4ca	-1.3272946
166	0xbfd0eebe	-1.6322858
167	0xbf1c82cb	-0.61137074
168	0xbfac399e	-1.3455083
169	0x3c8feb7f	0.017568348
170	0xbfdec1a0	-1.740284
171	0xc00563d2	-2.0842175
172	0xbf9a185c	-1.2038684
173	0xbff14e05	-1.8851935
174	0xc006b1ff	-2.104614
175	0xbf0c685a	-0.5484673
176	0xbc28716a	-0.010280946
177	0xbb8548e7	-0.0040675285
178	0xb6f6e600	-7.358147e-06
179	0xbf9df998	-1.2341795
180	0xbb66e494	-0.0035231458
181	0xbb54b694	-0.0032457458
182	0xbf681c70	-0.9066839
183	0x402ba146	2.6817183
184	0xbfe311a1	-1.7739755
185	0xbfa33e6f	-1.2753428
186	0xbfb6b148	-1.4272852
187	0x3f613c6b	0.87982816
188	0xbfa0617b	-1.2529749
189	0xbb89a100	-0.004200101
190	0xbfd152e5	-1.6353422
191	0xbfcc3a63	-1.5955318
192	0x3ceed02d	0.029152
193	0xbbd096f2	-0.0063656503
194	0x3c84229c	0.016129784
195	0xbfdb101b	-1.711429
196	0xbfde6e53	-1.7377418
197	0xbfe6b35c	-1.8023486
198	0xbfaabbab	-1.3338522
199	0xbbc04039	-0.005867031
200	0xbfe42c04	-1.7825933
201	0xbfcc9c00	-1.5985107
202	0xbf9cbb6b	-1.2244695
203	0x3c98547d	0.018594975
204	0x3c9c5218	0.019082114
205	0xc002fa4a	-2.0465264
206	0x3c933dd9	0.017973827
207	0xbfe97f74	-1.8242021
208	0xbf9ce057	-1.2255963
209	0x3b8116b9	0.0039394763
210	0xbf562418	-0.83648825
211	0xbc4ef652	-0.0126319695
212	0x3cb7e56f	0.02244827
213	0xbe7606bc	-0.24026006
214	0xbfccae57	-1.5990704
215	0xbac52622	-0.0015041272
216	0xbed0dcdf	-0.4079351
217	0xbf086ff6	-0.5329584
218	0x3cc0f6c6	0.02355517
219	0xbb8a01a2	-0.0042116204
220	0xbc0f2efe	-0.008739231
221	0x3ebf33d3	0.37344226
222	0xbca2ad53	-0.019858038
223	0x3cd37175	0.025810936
224	0xbfcb0271	-1.586012
225	0x3cce9b3b	0.025220504
226	0x3cbc6523	0.022997444
227	0xbfec8b36	-1.8479984
228	0xba47e12e	-0.0007624802
229	0xbfe76615	-1.8078028
230	0x3bff77d1	0.0077962657
231	0x3bd7a933	0.0065814494
232	0x3b221926	0.0024734228
233	0xbfc32555	-1.5245768
234	0xbc538ee7	-0.012912489
235	0x3ccfeede	0.025382455
236	0xbfed7873	-1.8552383
237	0xbfd3234b	-1.6495146
238	0xbbe08f95	-0.006853054
239	0xbfa36ae5	-1.2766997
240	0xbfb81897	-1.4382504
241	0xbf0dbace	-0.55363166
242	0xbfd869ec	-1.6907325
243	0xbfe6b120	-1.8022804
244	0x3bb4a78e	0.005513138
245	0xbb19e5b9	-0.0023482873
246	0xbfd18ea3	-1.6371654
247	0xbcd0105c	-0.025398426
248	0xbf97ba63	-1.1853756
249	0x3cd1a594	0.02559165
250	0xbf979ceb	-1.1844763
251	0xbf92fd4f	-1.1483554
252	0xbb865e96	-0.004100631
253	0xbff1033b	-1.8829111
254	0xbf67fe53	-0.9062244
255	0xbf6124d0	-0.87946796
