src/Models/stage_2/660_critic.pt (torch_old, 374310 bytes, 7 tensors)

fc1.weight f4 [150, 14]
-0.051009495 0.069277525 -0.020957572 0.16941828 0.09174759 -0.14779177 -0.005310086 0.13916336
0.054301128 0.023812994 0.7356983 0.25341827 0.06841028 -0.08176972 0.14089924 -0.09075573
0.15470006 -0.0362722 -0.34671646 -1.7259971 0.055870757 0.1614698 -0.33561757 0.20482549
0.8686547 0.018298823 0.010372974 0.093234636 -0.03907541 0.06470845 0.14196365 0.011562443
0.1976644 -0.11424743 0.016351221 -0.03353791 0.10001127 -0.0008933924 0.14926793 -0.060367968
0.44751796 -0.1645791 -0.124531135 0.16768563 0.032267414 0.14359109 0.13735121 -0.2228615
-0.110775605 -0.27829802 -0.061087273 0.024509415 0.6728196 -0.28646222 -0.026129194 0.022245998
-0.12800817 -0.1783235 -0.15746745 -0.030527767 0.21503305 0.089790516 -0.063567445 0.02226314
-0.067257844 -0.0026739761 1.2264874 0.021481672 -0.46034938 -0.1606394 -0.117536396 0.1471758
-0.09107273 0.045062155 -0.01556965 -0.080483556 0.027732415 -0.029917395 0.05490528 0.10188913
0.6236733 -0.27905726 0.0851488 0.1280718 0.05556507 0.068951294 0.17778264 -0.36840132
-0.1312366 -0.21418793 -0.05938851 -0.041655846 0.046683222 0.04631431 -0.9539232 -0.065736935
0.71151674 -0.21288885 -0.08643761 0.025011094 -0.015970517 0.021483447 0.17824763 0.2952605
-0.29062358 -0.09625829 -0.05238823 -0.085923016 0.17811398 -0.6488541 -0.050388485 -0.113816135
-0.15780978 -0.08739662 -0.2643197 -0.034145426 0.15313886 0.016638186 -0.03951008 -0.23356014
0.06335947 -0.055343326 1.0099561 -0.16544302 -0.37207553 -0.138514 -0.08104859 -0.028771281
0.021380648 -0.027080864 0.050841868 -0.04933181 0.04594727 -0.021822475 -0.06323434 -0.033080745
0.028225407 0.046655774 0.04905741 -0.035331514 0.030477855 -0.04903397 -0.12835138 0.061980855
0.044067904 0.3188585 0.080214985 0.14516234 0.048537813 -0.05102747 0.17889582 -0.13143957
-0.13801649 -0.13478415 0.036111876 0.030177183 0.002053376 0.25613192 0.15655556 0.088328265
0.031129265 0.006173357 -0.19204496 -0.05782378 0.10163342 -0.11203479 -0.113478266 0.03167158
0.023154346 0.042209964 -0.0043233326 0.03896056 0.026605917 -0.14578725 -0.18926924 -0.1830506
0.0718772 -0.023834027 0.19398868 0.3940019 0.110939 0.04555394 0.0098525435 -0.023114992
0.074109584 0.25869325 0.1587354 -0.111120954 0.03856799 0.07740258 -0.20211299 -0.096339464
0.18304719 -0.1346573 0.6251982 -0.05356238 -0.11348094 -0.10946178 -0.47154772 -0.14329822
-0.37422317 0.42147473 -0.13421337 -0.13029113 0.29550105 0.15041584 0.912389 0.16516641
0.20431828 -0.093977556 0.15872999 -0.011451335 0.118750975 0.13495477 0.058633346 -0.048789274
0.16881582 0.09903558 0.0085234605 0.049320932 -0.054278553 0.036505047 -0.7487158 0.1044695
0.0027257872 -0.017825296 0.044851486 -0.08401756 0.036822513 -0.017143538 0.04596448 -0.059285577
-0.080521226 -0.01664879 -0.029472483 0.06722079 0.019239718 -0.053280924 0.0697135 0.15241511
-0.041708272 0.023784513 -0.005192373 -0.04818217 0.03162489 0.07156475 0.020539097 0.09153254
-0.11882928 0.0027372022 0.226624 0.067582116 0.027814597 0.011273132 0.12093731 -0.024884567
00000000: 55ef 50bd 60e1 8d3d 37af abbc fc7b 2d3e
00000010: 29e6 bb3d ba56 17be 3b00 aebb d780 0e3e
00000020: dc6a 5e3d 7813 c33c b956 3c3f 0ac0 813e
00000030: b01a 8c3d e276 a7bd e447 103e 24de b9bd
00000040: b169 1e3e 2992 14bd d284 b1be 79ed dcbf
00000050: bcd8 643d 5758 253e 11d6 abbe c6bd 513e
00000060: 2860 5e3f 6ae7 953c 68f3 293c cdf1 be3d
00000070: 8a0d 20bd dd85 843d eb5e 113e 6770 3d3c
00000080: 8968 4a3e 8efa e9bd fff2 853c 0c5f 09bd
00000090: b5d2 cc3d 8d32 6aba b1d9 183e 6744 77bd
000000a0: 1321 e53e 6c87 28be 2e0a ffbd c8b5 2b3e
000000b0: d62a 043d 8b09 133e cca5 0c3e ce35 64be
000000c0: 52de e2bd 147d 8ebe a636 7abd f8c7 c83c
000000d0: e83d 2c3f 2dab 92be e40c d6bc 3d3d b63c
000000e0: 9314 03be 709a 36be 263f 21be 5e15 fabc
000000f0: a031 5c3e 17e4 b73d a62f 82bd 3061 b63c
00000100: 7bbe 89bd e03d 2fbb 8afd 9c3f 55fa af3c
00000110: eab2 ebbe a87e 24be ecb6 f0bd 41b5 163e
00000120: 5784 babd 1893 383d d817 7fbc 90d4 a4bd
00000130: 172f e33c 5315 f5bc 5ce4 603d 40ab d03d
00000140: 0ea9 1f3f 98e0 8ebe 7e62 ae3d 4125 033e
00000150: 3398 633d 5636 8d3d a70c 363e 199f bcbe
00000160: e362 06be 1554 5bbe 5e41 73bd 529f 2abd
00000170: e836 3f3d 13b4 3d3d 5034 74bf 16a1 86bd
00000180: f625 363f 89ff 59be 3406 b1bd 11e4 cc3c
00000190: 9ad4 82bc 0efe af3c 8c86 363e 622c 973e
000001a0: 9dcc 94be 1123 c5bd 0a95 56bd 68f8 afbd
000001b0: 8363 363e 4d1b 26bf 2864 4ebd 6f18 e9bd
000001c0: e398 21be 00fd b2bd e954 87be 13dc 0bbd
000001d0: 6fd0 1c3e ce4c 883c 52d5 21bd 642a 6fbe
000001e0: 9cc2 813d afaf 62bd 3e46 813f e569 29be
000001f0: af80 bebe 9dd6 0dbe cefc a5bd c0b1 ebbc
00000200: 7826 af3c b0d8 ddbc 903f 503d 2710 4abd
00000210: 3433 3c3d 0cc5 b2bc 0181 81bd ad7f 07bd
00000220: f838 e73c 201a 3f3d 6cf0 483d c7b7 10bd
00000230: b2ac f93c d8d7 48bd 8b6e 03be a3df 7d3d
00000240: 8c80 343d 6c41 a33e c147 a43d 70a5 143e
00000250: 96cf 463d 2e02 51bd 7730 373e 1898 06be
00000260: 3254 0dbe db04 0abe 0cea 133d 2436 f73c
00000270: ef91 063b b923 833e 1a50 203e 73e5 b43d
00000280: cd02 ff3c df49 ca3b 6fa7 44be a1d8 6cbd
00000290: 2f25 d03d 7f72 e5bd 4b67 e8bd 0fba 013d
000002a0: 2fae bd3c 5be4 2c3d beaa 8dbb 1c95 1f3d
000002b0: a7f4 d93c 4149 15be cccf 41be 9e71 3bbe
000002c0: 5a34 933d 943f c3bc f8a4 463e 9eba c93e
000002d0: fd33 e33d c596 3a3d 906c 213c a75b bdbc
000002e0: c4c6 973d 7173 843e 888b 223e 6293 e3bd
000002f0: 78f9 1d3d 3e85 9e3d b5f6 4ebe a04d c5bd
00000300: b970 3b3e 9ae3 09be fd0c 203f 3a64 5bbd
00000310: b268 e8bd 7f2d e0bd b46e f1be c5bc 12be
00000320: 2e9a bfbe 89cb d73e 3b6f 09be 0a6b 05be
00000330: ea4b 973e 9c06 1a3e 5392 693f 6221 293e
00000340: d038 513e 4e77 c0bd 1d8a 223e 619e 3bbc
00000350: b633 f33d 9531 0a3e 8529 703d 43d7 47bd
00000360: 0ede 2c3e 2bd3 ca3d fca5 0b3c bf04 4a3d
00000370: 3053 5ebd 5186 153d d7ab 3fbf 1bf4 d53d
00000380: 1fa3 323b 5b06 92bc 31b6 373d 6611 acbd
00000390: 34d3 163d 9b70 8cbc 4045 3c3d 6fd5 72bd
000003a0: 50e8 a4bd 0b63 88bc 4770 f1bc 0eab 893d
000003b0: 9d9c 9d3c 193d 5abd f4c5 8e3d b512 1c3e
000003c0: 4bd6 2abd bdd7 c23c c824 aabb ab5a 45bd
000003d0: 1a89 013d 8a90 923d 9c41 a83c 6a75 bb3d
000003e0: c45c f3bd a262 333b 1f10 683e 7e68 8a3d
000003f0: 70db e33c f1b2 383c fbad f73d b8da cbbc

fc1.bias f4 [150]
-0.09713313 0.55012774 -0.5379758 0.31569228 -0.36530307 -0.14118457 -0.05517138 -0.053301234
-0.13455574 -0.18955266 -0.47920325 0.32635602 0.43417636 -0.14680335 0.17903411 -0.0088142445
-0.19480208 -0.3449453 0.09901058 -0.51931626 -0.17255904 0.27091315 -0.15259665 0.28919888
-0.052513853 -0.35302317 0.3137149 -0.3356439 -0.5574977 0.13375027 -0.17397234 0.26484674
0.11092805 -0.19975494 0.12725876 -0.25842935 0.53096807 0.60009396 0.41023487 0.19483529
-0.19208181 0.39025676 -0.12396887 0.0688076 -0.23819941 -0.57347745 -0.12417959 0.10533293
0.5719718 -0.19898522 -0.28553417 -0.09683703 -0.5845026 -0.29457495 0.15808494 0.5163974
-0.40301982 0.49972534 0.13275994 0.16581602 -0.048145965 0.13531698 0.5532535 -0.17832057
-0.13309798 0.10070123 -0.28164667 0.36988133 0.44228584 -0.30194 -0.3600326 -0.16952842
0.03403868 -0.32873592 -0.16265641 0.12037808 -0.09639154 -0.06428426 0.3756125 -0.03757855
-0.29094747 0.37501135 -0.44803387 0.20383234 0.13856402 0.058314182 0.17879432 0.5193192
0.44510564 0.4497451 -0.16816096 -0.28338367 -0.43547925 -0.35078925 -0.21636946 -0.18676981
0.25531328 -0.30773228 -0.104597285 -0.25536582 0.018615674 -0.17936271 0.09772252 -0.105021514
0.37297952 0.06970515 -0.1570695 0.39631817 0.580496 -0.015790965 -0.22100466 -0.6085919
-0.260878 -0.2809593 0.5340445 0.16435868 0.022175571 -0.2498331 0.33688983 0.12567125
-0.18043908 -0.2060738 -0.003520407 -0.19119799 -0.23826624 -0.060590375 -0.14481694 -0.6013619
0.1448326 0.18106322 0.08227401 -0.29324374 0.4336085 -0.028380617 -0.28316322 -0.31849325
-0.32812074 -0.26369324 -0.026603654 0.45307124 0.5296505 -0.49017984 0.54068136 0.078651205
-0.24568295 0.45595416 -0.26940566 -0.18354474 0.014136213 -0.22972023
00000000: bced c6bd 2cd5 0c3f c8b8 09bf 6ba2 a13e
00000010: 0109 bbbe b092 10be 63fb 61bd 6552 5abd
00000020: fbc8 09be 181a 42be 215a f5be 2318 a73e
00000030: 5d4c de3e 9e53 16be b854 373e 9f69 10bc
00000040: 327a 47be ac9c b0be 0fc6 ca3d e9f1 04bf
00000050: 51b3 30be 21b5 8a3e 4c42 1cbe e011 943e
00000060: c418 57bd 74bf b4be 3d9f a03e 84d9 abbe
00000070: 2bb8 0ebf d5f5 083e ce25 32be fe99 873e
00000080: 3f2e e33d 8f8c 4cbe 1f50 023e da50 84be
00000090: 86ed 073f c29f 193f 4e0a d23e e782 473e
000000a0: 18b1 44be bccf c73e 64e3 fdbd 00eb 8c3d
000000b0: 8cea 73be 6bcf 12bf de51 febd cbb8 d73d
000000c0: be6c 123f c8c2 4bbe 8931 92be 7e52 c6bd
000000d0: f6a1 15bf 87d2 96be 05e1 213e 9f32 043f
000000e0: 9d58 cebe 00dc ff3e 39f2 073e adcb 293e
000000f0: b434 45bd 8990 0a3e 05a2 0d3f ab99 36be
00000100: d64a 08be 723c ce3d fe33 90be 1661 bd3e
00000110: 4a73 e23e e197 9abe 3156 b8be dc98 2dbe
00000120: 256c 0b3d 1350 a8be 678f 26be c888 f63d
00000130: ed68 c5bd 77a7 83bd 4850 c03e f7eb 19bd
00000140: 11f7 94be 7d01 c03e b264 e5be 6db9 503e
00000150: bae3 0d3e dada 6e3d dc15 373e 1af2 043f
00000160: e3e4 e33e fd44 e63e 6332 2cbe aa17 91be
00000170: 23f7 debe a69a b3be f58f 5dbe 9640 3fbe
00000180: 6cb8 823e 168f 9dbe 1a37 d6bd 4fbf 82be
00000190: e67f 983c dcaa 37be bf22 c83d 8515 d7bd
000001a0: 2cf7 be3e 93c1 8e3d d4d6 20be 37ea ca3e
000001b0: 639b 143f 0e5c 81bc 0c4f 62be aecc 1bbf
000001c0: cd91 85be e6d9 8fbe 24b7 083f a44d 283e
000001d0: 8ba9 b53c 40d4 7fbe d37c ac3e f7af 003e
000001e0: 06c5 38be 0305 53be a1b6 66bb 68c9 43be
000001f0: 11fc 73be 9d2d 78bd e44a 14be daf2 19bf
00000200: ff4e 143e a368 393e 477f a83d 0b24 96be
00000210: ef01 de3e 787e e8bc c5fa 90be 8c11 a3be
00000220: 71ff a7be cd02 87be e8ef d9bc f4f8 e73e
00000230: 2d97 073f daf8 fabe 186a 0a3f e213 a13d
00000240: 5094 7bbe d372 e93e 8aef 89be 27f3 3bbe
00000250: 939b 673c c83b 6bbe

fa1.weight f4 [150, 2]
0.5424473 0.062195476 -0.013751621 0.01794529 0.009664245 -0.03575713 -0.031558435 -0.2793837
0.49687883 -0.06418497 -0.1696205 0.10805928 0.20299716 -0.08242258 0.072334155 0.19324684
-0.34154618 0.040615592 -0.43400922 -0.009763844 -0.0064084902 -0.030762913 -0.064213805 0.057316195
-0.0630439 -0.028973464 -0.050958425 -0.061635274 0.05828631 -0.020507578 -0.018384025 -0.055011027
0.3102415 0.28323168 0.5488789 -0.035705157 -0.015905358 -0.010309408 -0.013329424 0.07350814
-0.040507466 0.01533556 -0.426187 0.04011397 0.026326034 0.021500096 -1.2589259 -0.09855382
0.49341863 0.07428841 -0.01556493 0.04185372 0.6270842 -0.07871782 0.026671961 -0.05739233
0.062392056 -0.0032079518 -0.06518682 -0.26516753 -0.77384776 0.030257514 0.008530892 -0.012250476
-1.3767062 -0.11730717 0.07283847 -0.056413334 0.4338352 0.13241528 -0.20079555 0.16461936
-0.28302303 -0.320045 -0.046532173 -0.018959492 0.059323013 0.054240495 0.033041343 0.01140254
-0.02796667 0.00273484 0.85532725 0.2397099 0.3246704 0.08977578 0.40016046 0.04212066
-0.30053163 -0.1016563 -0.1854603 -0.043622963 0.022167444 -0.12513836 -0.82007825 0.044332232
-0.020615611 0.07302036 -0.027524572 0.04713145 -0.005704657 0.067464605 0.83504736 0.14918995
0.007592052 0.03759455 0.31998238 0.021470461 0.6551005 0.0750968 0.32259816 0.093051195
0.18175888 -0.25280765 0.047087997 0.040514074 -0.017674997 -0.002785802 -0.08044335 0.04324943
0.5674254 0.089347295 0.5288523 0.0627526 0.076936774 0.21702433 0.35716784 0.17456527
-0.012533387 -0.08211012 -0.16523477 -0.22467673 -0.057030268 -0.014435649 0.045278564 0.066997945
-0.4117275 -0.2582144 -1.1980093 -0.10997571 -0.08020601 -0.015208326 0.2852378 0.12469443
0.49965903 0.038440205 0.512635 0.078538656 -0.0040967083 0.001809448 0.22057702 0.08606554
0.049455017 -0.018936343 -0.049398642 -0.028091846 -0.0017261704 -0.0666878 -0.15965791 0.10334719
-0.13805957 -0.09479164 0.19020039 0.00402504 0.2764974 0.50496405 0.019444533 0.07542141
0.053834345 -0.059329726 0.004149005 0.010298595 0.16839075 -0.5145306 0.40922603 0.08716612
0.002881825 0.04709014 -0.06769194 0.032557674 -0.054651715 0.058593985 0.30841097 -0.06831606
0.07657041 0.03444177 -0.330913 0.07070888 -0.48929492 -0.05888506 0.028081037 0.012937634
0.013217486 -0.052406214 -0.07819593 0.064772785 0.4328925 -0.009904136 0.028728878 0.010148831
-0.035712305 0.030797377 -1.1996782 -0.0834662 -0.55378187 -0.86954534 0.3922605 0.25134918
-0.0097422255 0.05882381 0.83543116 0.2252858 0.044162024 -0.07573735 0.061191984 0.076184936
0.020152107 -0.045640983 -0.469805 -0.09079699 0.60113335 0.17478286 0.155059 -0.03744897
0.62507313 0.12463692 -0.060815692 0.27627572 0.09841464 -0.11161667 0.00081192004 0.06853697
0.7207389 0.1939293 0.28923222 -0.06471016 0.37417662 0.011965602 0.043126777 -0.31756184
0.43042985 0.0965582 0.14486964 0.042702395 0.20071024 0.045397803 0.068166986 0.031373225
0.052593127 0.034332603 0.020764722 -0.023074685 0.0007120669 -0.032315925 0.74715984 0.24648634
00000000: d4dd 0a3f afc0 7e3d 7b4e 61bc 0002 933c
00000010: c856 1e3c 1176 12bd 6b43 01bd 610b 8fbe
00000020: e766 fe3e 6973 83bd ffb0 2dbe 2f4e dd3d
00000030: 7dde 4f3e 2bcd a8bd ee23 943d 80e2 453e
00000040: 24df aebe 895c 263d 7536 debe 88f8 1fbc
00000050: 50fe d1bb 8102 fcbc 8782 83bd 63c4 6a3d
00000060: 291d 81bd c259 edbc c8b9 50bd 4575 7cbd
00000070: a0bd 6e3d 82ff a7bc 189a 96bc 3e53 61bd
00000080: f9d7 9e3e be03 913e 5483 0c3f 923f 12bd
00000090: f44b 82bc cbe8 28bc a863 5abc 708b 963d
000000a0: 28eb 25bd 0042 7b3c 2f35 dabe 8c4e 243d
000000b0: b2a9 d73c f820 b03c 7c24 a1bf 96d6 c9bd
000000c0: 5ea1 fc3e 8624 983d 0c04 7fbc ce6e 2b3d
000000d0: 9788 203f cf36 a1bd 287f da3c 3814 6bbd
000000e0: d08e 7f3d 803c 52bb ab80 85bd 0ac4 87be
000000f0: e31a 46bf 9bde f73c 28c5 0b3c 38b6 48bc
00000100: e937 b0bf be3e f0bd 562c 953d ab11 67bd
00000110: a61f de3e df97 073e 599d 4dbe fa91 283e
00000120: 65e8 90be f0dc a3be 8598 3ebd f050 9bbc
00000130: b0fc 723d 482b 5e3d 5c56 073d b8d1 3a3c
00000140: 5c1a e5bc 003b 333b baf6 5a3f 8376 753e
00000150: 333b a63e 5ddc b73d d5e1 cc3e b786 2c3d
00000160: 48df 99be 2e31 d0bd 4ee9 3dbe fead 32bd
00000170: 8098 b53c 4524 00be a6f0 51bf b795 353d
00000180: 12e2 a8bc b38b 953d 367b e1bc e80c 413d
00000190: 22ee babb e22a 8a3d aac5 553f 40c5 183e
000001a0: c0c6 f83b befc 193d bbd4 a33e d2e2 af3c
000001b0: abb4 273f 5acc 993d 962b a53e a091 be3d
000001c0: 001f 3a3e 0170 81be 58df 403d 16f2 253d
000001d0: 28cb 90bc 0092 36bb 7cbf a4bd 5026 313d
000001e0: ca42 113f b7fb b63d dd62 073f 6f84 803d
000001f0: 0791 9d3d a03b 5e3e b4de b63e 3dc1 323e
00000200: d658 4dbc 5a29 a8bd 4e33 29be a811 66be
00000210: 9298 69bd 8083 6cbc 0476 393d 3836 893d
00000220: f2cd d2be ae34 84be 5e58 99bf f23a e1bd
00000230: 0c43 a4bd 582c 79bc b00a 923e cb5f ff3d
00000240: 4fd3 ff3e 7a73 1d3d 0c3c 033f e0d8 a03d
00000250: ae3d 86bb 002b ed3a f1de 613e 2143 b03d
00000260: 5891 4a3d 6420 9bbc 3b56 4abd df20 e6bc
00000270: ab40 e2ba 9d93 88bd 5d7d 23be b1a7 d33d
00000280: 7d5f 0dbe 1f22 c2bd e4c3 423e 7ce4 833b
00000290: 1191 8d3e 5345 013f 244a 9f3c 8a76 9a3d
000002a0: 6781 5c3d ba03 73bd 60f4 873b 70bb 283c
000002b0: a06e 2c3e 47b8 03bf 1386 d13e 2784 b23d
000002c0: 00dd 3c3b 97e1 403d 12a2 8abd 325b 053d
000002d0: 7ada 5fbd 3f00 703d 0be8 9d3e 4ae9 8bbd
000002e0: f2d0 9c3d d012 0d3d 6e6d a9be d1cf 903d
000002f0: dd84 fabe 7631 71bd 340a e63c 5ff8 533c
00000300: 288e 583c e6a7 56bd 3025 a0bd 98a7 843d
00000310: 16a4 dd3e f544 22bc d358 eb3c 4847 263c
00000320: 1147 12bd c84a fc3c 0e8f 99bf 54f0 aabd
00000330: a6c4 0dbf 869a 5ebf 5ed6 c83e d7b0 803e
00000340: db9d 1fbc 3cf1 703d d1de 553f 52b1 663e
00000350: 3de3 343d 2f1c 9bbd 72a4 7a3d d906 9c3d
00000360: 0816 a53c 0af2 3abd 488a f0be c6f3 b9bd
00000370: e0e3 193f 47fa 323e c9c7 1e3e 1764 19bd
00000380: cb04 203f a441 ff3d e019 79bd 0374 8d3e
00000390: 9d8d c93d 4897 e4bd 08d7 543a 1c5d 8c3d
000003a0: 5882 383f 6795 463e 3f16 943e c386 84bd
000003b0: 1494 bf3e 5f0b 443c b4a5 303d 7797 a2be
000003c0: 4d61 dc3e 4ec0 c53d b558 143e b5e8 2e3d
000003d0: fc86 4d3e 0cf3 393d 229b 8b3d 3681 003d
000003e0: e46b 573d 58a0 0c3d c71a aa3c 1f07 bdbc
000003f0: 00aa 3a3a b45d 04bd de45 3f3f ea66 7c3e

fa1.bias f4 [150]
0.7558186 -0.33479366 -0.3127206 1.0045162 0.5389239 0.15923096 0.9759549 0.4009591
0.5780453 0.54420835 -0.21985087 -0.5220238 -0.6755683 -0.6473817 -0.63535345 -0.28239554
0.52390635 0.7960648 -0.35165095 -0.67614454 -0.37505654 0.20377369 -0.45844015 -0.15416196
0.35425514 -0.46241364 0.5836771 -0.34516954 -0.5101211 0.94675446 0.30088246 -0.38573292
-0.17059815 -0.69384503 0.6161003 0.39902633 0.8330114 -0.15002322 -0.60965484 -0.42200214
-0.22013518 0.77063036 0.973488 0.30785477 0.9430577 0.7382081 1.0337629 0.28092036
-0.16641086 -0.54294294 -0.4022989 0.5665763 -0.1991688 0.9500953 0.80612874 0.8672209
0.48932764 -0.47124726 -0.3303394 -0.20063347 1.0376552 0.8069631 0.90717006 0.8444306
0.8829977 0.63597447 -0.3016779 -0.5996007 0.7580116 -0.1745172 -0.6288992 0.93112653
0.8561948 0.34788737 -0.08325976 1.0406071 -0.5533007 -0.35245588 -0.20487127 0.98317146
0.8126859 0.94209015 -0.003273921 -0.6217619 1.0381415 -0.5984451 0.25511393 0.8752757
-0.48279828 -0.06873882 -0.6973937 0.72513 -0.16125238 0.90168315 0.54036206 -0.30431855
-0.40744773 -0.20861486 0.9988108 -0.3215028 -0.5196526 -0.113186955 0.071365714 0.9189616
-0.36335498 0.67564136 -0.22229841 0.9962522 -0.61128336 0.63852024 1.1200091 0.9691287
0.513543 0.31024435 1.0008767 -0.67417616 0.6626584 0.31533176 0.34119406 0.7747476
0.43186563 0.6497493 0.8438181 -0.45656577 -0.6615307 -0.07673153 -0.120198786 0.7885457
0.68438107 0.855397 0.91880995 0.33770502 0.8485101 0.68747413 -0.14907044 0.20064928
0.7069209 0.71924394 -0.5153452 1.0446366 0.6085166 -0.27767843 0.040957615 0.28429356
1.0174396 -0.58394253 -0.2306208 -0.19102791 0.88125414 -0.14644447
00000000: 547d 413f 136a abbe ea1c a0be fd93 803f
00000010: ebf6 093f 710d 233e 2ed8 793f 834a cd3e
00000020: c7fa 133f 3d51 0b3f 9620 61be 5aa3 05bf
00000030: 0bf2 2cbf cfba 25bf 86a6 22bf 2696 90be
00000040: ba1e 063f e7ca 4b3f 980b b4be cf17 2dbf
00000050: 6907 c0be 0daa 503e abb8 eabe a2dc 1dbe
00000060: ee60 b53e 7bc1 ecbe dd6b 153f 10ba b0be
00000070: 4c97 02bf 805e 723f 440d 9a3e c97e c5be
00000080: 48b1 2ebe d49f 31bf c0b8 1d3f 2e4d cc3e
00000090: 3c40 553f b09f 19be 5712 1cbf aa10 d8be
000000a0: 1e6b 61be 0848 453f 8236 793f 249f 9d3e
000000b0: 3b6c 713f 35fb 3c3f 5852 843f cbd4 8f3e
000000c0: 9c67 2abe 4ffe 0abf 1ffa cdbe 250b 113f
000000d0: e8f2 4bbe 7239 733f 745e 4e3f 3002 5e3f
000000e0: 2789 fa3e 5247 f1be 3f22 a9be dc72 4dbe
000000f0: e3d1 843f 2295 4e3f 4c3c 683f 9b2c 583f
00000100: 230c 623f 39cf 223f 8775 9abe 6e7f 19bf
00000110: 0c0d 423f a3b4 32be 8aff 20bf 4f5e 6e3f
00000120: 952f 5b3f 4b1e b23e 1884 aabd 9d32 853f
00000130: 1da5 0dbf 1975 b4be c6c9 51be 20b1 7b3f
00000140: 2f0c 503f d22c 713f 488f 56bb ca2b 1fbf
00000150: d2e1 843f b333 19bf 4b9e 823e 1112 603f
00000160: 5631 f7be f0c6 8cbd 6588 32bf 1fa2 393f
00000170: 581f 25be b5d4 663f 2b55 0a3f a4cf 9bbe
00000180: fd9c d0be 229f 55be 11b2 7f3f 049c a4be
00000190: f407 05bf 90ce e7bd 3028 923d 1141 6b3f
000001a0: aa09 babe d5f6 2c3f 32a2 63be 620a 7f3f
000001b0: 117d 1cbf 1076 233f 755c 8f3f d218 783f
000001c0: 8e77 033f 59d8 9e3e ba1c 803f cf96 2cbf
000001d0: fba3 293f 2a73 a13e fdb0 ae3e dc55 463f
000001e0: 7e1d dd3e f855 263f 7704 583f fdc2 e9be
000001f0: 135a 29bf 6c25 9dbd c82a f6bd 22de 493f
00000200: 9933 2f3f 4cfb 5a3f 2137 6b3f ace7 ac3e
00000210: f537 593f 4efe 2f3f eca5 18be 0177 4d3e
00000220: c5f8 343f 5f20 383f aaed 03bf a7b6 853f
00000230: bec7 1b3f de2b 8ebe 2cc3 273d ed8e 913e
00000240: 763b 823f 427d 15bf dc27 6cbe d29c 43be
00000250: df99 613f 8af5 15be

fca1.weight f4 [300, 300]
-0.030653792 0.016819732 0.011093592 -0.065736465 -0.056703977 -0.042522874 -0.026673362 -0.055173017
0.023350194 0.0016812496 -0.0023852643 -0.05520393 -0.028988251 0.030358713 0.026484972 -0.049998514
-0.03184271 0.007880844 -0.036389 -0.04761342 -0.006798975 -0.04072726 -0.03441424 -0.0059252214
-0.020477945 0.004872693 -0.031355318 0.023505183 0.009100653 -0.034995545 0.055224694 0.023380667
-0.00063730025 0.055362266 -0.049921557 0.049890164 0.05071708 -0.008903752 0.0027323796 -0.08031812
0.054257914 0.018789949 -0.036402807 0.017931804 -0.0073797037 -0.06994575 0.020619337 -0.04491843
-0.05149921 -0.040569067 -0.03302897 -0.04642359 0.032598123 0.049110256 0.036681645 -0.072709985
-0.02284535 -0.013487639 0.001316511 0.003222005 -0.015224304 -0.06613777 -0.055475954 0.050577104
-0.045518853 0.003936817 -0.020968545 -0.036147214 -0.07261154 0.020942502 0.005120516 0.020456765
-0.07604565 -0.028978605 -0.020076267 -0.08291375 0.018117253 -0.0508964 0.010333623 0.03969661
0.05028736 0.027128845 0.0026541464 0.0022931038 -0.082722455 -0.041539386 -0.029827854 -0.056715436
-0.0074549927 -0.045295015 -0.03895798 -0.01934853 0.00073230267 0.04872732 0.012352899 0.030577146
-0.061088935 -0.0072930483 0.02675017 0.02203662 0.002905605 -0.0069357865 0.01129812 -0.03573531
-0.030064706 0.008668551 -0.02273482 0.03784418 0.002834311 -0.019820452 0.037028592 -0.056007333
-0.014781814 0.04573462 -0.0011654701 -0.017924964 0.023713104 -0.023695145 0.03262465 -0.039439708
0.025927044 -0.020381555 0.019741785 -0.024106381 0.052865982 -0.060478102 -0.0011564419 -0.0057035275
0.024458352 -0.0041835452 0.0055820793 -0.012395777 -0.005198263 0.011029147 0.05609852 -0.030507727
-0.05797785 0.03310944 0.010210805 -0.061732113 -0.055586897 -0.05419187 -0.020075822 0.017891869
0.0083276555 -0.045089632 0.029486984 -0.022348389 -0.048882715 -0.048136063 -0.012018408 0.022921711
-0.036139045 0.02204008 -0.060365703 -0.02539915 0.0009866062 -0.07062486 -0.04760572 0.00030472077
0.012743294 0.034386735 0.033339128 0.034831956 0.018645234 0.0034920424 0.019424919 -0.05989838
-0.0402432 -0.031277448 -0.055419996 -0.0032915852 0.019941643 0.030289095 0.00055520626 -0.00735702
-0.07011888 -0.0013840215 0.034148872 0.026320446 0.0035474272 -0.0053510442 -0.047536362 0.05275189
-0.05331788 0.017102629 0.0151583245 0.017025016 0.03655052 -0.039925136 -0.044401426 -0.052591022
0.019265948 -0.03317283 -0.019385925 -0.00024387141 -0.03800317 -0.012516258 -0.032575093 -0.051323414
0.03998059 -0.05630506 -0.013107138 -0.07454901 -0.04374883 -0.006402754 -0.034503493 -0.025408108
0.034481525 0.04774315 0.00040561077 -0.008082345 -0.07955665 -0.041152388 -0.017586697 -0.0071841017
0.04132086 -0.03420047 -0.063643135 0.010989973 -0.010608367 -0.030048624 -0.010982105 -0.061027393
0.029620238 -0.039628286 -0.055593513 -0.052518845 0.006666459 -0.07690359 -0.06279226 -0.05356478
-0.00042058527 0.055397645 -0.022856047 0.029783852 -0.0850493 -0.02411956 0.039807543 -0.00975161
-0.023975346 -0.02743246 0.04555638 -0.054276317 -0.08090604 -0.00940242 -0.029279716 0.051654756
-0.07543598 -0.025207538 -0.017254103 -0.08024341 -0.059606414 -0.052909605 0.041132152 -0.07749825
00000000: a91d fbbc 89c9 893c e6c1 353c d7a0 86bd
00000010: 6e42 68bd 772c 2ebd 1882 dabc 1afd 61bd
00000020: e848 bf3c 605d dc3a 1852 1cbb 841d 62bd
00000030: c578 edbc d6b2 f83c 03f7 d83c 3ecb 4cbd
00000040: 806d 02bd a81e 013c a20c 15bd 4a06 43bd
00000050: f0c9 debb a1d1 26bd f2f5 0cbd 5c28 c2bb
00000060: 5dc1 a7bc 1dab 9f3b 6f6e 00bd f18d c03c
00000070: e81a 153c 7d57 0fbd 4a33 623d d088 bf3c
00000080: 7f10 27ba 8bc3 623d 8c7a 4cbd a159 4c3d
00000090: b6bc 4f3d 0be1 11bc b911 333b d47d a4bd
000000a0: 8c3d 5e3d 61ed 993c 1c1b 15bd b8e5 923c
000000b0: 71d1 f1bb b83f 8fbd e2e9 a83c 63fc 37bd
000000c0: d6f0 52bd c02b 26bd 6349 07bd aa26 3ebd
000000d0: 9c85 053d d627 493d 7e3f 163d f9e8 94bd
000000e0: 2c26 bbbc 42fb 5cbc c78e ac3a 4628 533b
000000f0: 5c6f 79bc 3d73 87bd c13a 63bd f029 4f3d
00000100: fa71 3abd 6a00 813b 3ac6 abbc 1a0f 14bd
00000110: 5cb5 94bd 9c8f ab3c 00ca a73b f294 a73c
00000120: d2bd 9bbd 8a64 edbc fc76 a4bc afce a9bd
00000130: a26a 943c be78 50bd 5b4e 293c ea98 223d
00000140: 1efa 4d3d 503d de3c 30f1 2d3b e647 163b
00000150: 646a a9bd 3425 2abd 8b59 f4bc 724e 68bd
00000160: 0349 f4bb 4487 39bd 6792 1fbd cf80 9ebc
00000170: 00f8 3f3a 4c96 473d d063 4a3c ec7c fa3c
00000180: 6438 7abd 86fa eebb 2c23 db3c 2486 b43c
00000190: f66b 3e3b 9845 e3bb c01b 393c 305f 12bd
000001a0: 424a f6bc 8a06 0e3c 603e babc 8002 1b3d
000001b0: d9bf 393b 805e a2bc 4bab 173d f267 65bd
000001c0: 6c2f 72bc 3a54 3b3d b0c2 98ba 60d7 92bc
000001d0: fc41 c23c 521c c2bc 6da1 053d 888b 21bd
000001e0: f464 d43c 38f7 a6bc 86b9 a13c bf7a c5bc
000001f0: 008a 583d e3b7 77bd c093 97ba a8e4 babb
00000200: e25c c83c 1f16 89bb e0e9 b63b a817 4bbc
00000210: 3156 aabb 98b3 343c 90c7 653d 57eb f9bc
00000220: 2f7a 6dbd c49d 073d 384b 273c d0da 7cbd
00000230: 16af 63bd 4bf8 5dbd 0d76 a4bc f891 923c
00000240: b870 083c e8af 38bd b08e f13c f813 b7bc
00000250: 3e39 48bd 522a 45bd dbe8 44bc 50c6 bb3c
00000260: 8906 14bd 668d b43c 0742 77bd e111 d0bc
00000270: 0351 813a c4a3 90bd 37fe 42bd eec2 9f39
00000280: 40c9 503c 1bd9 0c3d 9c8e 083d f4ab 0e3d
00000290: e4bd 983c c0da 643b 0221 9f3c 0158 75bd
000002a0: 0ed6 24bd c81c 00bd 1400 63bd a3b7 57bb
000002b0: a85c a33c d620 f83c 438b 113a 2813 f1bb
000002c0: 7d9a 8fbd 0e68 b5ba b0df 0b3d fa9d d73c
000002d0: f47b 683b d057 afbb 7db5 42bd 5e12 583d
000002e0: d963 5abd d01a 8c3c 9f5a 783c 0c78 8b3c
000002f0: 00b6 153d 8a88 23bd 45de 35bd af69 57bd
00000300: 9fd3 9d3c 3ce0 07bd 3bcf 9ebc bcb7 7fb9
00000310: 36a9 1bbd fe10 4dbc 766d 05bd 8038 52bd
00000320: b0c2 233d 22a0 66bd 52bf 56bc 27ad 98bd
00000330: f931 33bd 32ce d1bb 8953 0dbd aa24 d0bc
00000340: 803c 0d3d 528e 433d 28a8 d439 d06b 04bc
00000350: 99ee a2bd 688f 28bd fa11 90bc 9d68 ebbb
00000360: 1040 293d cb15 0cbd 5557 82bd 4a0f 343c
00000370: b7ce 2dbc 8828 f6bc 49ee 33bc dcf7 79bd
00000380: 24a6 f23c 4551 22bd 06b6 63bd 001e 57bd
00000390: 5072 da3b a17f 9dbd 3a99 80bd be66 5bbd
000003a0: 0082 dcb9 a4e8 623d 9b3c bbbc 44fd f33c
000003b0: 542e aebd 6296 c5bc 3c0d 233d 38c5 1fbc
000003c0: f267 c4bc 0aba e0bc 5499 3a3d d850 5ebd
000003d0: 11b2 a5bd 9c0c 1abc 04dc efbc f093 533d
000003e0: 2e7e 9abd 0a80 cebc 7a58 8dbc a856 a4bd
000003f0: db25 74bd beb7 58bd 307a 283d 67b7 9ebd

fca1.bias f4 [300]
-0.04930556 -0.036351588 0.004366597 0.03572712 0.040538386 0.0010354889 -0.023000278 0.07934387
0.0314112 -0.008178344 0.03468825 0.018226136 -0.056892015 -0.011253933 0.07615955 0.019100303
0.029400937 -0.0442126 0.027960474 0.03893165 -0.044679947 0.08195519 -0.005979893 0.019082114
-0.04121064 -0.0134281665 0.08706548 -0.034495812 -0.011466126 -0.04098789 0.052886877 0.01705009
0.12679969 -0.14813831 0.040945176 0.01032776 0.004473993 -0.049824275 0.043094825 -0.09529064
0.07159165 -0.08877854 -0.08204402 0.020080382 0.027956456 -0.027466124 0.005293972 0.33548787
-0.02391668 0.008229517 -0.07667494 -0.018261336 0.041832574 0.10543247 -0.0044637355 0.043802228
-0.05423534 -0.029025879 0.517562 0.005836636 -0.038791314 0.06904226 0.058342546 -0.01493698
-0.05305981 -0.01397115 -0.053254526 0.088798754 -0.08502177 0.071450725 0.03610735 -0.054238316
0.043183327 0.06397459 0.0475236 0.028353717 -0.012778384 -0.008840742 -0.0104370015 0.015554101
0.023754312 0.07264058 -0.050516818 0.0330629 0.102917455 -0.058307476 0.027646177 -0.045398835
0.058820244 0.071171366 0.10816583 0.014393945 -0.00674915 -0.011370595 0.04177854 0.045019433
0.086223245 0.034686662 0.022786172 -0.064428896 0.022796532 0.01698964 0.022723097 0.004396981
0.002079349 -0.014066884 0.033598755 -0.044448122 0.02804967 -0.06656506 0.022570971 -0.045305993
-0.0458049 0.04075074 0.08191968 0.035481125 0.081318125 0.060245074 -0.01365766 -0.037246954
-0.055090256 0.039708916 -0.0032021455 -0.04276149 -0.033785067 0.07034132 0.37840092 -0.02185814
0.023695946 -0.062418155 -0.0151337385 0.029105913 0.14790566 0.07824648 -0.029643854 0.011903036
0.020127073 -0.029400991 -0.013015866 0.00834077 0.07442443 0.037451018 0.07411148 -0.050585914
-0.048163038 0.004688136 -0.010735614 0.0720315 0.038461376 0.007268444 0.052797623 0.060628906
0.067709215 0.021230647 0.00039934737 -0.05191105 -0.056843363 0.00075116014 0.004076677 -0.03808674
-0.009668894 0.05942754 -0.03848098 0.06705861 0.0045588426 0.018556677 0.038849678 -0.07068776
0.0038357377 0.0055917385 0.0018127111 0.0796099 -0.05426356 0.0065214727 0.11648138 -0.063659936
-0.0045264424 -0.039872065 -0.049394432 -0.046836674 0.011963459 -0.026163075 0.0139888255 -0.10943405
0.03599432 0.032890964 -0.028955577 0.47545913 0.026109472 -0.04274857 0.016148236 -0.005398683
-0.08674146 0.014238314 -0.074656226 0.08726722 0.015980536 0.025578877 0.06432392 0.018584056
0.08056567 -0.026223466 0.030443788 0.02614163 -0.03853537 0.057009377 -0.08234861 0.018884683
-0.03953033 -0.005592978 -0.13472342 -0.022787467 -0.070865124 0.06573183 0.06663693 -0.06514115
0.044294473 -0.01801625 0.02149427 -0.026803453 0.031644024 0.44504 -0.04425981 -0.06837426
0.02139211 -0.07000887 0.016498672 0.09486831 -0.013589568 0.11198102 0.018522793 -0.05437186
-0.041698165 0.012148124 -0.008930456 -0.013402021 -0.029428745 0.016768837 -0.020101964 0.013312156
0.057460826 -0.0430394 0.019062862 0.008213777 -0.06012409 -0.028593987 -0.016120818 -0.05745403
0.06337947 -0.049702015 0.038763545 0.016873125 -0.06841018 0.06358413 -0.097984284 -0.034334224
00000000: a0f4 49bd 67e5 14bd ac15 8f3b 9a56 123d
00000010: 940b 263d 3eb9 873a 146b bcbc 0a7f a23d
00000020: 08a9 003d 76fe 05bc 4415 0e3d fa4e 953c
00000030: 9a07 69bd 6b62 38bc 8af9 9b3d 3d78 9c3c
00000040: 3cda f03c 4518 35bd 5d0d e53c cb76 1f3d
00000050: 5202 37bd 1fd8 a73d faf2 c3bb 1852 9c3c
00000060: 7dcc 28bd d001 5cbc 634f b23d 7b4b 0dbd
00000070: 6bdc 3bbc ebe2 27bd e99f 583d a1ac 8b3c
00000080: c7d7 013e 92b1 17be 21b6 273d c435 293c
00000090: 939a 923b 8a14 4cbd 3384 303d bd27 c3bd
000000a0: a59e 923d 86d1 b5bd b206 a8bd 9d7f a43c
000000b0: f004 e53c a300 e1bc 0e79 ad3b 11c5 ab3e
000000c0: eaec c3bc 19d5 063c c007 9dbd cc98 95bc
000000d0: a258 2b3d fbec d73d 8744 92bb f769 333d
000000e0: e025 5ebd aec7 edbc f17e 043f 4041 bf3b
000000f0: a4e3 1ebd 0766 8d3d 98f8 6e3d 3cba 74bc
00000100: 3e55 59bd 40e7 64bc 6b21 5abd 1fdc b53d
00000110: e51f aebd c254 923d 4de5 133d ff28 5ebd
00000120: 00e1 303d 1c05 833d 1ba8 423d 0e46 e83c
00000130: 6d5c 51bc c2d8 10bc f5ff 2abc a1d6 7e3c
00000140: 6798 c23c 96c4 943d b9ea 4ebd f76c 073d
00000150: 63c6 d23d d2d3 6ebd 3c7a e23c 21f4 39bd
00000160: 7fed 703d 4bc2 913d 0c86 dd3d 95d4 6b3c
00000170: f927 ddbb bb4b 3abc f91f 2b3d 4c66 383d
00000180: d095 b03d 9a13 0e3d 11aa ba3c 4cf3 83bd
00000190: cbbf ba3c dc2d 8b3c ca25 ba3c 8d14 903b
000001a0: b045 083b ca78 66bc d99e 093d 3c0f 36bd
000001b0: 6cc8 e53c 4353 88bd c2e6 b83c c792 39bd
000001c0: eb9d 3bbd 3fea 263d 81c5 a73d a854 113d
000001d0: 1e8a a63d 8ac3 763d 61c4 5fbc 4390 18bd
000001e0: 52a6 61bd d1a5 223d 16db 51bb ac26 2fbd
000001f0: 3662 0abd 1c0f 903d c4bd c13e d80f b3bc
00000200: 001e c23c 2eaa 7fbd 80f3 77bc 866f ee3c
00000210: 9574 173e b13f a03d abd7 f2bc f404 433c
00000220: 88e1 a43c 59da f0bc 8040 55bc baa7 083c
00000230: d66b 983d 3d66 193d c2c7 973d 2d33 4fbd
00000240: 9b46 45bd ef9e 993b 6ee4 2fbc 4085 933d
00000250: ad89 1d3d 212c ee3b 5242 583d 0456 783d
00000260: 21ab 8a3d e5eb ad3c 7f5f d139 aea0 54bd
00000270: 96d4 68bd 81e9 443a a595 853b d700 1cbd
00000280: 486a 1ebc 4b6a 733d 3b9e 1dbd 0656 893d
00000290: 5862 953b 2c04 983c d720 1f3d bfc4 90bd
000002a0: 0061 7b3b e73a b73b 7e98 ed3a 840a a33d
000002b0: 7743 5ebd 14b2 d53b ca8d ee3d 2460 82bd
000002c0: 8d52 94bb e450 23bd d151 4abd d0d7 3fbd
000002d0: 6202 443c f253 d6bc 6331 653c f61e e0bd
000002e0: c86e 133d adb8 063d 3f34 edbc 616f f33e
000002f0: 88e3 d53c 2019 2fbd 4e49 843c 6fe7 b0bb
00000300: 82a5 b1bd d147 693c 5de5 98bd 28b9 b23d
00000310: 9de9 823c cb8a d13c 42bc 833d 973d 983c
00000320: 9dff a43d 98d2 d6bc 4065 f93c f926 d63c
00000330: 44d7 1dbd aa82 693d 63a6 a8bd 0db4 9a3c
00000340: 8eea 21bd 4d45 b7bb f0f4 09be c8ac babc
00000350: bc21 91bd 699e 863d f178 883d b968 85bd
00000360: 1f6e 353d d196 93bc c014 b03c ea92 dbbc
00000370: 2a9d 013d 48dc e33e c649 35bd ce07 8cbd
00000380: 823e af3c cf60 8fbd 3928 873c 514a c23d
00000390: c8a6 5ebc 4e56 e53d 1dbd 973c 07b5 5ebd
000003a0: b2cb 2abd ed08 473c 0c51 12bc 2694 5bbc
000003b0: 8d14 f1bc cd5e 893c e0ac a4bc 3b1b 5a3c
000003c0: 0b5c 6b3d 154a 30bd b829 9c3c 1493 063c
000003d0: ae44 76bd f03d eabc ce0f 84bc eb54 6bbd
000003e0: 18cd 813d 5794 4bbd 86c6 1e3d 8239 8a3c
000003f0: a31a 8cbd 6538 823d fcab c8bd 0ba2 0cbd

fca2.weight f4 [1, 300]
0.00266561 -0.005143918 -2.526206 3.8351864e-06 -0.0059590796 -1.5132701 -0.0039963843 -2.1553216
-1.77385 -1.9360139 -1.6947832 0.025362654 0.023583757 -0.0002624181 -1.946365 -2.2261074
-2.179097 -0.005050489 0.0032571503 -0.0046136784 -0.0036313122 -1.9685836 -1.973697 -0.006167271
-1.5950426 -1.7581105 -2.22143 0.015083157 -0.006059792 -1.9320183 -2.3851736 -2.5662837
-2.6790574 -0.8834816 -0.005313992 -2.4868455 -0.005760771 -0.65348583 -1.8519126 -1.0767013
-2.1782517 0.029471863 -1.2344424 -1.7865418 -2.2593145 -0.005679848 -2.0729833 0.36904287
-2.236854 -2.222589 0.025642836 0.0032412182 -2.369306 -2.319233 -2.1441936 -1.9053645
-0.006127483 -0.021086603 0.9214167 -0.00036176387 0.0026435312 -2.0845387 -1.8509548 -0.0016362709
-0.0062392494 -0.019642778 -0.00029971456 -2.6394055 -0.63100934 -2.3432393 -2.543937 0.044180382
-2.516709 -2.5013125 -2.6937876 -2.6531744 -0.86861885 -2.0279336 0.002610289 -1.6656317
-0.002449957 -2.0039394 -0.98278373 -2.5851023 -2.0760143 -0.8456557 -2.250918 -0.0030564799
-2.3744278 -2.3878007 -2.6196418 -2.041529 -2.1039426 -2.2718823 -2.4074275 0.00011138544
-2.4432738 -1.3108892 -0.0063985074 -0.0028027853 -2.2166374 -1.6892902 0.030746393 0.010295706
0.0013805353 -1.9493779 -0.0061489595 -0.7703471 -2.1446526 -0.020333828 -2.6728258 -0.0027656564
-0.0047186245 -2.6204214 -2.3593218 -2.562482 -1.9060411 -2.3712542 -0.005592733 -0.0038266217
-0.024913507 -0.0053336015 -2.243949 -0.004678607 -0.9922721 -2.3612158 0.36646685 -1.8674946
0.0040823864 -1.6495796 0.0016969163 0.0047843205 -2.7979908 -2.3506405 -2.0511928 -2.0229914
-1.9163828 -1.9799976 -0.0070232637 -0.007915511 -2.363191 -1.5265669 -2.1337411 0.004970998
0.02692209 -2.2059114 0.028745776 -2.3320932 -2.2965605 -2.2002468 -1.9422411 -2.2649288
-2.0146015 -2.1270692 -0.0044250037 -0.0028233384 0.00048039225 0.016473683 -2.468967 -0.004740318
0.024671638 -1.8678174 -0.0036906854 -2.2743669 0.0086116055 -1.7824214 -2.1963487 -0.77905685
-1.8858691 0.017568348 -2.256949 -2.5759158 -1.6922901 -2.402103 -2.6149225 -0.6796495
-0.010280946 -0.0040675285 -7.358147e-06 -1.7499701 -0.0035231458 -0.0032457458 -1.2465787 2.919223
-2.2863054 -1.7039899 -1.8924454 0.9070017 -1.7735391 -0.004200101 -2.1422527 -2.1419835
0.029501686 -0.0063656503 0.016129784 -2.2516658 -2.2620165 -2.3262343 -1.8488626 -0.005867031
-2.2853103 -2.1625755 -1.6870215 0.018594975 0.019082114 -2.5436928 0.017973827 -2.369815
-1.7884912 0.0039394763 -0.9089976 -0.0126319695 0.02244827 -0.24892281 -2.1141891 -0.0015041272
-0.46878308 -0.67979324 0.023561833 -0.0042116204 -0.008739231 0.4144882 -0.019858038 0.025810936
-2.1480055 0.026996339 0.022997444 -2.359737 -0.0007624802 -2.3318534 0.0077962657 0.013206571
0.0024734228 -2.0986233 -0.012912489 0.025676167 -2.389878 -2.1821017 -0.006853054 -1.7707098
-1.9121021 -0.70781183 -2.2493057 -2.3367546 0.005513138 -0.0023482873 -2.1464884 -0.025398426
-1.4908841 0.0379915 -1.7278124 -1.6554378 -0.004100631 -2.3950515 -1.0325674 -0.9301996
00000000: 84b1 2e3b 508e a8bb 5cad 21c0 00b0 8036
00000010: 6244 c3bb d6b2 c1bf 1af4 82bb caf0 09c0
00000020: 840d e3bf 4ecf f7bf a8ee d8bf 57c5 cf3c
00000030: b932 c13c 2995 89b9 7d22 f9bf 8b78 0ec0
00000040: 5376 0bc0 937e a5bb ea75 553b 572e 97bb
00000050: 4ffb 6dbb 8cfa fbbf 1aa2 fcbf d216 cabb
00000060: 5b2a ccbf c409 e1bf e92b 0ec0 591f 773c
00000070: 3891 c6bb 604c f7bf afa6 18c0 fe3d 24c0
00000080: ad75 2bc0 da2b 62bf ff20 aebb 7a28 1fc0
00000090: dac4 bcbb d94a 27bf 790b edbf 59d1 89bf
000000a0: 7a68 0bc0 fa6e f13c 3502 9ebf 67ad e4bf
000000b0: 9c98 10c0 051e babb c2ab 04c0 30f3 bc3e
000000c0: 9e28 0fc0 e63e 0ec0 ed10 d23c 9e6a 543b
000000d0: b6a2 17c0 506e 14c0 783a 09c0 fce2 f3bf
000000e0: 0ec9 c8bb d0bd acbc f7e1 6b3f 20ab bdb9
000000f0: 183f 2d3b 1569 05c0 16ec ecbf 2478 d6ba
00000100: 9e72 ccbb e4e9 a0bc 0223 9db9 05ec 28c0
00000110: d489 21bf a2f7 15c0 ddcf 22c0 7df6 343d
00000120: c311 21c0 8115 20c0 0467 2cc0 9ccd 29c0
00000130: ce5d 5ebf aac9 01c0 6211 2b3b 6b33 d5bf
00000140: 758f 20bb 8b40 00c0 b797 7bbf 5172 25c0
00000150: 6bdd 04c0 e47c 58bf 0a0f 10c0 394f 48bb
00000160: a0f6 17c0 bad1 18c0 36a8 27c0 69a8 02c0
00000170: ffa6 06c0 8566 11c0 4b13 1ac0 9a97 e938
00000180: 995e 1cc0 38cb a7bf 92aa d1bb efae 37bb
00000190: 63dd 0dc0 a93a d8bf dcdf fb3c 52af 283c
000001a0: 14f3 b43a 3785 f9bf 367d c9bb 7835 45bf
000001b0: fd41 09c0 2193 a6bc 940f 2bc0 0440 35bb
000001c0: b19e 9abb fcb4 27c0 21ff 16c0 b5ff 23c0
000001d0: 28f9 f3bf a1c2 17c0 3f43 b7bb 0fc8 7abb
000001e0: 6917 ccbc 7ec5 aebb dc9c 0fc0 004f 99bb
000001f0: 8b05 7ebf 291e 17c0 8ba1 bb3e 100a efbf
00000200: 8ac5 853b 6d25 d3bf 106b de3a cac5 9c3b
00000210: 4812 33c0 e570 16c0 be46 03c0 b178 01c0
00000220: 084c f5bf 9070 fdbf 6823 e6bb 0fb0 01bc
00000230: 853e 17c0 8b66 c3bf 378f 08c0 c1e3 a23b
00000240: b78b dc3c a72d 0dc0 437c eb3c 0441 15c0
00000250: d9fa 12c0 d8d0 0cc0 5b9b f8bf 98f4 10c0
00000260: 3bef 00c0 e721 08c0 9fff 90bb c207 39bb
00000270: 28dd fb39 d1f3 863c 8e03 1ec0 ab54 9bbb
00000280: 2d1c ca3c a414 efbf 6ddf 71bb 3a8f 11c0
00000290: b117 0d3c 6226 e4bf fa90 0cc0 4570 47bf
000002a0: 2964 f1bf 7feb 8f3c da71 10c0 cedb 24c0
000002b0: f69c d8bf 0ebc 19c0 e45a 27c0 82fd 2dbf
000002c0: 6a71 28bc e748 85bb 00e6 f6b6 05ff dfbf
000002d0: 94e4 66bb 94b6 54bb e48f 9fbf 8dd4 3a40
000002e0: d452 12c0 571c dabf a73b f2bf 4331 683f
000002f0: 5403 e3bf 00a1 89bb ab1a 09c0 4216 09c0
00000300: 85ad f13c f296 d0bb 9c22 843c 4b1b 10c0
00000310: e1c4 10c0 06e1 14c0 88a7 ecbf 3940 c0bb
00000320: 8642 12c0 a367 0ac0 52f0 d7bf 7d54 983c
00000330: 1852 9c3c ddcb 22c0 d93d 933c 0dab 17c0
00000340: 48ed e4bf b916 813b 11b4 68bf 52f6 4ebc
00000350: 6fe5 b73c 9fe5 7ebe e04e 07c0 2226 c5ba
00000360: 5604 f0be ee06 2ebf bf04 c13c a201 8abb
00000370: fe2e 0fbc cc37 d43e 53ad a2bc 7571 d33c
00000380: ec78 09c0 6d27 dd3c 2365 bc3c ee05 17c0
00000390: 2ee1 47ba 163d 15c0 d177 ff3b 6060 583c
000003a0: 2619 223b d84f 06c0 e78e 53bc d356 d23c
000003b0: c3f3 18c0 8ea7 0bc0 958f e0bb 9ea6 e2bf
000003c0: c3bf f4bf 2833 35bf a0f4 0fc0 638d 15c0
000003d0: 8ea7 b43b b9e5 19bb 1160 09c0 5c10 d0bc
000003e0: 4ad5 bebf fa9c 1b3d f528 ddbf 63e5 d3bf
000003f0: 965e 86bb 8648 19c0 2b2b 84bf 9021 6ebf
