src/Models/stage_2/700_critic.pt (torch_old, 374310 bytes, 7 tensors)

fc1.weight f4 [150, 14]
000000 92 82 50 bd 1a 61 92 3d 29 03 b9 bc 24 bf 29 3e
       -0.05090577 0.07147427 -0.022584515 0.1657682
000010 c3 95 bb 3d 1c db 19 be ad 0f d5 39 02 1a 0e 3e
       0.09159424 -0.1502499 0.00040638205 0.13877109
000020 ac 06 5b 3d 9c 6c af 3c 3a b7 40 3f 04 26 81 3e
       0.05347316 0.021414094 0.7527958 0.25224316
000030 ff b9 6f 3d 43 04 ac bd 6b f1 1b 3e 7b 10 b5 bd
       0.05852699 -0.0839925 0.15228812 -0.08841034
000040 f5 cc 0f 3e 5a 85 1f bd 6b 60 b8 be 18 72 e4 bf
       0.14043029 -0.038945533 -0.3601106 -1.7847319
000050 8b 03 6c 3d 7b f4 24 3e 9c 6d ab be 01 6a 5f 3e
       0.057620566 0.16108887 -0.33482063 0.21817781
000060 20 5f 61 3f 76 62 9f 3c 77 a2 4a 3c f2 35 b6 3d
       0.88035774 0.01945613 0.012367836 0.08897008
000070 3e 0a 20 bd fe 4e 71 3d 4a 82 01 3e 5a 5c 84 3c
       -0.039072268 0.058913223 0.12647358 0.016157318
000080 b3 b0 55 3e 17 49 c3 bd 5a 56 36 3c c9 d7 31 bd
       0.20868187 -0.09535425 0.011128986 -0.04341868
000090 b5 0b c2 3d 05 35 03 3c f2 32 17 3e 66 6a 67 bd
       0.09474889 0.008008246 0.14765528 -0.056497954
0000a0 c6 d3 e7 3e 93 98 25 be e9 5c fd bd 9a b9 2f 3e
       0.45278758 -0.16171484 -0.12371237 0.17160645
0000b0 11 d7 27 3d 64 03 18 3e f6 26 20 3e b4 a6 7b be
       0.040976588 0.14845043 0.15639862 -0.24575311
0000c0 11 65 02 be 34 94 8f be 91 ba 94 bd 22 20 db 3c
       -0.12733866 -0.28042758 -0.07262147 0.02674872
0000d0 71 15 32 3f b8 0b 90 be 1e 08 0a bd ad fa 59 3c
       0.69563967 -0.2813394 -0.033699147 0.013304395
0000e0 c5 39 fe bd a5 3e 54 be c7 e8 47 be 21 61 17 bd
       -0.124133624 -0.20727022 -0.19522391 -0.036957864
0000f0 8a b9 69 3e 41 ee a2 3d b5 d1 85 bd d8 3f c1 3c
       0.22824684 0.079555996 -0.06534139 0.023590013
000100 6c c6 6f bd 6c 85 78 3c ef 97 a2 3f 0c 4b 79 3c
       -0.05853884 0.015168529 1.2702616 0.0152156465
000110 ec aa f4 be ff 4f 1c be e1 d7 01 be 87 78 1a 3e
       -0.47786653 -0.15264891 -0.12680008 0.1508504
000120 7d 03 b9 bd dd 5a 13 3d ed 4d 5d bc 09 89 ce bd
       -0.090338685 0.035975326 -0.0135073485 -0.10084731
000130 24 52 25 3d 3e 50 d3 bc 9c a9 38 3d 49 27 d7 3d
       0.04036154 -0.025795098 0.045083627 0.1050554
000140 05 79 21 3f ce 83 8d be f8 eb 9c 3d b7 87 00 3e
       0.63075286 -0.27639621 0.07662195 0.12551771
000150 15 1e ca 3d 45 c6 93 3d 1c 41 55 3e 83 43 b8 be
       0.09869019 0.07215551 0.20825619 -0.35989007
000160 66 8c 1d be 02 25 83 be 0f dd 4d bd f0 5d 49 bd
       -0.15385589 -0.25614172 -0.050259646 -0.04916185
000170 72 ff ff 3c f5 0b d5 3c 59 e7 71 bf 52 60 52 bd
       0.031249736 0.026006678 -0.94493634 -0.05136139
000180 77 0c 3d 3f c7 8a 55 be 80 14 96 bd f7 ca 18 3d
       0.73847145 -0.2085372 -0.07328129 0.037302937
000190 bc eb 8a bc 43 ed 17 3d 3c 2a 3b 3e 1d 26 a1 3e
       -0.01695811 0.037091505 0.1827783 0.3147439
0001a0 6d 42 9c be 70 d9 16 be 51 93 b7 bd 42 52 b4 bd
       -0.3051943 -0.14731383 -0.08963645 -0.08804752
0001b0 98 d4 2d 3e 3b 77 29 bf b4 a0 51 bc 2f cb 05 be
       0.1697563 -0.66197556 -0.012794662 -0.1306579
0001c0 8f a5 2a be cd 3f 02 be e4 e3 ab be d3 eb 8d bd
       -0.16664718 -0.1271965 -0.33572304 -0.069297455
0001d0 27 0a 3b 3e a0 11 27 3d c4 f3 37 bd 97 7a 58 be
       0.18265592 0.040788293 -0.044910207 -0.21140514
0001e0 82 59 c4 3d 25 17 0d bd 63 66 87 3f c4 1d 3d be
       0.09587385 -0.0344459 1.0578121 -0.18468386
0001f0 d2 db c2 be 7e c1 ed bd ce fc a5 bd c0 b1 eb bc
       -0.38058335 -0.11609171 -0.08104859 -0.028771281
000200 78 26 af 3c b0 d8 dd bc 90 3f 50 3d 27 10 4a bd
       0.021380648 -0.027080864 0.050841868 -0.04933181
000210 34 33 3c 3d 0c c5 b2 bc 01 81 81 bd ad 7f 07 bd
       0.04594727 -0.021822475 -0.06323434 -0.033080745
000220 f8 38 e7 3c 20 1a 3f 3d 6c f0 48 3d c7 b7 10 bd
       0.028225407 0.046655774 0.04905741 -0.035331514
000230 6f 37 07 3d db d1 4e bd 54 9f ef bd c3 a3 7c 3d
       0.03301185 -0.050493103 -0.11700311 0.061679613
000240 39 41 25 3d 9e 7c aa 3e 8a ef b1 3d 90 48 16 3e
       0.040345404 0.332982 0.086882666 0.14676118
000250 60 6e 2a 3d 40 75 6c bd 2a 76 2f 3e 56 83 08 be
       0.041609168 -0.057729006 0.1713492 -0.1333135
000260 00 1e 02 be c8 8f 11 be 42 53 15 3d 77 4e e3 3c
       -0.12706757 -0.14215004 0.036456354 0.027747376
000270 16 f3 35 bb 63 3a 86 3e 59 e5 21 3e 05 dc bb 3d
       -0.0027763299 0.2621642 0.15810145 0.09172825
000280 4e 4d 55 3c 3e 8c 28 3c 84 56 4b be 84 31 33 bd
       0.013018919 0.010287343 -0.19857222 -0.043748394
000290 b8 04 d9 3d 38 76 e0 bd 16 aa e8 bd b2 05 c6 3c
       0.10596603 -0.109600484 -0.11360566 0.024172638
0002a0 62 28 ce 3c bd af 4d 3d 78 3e be bb aa a7 63 3d
       0.02516574 0.050216425 -0.0058057867 0.05557982
0002b0 1d b9 39 3d cd 08 25 be 81 f2 57 be 1b 7a 41 be
       0.045342553 -0.16116638 -0.21088602 -0.18894236
0002c0 e2 9c a1 3d 33 b7 42 bd 06 4e 45 3e 0a 6f d2 3e
       0.07891251 -0.047537994 0.19268045 0.4110034
0002d0 8f e1 da 3d f4 71 18 3d 5d 2c 8c 3c b8 88 bc bc
       0.10687553 0.03721805 0.017110998 -0.023014411
0002e0 b6 4c a7 3d a5 97 85 3e 84 8d 2d 3e 99 32 08 be
       0.08168928 0.26092258 0.16948515 -0.13300551
0002f0 e7 51 21 3d 3c a5 96 3d b8 0e 54 be ea dc d2 bd
       0.03938475 0.07355735 -0.2070874 -0.10296042
000300 6a 6a 43 3e 24 76 11 be 99 52 22 3f 06 2c 85 bd
       0.19083562 -0.14205223 0.63407284 -0.065025374
000310 75 ee f0 bd 17 b3 ee bd 8a 67 f0 be 29 2a 2f be
       -0.11764232 -0.116552524 -0.46953994 -0.17105927
000320 bb 60 c0 be 99 f8 e1 3e 47 e3 10 be 72 78 13 be
       -0.375738 0.44134977 -0.141492 -0.14401415
000330 94 7b a1 3e d0 02 15 3e 83 e3 68 3f 61 e6 25 3e
       0.31539595 0.14551854 0.90972155 0.16201164
000340 b3 52 47 3e 2a 05 93 bd be 50 23 3e bd cd 3f bc
       0.19465141 -0.07178719 0.1594877 -0.011706767
000350 70 b4 f5 3d 1b 14 14 3e a7 37 71 3d d0 3b 3f bd
       0.11997306 0.14460795 0.058890965 -0.0466879
000360 43 6d 2e 3e 2b c9 d1 3d c6 b0 d8 3b 8d d5 5c 3d
       0.17033868 0.10243448 0.00661287 0.053914595
000370 46 db 53 bd 66 fa fd 3c 2b 7f 42 bf 66 a9 cf 3d
       -0.051722787 0.031003188 -0.7597529 0.10139732
000380 1f a3 32 3b 5b 06 92 bc 31 b6 37 3d 66 11 ac bd
       0.0027257872 -0.017825296 0.044851486 -0.08401756
000390 34 d3 16 3d 9b 70 8c bc 40 45 3c 3d 6f d5 72 bd
       0.036822513 -0.017143538 0.04596448 -0.059285577
0003a0 50 e8 a4 bd 0b 63 88 bc 47 70 f1 bc 0e ab 89 3d
       -0.080521226 -0.01664879 -0.029472483 0.06722079
0003b0 9d 9c 9d 3c 19 3d 5a bd 2a cf 7e 3d e3 5c 1f 3e
       0.019239718 -0.053280924 0.062209286 0.15562777
0003c0 9a ad 2f bd 24 e9 94 3c 52 b8 9b bb 66 b2 12 bd
       -0.04289017 0.018177576 -0.0047521973 -0.035814665
0003d0 fb 56 ed 3c ee 8b 8f 3d db 23 9a 3c 5b 56 c6 3d
       0.02897214 0.07009111 0.018815925 0.0968444
0003e0 60 d6 fd bd 33 03 86 38 96 19 6d 3e c4 b3 86 3d
       -0.123944044 6.390214e-05 0.23154292 0.06577256
0003f0 48 02 00 3d 3b 89 66 3c 49 e3 de 3d df e1 00 bd
       0.031252176 0.014070804 0.10883195 -0.031465407

fc1.bias f4 [150]
000000 57 77 c5 bd ba cb 10 3f 78 3c 0b bf bb 7d a8 3e
       -0.09641903 0.5656086 -0.54389143 0.32908425
000010 e8 0d b3 be de f8 0e be ac 6f 76 bd 3a 1c 86 bd
       -0.34971547 -0.13962123 -0.060165092 -0.065483525
000020 25 83 e3 bd 18 1a 42 be b6 48 f8 be 65 b4 a7 3e
       -0.11108998 -0.18955266 -0.48492974 0.32754818
000030 9d 5c dd 3e 64 71 11 be e9 da 32 3e c2 a1 39 bc
       0.4323472 -0.14203411 0.1746632 -0.01133007
000040 32 7a 47 be 52 9d b2 be 42 d6 c0 3d f0 a8 06 bf
       -0.19480208 -0.3488565 0.094158664 -0.5260153
000050 63 bf 2b be c6 e5 89 3e e3 74 29 be b2 9b 9a 3e
       -0.16772227 0.26933116 -0.16548495 0.3019691
000060 1d 42 43 bd 01 f2 ba be 34 ef a4 3e aa f5 ae be
       -0.047670472 -0.3651276 0.32213748 -0.34171802
000070 65 4f 10 bf dc f0 0e 3e 67 30 32 be e6 04 89 3e
       -0.56371146 0.13959068 -0.17401277 0.2676155
000080 5d ec cd 3d b2 b0 50 be 81 66 09 3e 26 96 86 be
       0.10054848 -0.20379904 0.13418008 -0.2628643
000090 cb 12 0b 3f 23 b6 1b 3f 73 86 d7 3e c0 08 4b 3e
       0.5432555 0.60824794 0.42094764 0.19827557
0000a0 18 b1 44 be 8e 13 c8 3e 76 b9 e6 bd 00 eb 8c 3d
       -0.19208181 0.3907742 -0.112658426 0.0688076
0000b0 25 a1 79 be 04 8c 15 bf 39 02 07 be f4 2a e0 3d
       -0.24377878 -0.5841677 -0.13184442 0.10945693
0000c0 03 2d 12 3f c8 c2 4b be e6 8c 91 be 95 40 a8 bd
       0.5709993 -0.19898522 -0.2842781 -0.08215443
0000d0 aa 64 16 bf 55 54 99 be 4c c3 26 3e 45 2d 05 3f
       -0.5874735 -0.29947153 0.16285437 0.520222
0000e0 db 2a d1 be 2d 73 01 3f 75 da 06 3e 5e 99 24 3e
       -0.4085301 0.5056637 0.13169272 0.1607413
0000f0 76 27 45 bd 30 e5 12 3e a4 a6 0d 3f ab 99 36 be
       -0.048133336 0.1434524 0.553324 -0.17832057
000100 a8 d7 0c be 30 2a bc 3d fe 33 90 be 5c b3 be 3e
       -0.13754141 0.09187734 -0.28164667 0.37246215
000110 b2 b3 e8 3e dd 20 97 be ef 4c b9 be dc 98 2d be
       0.45449597 -0.2951726 -0.36191508 -0.16952842
000120 37 90 d7 3c e0 38 b0 be 1e 02 27 be c9 b3 eb 3d
       0.026313884 -0.34418392 -0.16309401 0.11508901
000130 d4 9a cc bd 22 74 8f bd 2b 8b c0 3e 0a 18 1e bd
       -0.099904686 -0.070045725 0.37606177 -0.038597144
000140 b0 14 99 be 66 6f c2 3e 5c 70 e8 be 03 ae 54 3e
       -0.29898596 0.37975615 -0.45398223 0.20769505
000150 8e bb 0d 3e 79 69 60 3d ba 5e 39 3e 94 18 09 3f
       0.13841078 0.054788087 0.18102542 0.5355313
000160 df 0d e3 3e 08 f3 e6 3e 9c c0 34 be 37 b8 91 be
       0.4434652 0.45107293 -0.176516 -0.28460857
000170 79 22 e2 be 05 26 b4 be f5 8f 5d be ca 31 4c be
       -0.44166926 -0.35185257 -0.21636946 -0.19940868
000180 1d f9 85 3e 39 2d 9d be bf 68 dc bd b5 aa 88 be
       0.2616662 -0.30698565 -0.10762166 -0.2669274
000190 de 39 99 3c dc aa 37 be 16 c3 dd 3d 66 d4 e7 bd
       0.018704351 -0.17936271 0.10828225 -0.11319809
0001a0 d0 33 be 3e 41 79 9c 3d d4 d6 20 be 26 c5 cb 3e
       0.37148905 0.07640315 -0.1570695 0.3979885
0001b0 15 fe 15 3f b7 d5 9a bc e3 9e 68 be 39 08 1b bf
       0.58590823 -0.018900735 -0.2271686 -0.6055942
0001c0 cd 91 85 be e6 d9 8f be f0 ba 0d 3f 84 bd 30 3e
       -0.260878 -0.2809593 0.5536337 0.17259794
0001d0 8b a9 b5 3c 40 d4 7f be d4 9f b1 3e f1 2e 03 3e
       0.022175571 -0.2498331 0.34692252 0.12810875
0001e0 2c 28 37 be 03 05 53 be cd f9 2e bb e6 ab 41 be
       -0.17886418 -0.2060738 -0.0026699186 -0.1891323
0001f0 c7 ae 7d be 68 80 85 bd ef 87 14 be c7 84 1d bf
       -0.24773704 -0.06518632 -0.1450498 -0.6153073
000200 76 42 1f 3e b8 f7 36 3e fc 4c a2 3d 0b 24 96 be
       0.15552697 0.17867935 0.0792484 -0.29324374
000210 61 9a e3 3e 78 7e e8 bc a2 a8 90 be c5 64 a8 be
       0.4445372 -0.028380617 -0.28253657 -0.3288938
000220 20 88 b0 be 52 71 88 be e8 ef d9 bc e6 47 e8 3e
       -0.34478855 -0.26648957 -0.026603654 0.45367354
000230 1a 71 0a 3f 53 9b fe be 21 27 0f 3f c3 1e 94 3d
       0.5407883 -0.49727878 0.5591908 0.0723243
000240 83 6f 7d be 8d ef ea 3e 8a ef 89 be cd ce 38 be
       -0.2474957 0.45885888 -0.26940566 -0.18047638
000250 d5 fd 5f 3b 6c fe 68 be
       0.0034178395 -0.22753304

fa1.weight f4 [150, 2]
000000 ee bb 0a 3f 48 01 70 3d 7b 4e 61 bc 00 02 93 3c
       0.5419301 0.058594972 -0.013751621 0.01794529
000010 c8 56 1e 3c 11 76 12 bd 53 1c fa bc 08 15 90 be
       0.009664245 -0.03575713 -0.030531084 -0.28141046
000020 8c 81 ff 3e 1f d6 8c bd c5 86 29 be ab 41 df 3d
       0.49903524 -0.06876778 -0.16555317 0.10901197
000030 a5 55 4f 3e 43 16 ae bd 1a b8 8e 3d 08 42 46 3e
       0.20247515 -0.0850034 0.06968708 0.19361126
000040 58 7a b4 be 18 b3 39 3d 33 af e3 be 9a 5e f0 bb
       -0.3524959 0.045336813 -0.44469604 -0.007335496
000050 50 fe d1 bb 81 02 fc bc 87 82 83 bd 63 c4 6a 3d
       -0.0064084902 -0.030762913 -0.064213805 0.057316195
000060 29 1d 81 bd c2 59 ed bc c8 b9 50 bd 45 75 7c bd
       -0.0630439 -0.028973464 -0.050958425 -0.061635274
000070 a0 bd 6e 3d 82 ff a7 bc 18 9a 96 bc 3e 53 61 bd
       0.05828631 -0.020507578 -0.018384025 -0.055011027
000080 30 a1 9e 3e a8 02 91 3e 96 a8 0c 3f 59 45 1f bd
       0.3098235 0.2832234 0.5494474 -0.038884494
000090 f4 4b 82 bc cb e8 28 bc a8 63 5a bc 70 8b 96 3d
       -0.015905358 -0.010309408 -0.013329424 0.07350814
0000a0 28 eb 25 bd 00 42 7b 3c 1d 6e e1 be 67 1f 42 3d
       -0.040507466 0.01533556 -0.44029322 0.04739323
0000b0 b2 a9 d7 3c f8 20 b0 3c 7c 24 a1 bf 96 d6 c9 bd
       0.026326034 0.021500096 -1.2589259 -0.09855382
0000c0 7c 74 fb 3e 8b 0a 8e 3d 0c 04 7f bc ce 6e 2b 3d
       0.49112308 0.06935605 -0.01556493 0.04185372
0000d0 e1 72 21 3f 8e 06 ab bd 28 7f da 3c 38 14 6b bd
       0.63065916 -0.083508596 0.026671961 -0.05739233
0000e0 d0 8e 7f 3d 80 3c 52 bb 86 e1 82 bd f1 08 89 be
       0.062392056 -0.0032079518 -0.063906714 -0.26764634
0000f0 30 bc 49 bf 60 ca 16 3d 28 c5 0b 3c 38 b6 48 bc
       -0.78802776 0.036814094 0.008530892 -0.012250476
000100 e9 37 b0 bf be 3e f0 bd 56 2c 95 3d ab 11 67 bd
       -1.3767062 -0.11730717 0.07283847 -0.056413334
000110 68 bd dc 3e 88 1c 03 3e d5 2e 53 be ce c1 2a 3e
       0.43113256 0.12803853 -0.20623334 0.16675493
000120 e7 e4 8f be 0c 2b a5 be 85 98 3e bd f0 50 9b bc
       -0.28104326 -0.32259405 -0.046532173 -0.018959492
000130 b0 fc 72 3d 48 2b 5e 3d 5c 56 07 3d b8 d1 3a 3c
       0.059323013 0.054240495 0.033041343 0.01140254
000140 5c 1a e5 bc 00 3b 33 3b 12 3b 5a 3f 7a 9c 70 3e
       -0.02796667 0.00273484 0.85246384 0.23497191
000150 fe af a4 3e 8c 72 b3 3d 60 d0 ca 3e 6f ed 21 3d
       0.3216552 0.087620825 0.39612103 0.039533075
000160 ed ec 9b be 5f 8a d2 bd 56 77 43 be 31 04 33 bd
       -0.30454198 -0.102802984 -0.19088492 -0.04370517
000170 a3 a0 a9 3c 06 f6 02 be b0 e7 54 bf db bc 46 3d
       0.02070648 -0.12789163 -0.8316603 0.04851995
000180 12 e2 a8 bc b3 8b 95 3d 36 7b e1 bc e8 0c 41 3d
       -0.020615611 0.07302036 -0.027524572 0.04713145
000190 22 ee ba bb e2 2a 8a 3d a5 b8 55 3f a4 1d 14 3e
       -0.005704657 0.067464605 0.8348487 0.14464432
0001a0 c0 c6 f8 3b be fc 19 3d 45 83 a2 3e d7 a5 93 3c
       0.007592052 0.03759455 0.31740776 0.018023415
0001b0 48 96 27 3f 58 c0 91 3d 04 02 a3 3e 39 ac b7 3d
       0.65463686 0.07116765 0.31837475 0.08968396
0001c0 32 3c 34 3e b6 0e 7f be 58 df 40 3d 16 f2 25 3d
       0.17601088 -0.24907956 0.047087997 0.040514074
0001d0 28 cb 90 bc 00 92 36 bb 7c bf a4 bd 50 26 31 3d
       -0.017674997 -0.002785802 -0.08044335 0.04324943
0001e0 3f f4 10 3f c3 02 b2 3d b6 1a 07 3f d8 84 71 3d
       0.5662269 0.08691933 0.5277513 0.05896458
0001f0 9e 20 89 3d df ab 5e 3e b3 a0 b4 3e 80 e5 30 3e
       0.06695674 0.21745251 0.35278854 0.17275047
000200 bf e0 70 bc d7 06 ac bd 3f f3 27 be 67 44 68 be
       -0.014702021 -0.08399742 -0.16401385 -0.22682343
000210 92 98 69 bd 80 83 6c bc 04 76 39 3d 38 36 89 3d
       -0.057030268 -0.014435649 0.045278564 0.066997945
000220 9b 3a d2 be 76 4e 85 be 5e 58 99 bf f2 3a e1 bd
       -0.41060337 -0.26036423 -1.1980093 -0.10997571
000230 0c 43 a4 bd 58 2c 79 bc 48 a4 8f 3e ed 93 fb 3d
       -0.08020601 -0.015208326 0.28055024 0.12284074
000240 bc 88 ff 3e 23 fa 0d 3d 88 3e 02 3f 64 8e 98 3d
       0.49909008 0.034662377 0.50876665 0.07449034
000250 ae 3d 86 bb 00 2b ed 3a 11 aa 5d 3e 12 96 ac 3d
       -0.0040967083 0.001809448 0.21646906 0.08427061
000260 58 91 4a 3d 64 20 9b bc 3b 56 4a bd df 20 e6 bc
       0.049455017 -0.018936343 -0.049398642 -0.028091846
000270 ab 40 e2 ba 9d 93 88 bd 1e 84 2c be db ff d3 3d
       -0.0017261704 -0.0666878 -0.16847274 0.10351535
000280 3d d8 0f be fa 32 c6 bd 39 e0 3f 3e f7 bc 10 3b
       -0.14047332 -0.09677692 0.18737878 0.0022085288
000290 86 ce 90 3e 0e ee 07 3f 24 4a 9f 3c 8a 76 9a 3d
       0.28282565 0.5309762 0.019444533 0.07542141
0002a0 b2 0d 53 3d fc 67 7d bd 60 f4 87 3b 70 bb 28 3c
       0.051526733 -0.061866745 0.004149005 0.010298595
0002b0 cd 72 19 3e 2b 7a 09 bf 8d 06 d0 3e 49 fe a9 3d
       0.149852 -0.5370204 0.40629998 0.08300454
0002c0 00 dd 3c 3b 97 e1 40 3d 12 a2 8a bd 32 5b 05 3d
       0.002881825 0.04709014 -0.06769194 0.032557674
0002d0 7a da 5f bd 3f 00 70 3d 5b d7 9d 3e 86 08 93 bd
       -0.054651715 0.058593985 0.30828366 -0.0717936
0002e0 f2 d0 9c 3d d0 12 0d 3d 09 4c ae be bf 4c 96 3d
       0.07657041 0.03444177 -0.34042385 0.07338857
0002f0 ff d0 fe be 06 9d 65 bd 34 0a e6 3c 5f f8 53 3c
       -0.49768826 -0.056057952 0.028081037 0.012937634
000300 28 8e 58 3c e6 a7 56 bd 30 25 a0 bd 98 a7 84 3d
       0.013217486 -0.052406214 -0.07819593 0.064772785
000310 e9 0b dd 3e cb 77 59 bc d3 58 eb 3c 48 47 26 3c
       0.4317315 -0.01327319 0.028728878 0.010148831
000320 11 47 12 bd c8 4a fc 3c 0e 8f 99 bf 54 f0 aa bd
       -0.035712305 0.030797377 -1.1996782 -0.0834662
000330 69 c0 13 bf a0 59 67 bf 18 c8 c5 3e 45 55 80 3e
       -0.5771547 -0.9037113 0.38629222 0.25065055
000340 db 9d 1f bc 3c f1 70 3d a5 4a 55 3f 61 98 62 3e
       -0.0097422255 0.05882381 0.83317024 0.2212844
000350 3d e3 34 3d 2f 1c 9b bd fd ad 63 3d 4d 97 99 3d
       0.044162024 -0.07573735 0.05558585 0.074995615
000360 08 16 a5 3c 0a f2 3a bd 06 7e f3 be a0 ac b7 bd
       0.020152107 -0.045640983 -0.47557086 -0.089684725
000370 64 3c 19 3f 1b dd 2f 3e 59 05 1d 3e b1 be 21 bd
       0.59857774 0.17174189 0.15334071 -0.039488498
000380 aa e3 1f 3f 31 46 f8 3d 79 ef 5b bd e6 6c 8b 3e
       0.6245676 0.12122763 -0.053695176 0.2723152
000390 b8 61 c6 3d 8a 76 e8 bd 08 d7 54 3a 1c 5d 8c 3d
       0.09686607 -0.113507345 0.00081192004 0.06853697
0003a0 85 cc 37 3f 45 43 43 3e 18 a4 93 3e ed d4 8a bd
       0.7179645 0.1906863 0.2883613 -0.067788936
0003b0 35 f7 be 3e f0 b8 f0 3b e9 47 38 3d e1 95 a3 be
       0.3729798 0.007346265 0.044990454 -0.31950286
0003c0 37 5d da 3e ea 53 be 3d 9c 0f 10 3e e5 e4 23 3d
       0.42649242 0.09293349 0.14068455 0.040013213
0003d0 88 aa 49 3e 79 72 2c 3d 22 9b 8b 3d 36 81 00 3d
       0.19693959 0.042101357 0.068166986 0.031373225
0003e0 e4 6b 57 3d 58 a0 0c 3d c7 1a aa 3c 1f 07 bd bc
       0.052593127 0.034332603 0.020764722 -0.023074685
0003f0 00 aa 3a 3a b4 5d 04 bd b2 74 3e 3f c0 2b 79 3e
       0.0007120669 -0.032315925 0.7439681 0.24333096

fa1.bias f4 [150]
000000 2a ea 41 3f 13 6a ab be ea 1c a0 be d8 f1 80 3f
       0.7574793 -0.33479366 -0.3127206 1.0073805
000010 b5 2b 0a 3f 65 41 23 3e 7e 93 7a 3f 8d ae cd 3e
       0.5397294 0.15942915 0.97881305 0.40172234
000020 07 ba 14 3f e6 22 0c 3f 96 20 61 be 5a a3 05 bf
       0.58096355 0.5474075 -0.21985087 -0.5220238
000030 0b f2 2c bf cf ba 25 bf 86 a6 22 bf 26 96 90 be
       -0.6755683 -0.6473817 -0.63535345 -0.28239554
000040 f8 66 06 3f c5 1f 4c 3f 98 0b b4 be cf 17 2d bf
       0.5250087 0.79735976 -0.35165095 -0.67614454
000050 69 07 c0 be b3 f5 52 3e ab b8 ea be a2 dc 1d be
       -0.37505654 0.2060154 -0.45844015 -0.15416196
000060 46 fb b5 3e 7b c1 ec be af c7 15 3f 10 ba b0 be
       0.3554327 -0.46241364 0.5850782 -0.34516954
000070 4c 97 02 bf fe 28 73 3f 30 52 9b 3e c9 7e c5 be
       -0.5101211 0.94984424 0.30336142 -0.38573292
000080 48 b1 2e be d4 9f 31 bf da 0b 1e 3f 42 da cc 3e
       -0.17059815 -0.69384503 0.61736834 0.40010267
000090 d2 36 56 3f b0 9f 19 be 57 12 1c bf aa 10 d8 be
       0.836774 -0.15002322 -0.60965484 -0.42200214
0000a0 1e 6b 61 be fe ad 45 3f 40 e1 79 3f 15 8c 9e 3e
       -0.22013518 0.77218616 0.9760933 0.3096625
0000b0 aa 2a 72 3f a0 a2 3d 3f 81 ac 84 3f 50 f8 91 3e
       0.9459635 0.7407627 1.0365144 0.2850976
0000c0 9c 67 2a be 4f fe 0a bf 1f fa cd be 34 80 11 3f
       -0.16641086 -0.54294294 -0.4022989 0.5683625
0000d0 e8 f2 4b be 1b bb 73 3f 1a cd 4e 3f 6f 7c 5e 3f
       -0.1991688 0.95207375 0.8078171 0.8690862
0000e0 01 8c fc 3e 52 47 f1 be 3f 22 a9 be dc 72 4d be
       0.49325565 -0.47124726 -0.3303394 -0.20063347
0000f0 17 2b 85 3f 31 00 4f 3f 03 d4 68 3f c8 e7 58 3f
       1.0403775 0.8085967 0.90948504 0.8472867
000100 b6 b6 62 3f 81 be 23 3f 87 75 9a be 6e 7f 19 bf
       0.88560045 0.6396256 -0.3016779 -0.5996007
000110 72 13 43 3f a3 b4 32 be 8a ff 20 bf be fd 6e 3f
       0.76201546 -0.1745172 -0.6288992 0.9335593
000120 0f c1 5b 3f 38 84 b2 3e 18 84 aa bd 97 85 85 3f
       0.8584146 0.348665 -0.08325976 1.0431393
000130 1d a5 0d bf 19 75 b4 be c6 c9 51 be ab 4a 7c 3f
       -0.5533007 -0.35245588 -0.20487127 0.98551434
000140 77 d3 50 3f cc d2 71 3f 32 90 91 3c ca 2b 1f bf
       0.8157267 0.94462276 0.017768953 -0.6217619
000150 55 3a 85 3f b3 33 19 bf db bf 80 3e 4b 89 60 3f
       1.0408427 -0.5984451 0.25146374 0.8770949
000160 56 31 f7 be f0 c6 8c bd 65 88 32 bf 2d 1f 3a 3f
       -0.48279828 -0.06873882 -0.6973937 0.7270382
000170 58 1f 25 be ed 87 67 3f b2 42 0b 3f a4 cf 9b be
       -0.16125238 0.9044178 0.54398644 -0.30431855
000180 fd 9c d0 be 22 9f 55 be dd 22 80 3f 04 9c a4 be
       -0.40744773 -0.20861486 1.001064 -0.3215028
000190 f4 07 05 bf 90 ce e7 bd 23 21 64 3d c4 f1 6b 3f
       -0.5196526 -0.113186955 0.055695664 0.9216578
0001a0 aa 09 ba be 0c 2a 2d 3f 32 a2 63 be 2f ba 7f 3f
       -0.36335498 0.67642283 -0.22229841 0.9989347
0001b0 11 7d 1c bf 4f 68 24 3f 10 b7 8f 3f 85 d1 78 3f
       -0.61128336 0.6422166 1.1227741 0.971947
0001c0 2d d3 03 3f 9d 32 a1 3e 7e 6e 80 3f cf 96 2c bf
       0.51494104 0.31483927 1.003372 -0.67417616
0001d0 b7 14 2a 3f 69 56 a2 3e 8e 4b af 3e 8b 25 47 3f
       0.6643786 0.3170655 0.3423733 0.7779166
0001e0 ea 29 de 3e a3 db 26 3f fe 99 58 3f fd c2 e9 be
       0.43391353 0.6517889 0.84609973 -0.45656577
0001f0 13 5a 29 bf 6c 25 9d bd c8 2a f6 bd 20 2e 4a 3f
       -0.6615307 -0.07673153 -0.120198786 0.7897663
000200 9b af 2f 3f e1 81 5b 3f b2 b9 6b 3f b7 e9 ae 3e
       0.6862733 0.85745054 0.92080224 0.34162685
000210 0c 23 5a 3f cd e0 30 3f ec a5 18 be 39 a1 4d 3e
       0.8520973 0.6909302 -0.14907044 0.20081033
000220 ff a0 35 3f fb 6c 38 3f aa ed 03 bf 14 18 86 3f
       0.70948786 0.7204129 -0.5153452 1.0476098
000230 75 1e 1c 3f de 2b 8e be e0 9c d8 3c 70 59 92 3e
       0.60983974 -0.27767843 0.026441991 0.2858386
000240 42 94 82 3f 42 7d 15 bf dc 27 6c be d2 9c 43 be
       1.0201495 -0.58394253 -0.2306208 -0.19102791
000250 1e 18 62 3f 8a f5 15 be
       0.8831805 -0.14644447

fca1.weight f4 [300, 300]
000000 a9 1d fb bc 89 c9 89 3c e6 c1 35 3c d7 a0 86 bd
       -0.030653792 0.016819732 0.011093592 -0.065736465
000010 6e 42 68 bd 77 2c 2e bd 18 82 da bc 1a fd 61 bd
       -0.056703977 -0.042522874 -0.026673362 -0.055173017
000020 e8 48 bf 3c 60 5d dc 3a 18 52 1c bb 84 1d 62 bd
       0.023350194 0.0016812496 -0.0023852643 -0.05520393
000030 c5 78 ed bc d6 b2 f8 3c 03 f7 d8 3c 3e cb 4c bd
       -0.028988251 0.030358713 0.026484972 -0.049998514
000040 80 6d 02 bd a8 1e 01 3c a2 0c 15 bd 4a 06 43 bd
       -0.03184271 0.007880844 -0.036389 -0.04761342
000050 f0 c9 de bb a1 d1 26 bd f2 f5 0c bd 5c 28 c2 bb
       -0.006798975 -0.04072726 -0.03441424 -0.0059252214
000060 5d c1 a7 bc 1d ab 9f 3b 6f 6e 00 bd f1 8d c0 3c
       -0.020477945 0.004872693 -0.031355318 0.023505183
000070 e8 1a 15 3c 7d 57 0f bd 4a 33 62 3d d0 88 bf 3c
       0.009100653 -0.034995545 0.055224694 0.023380667
000080 7f 10 27 ba 8b c3 62 3d 8c 7a 4c bd a1 59 4c 3d
       -0.00063730025 0.055362266 -0.049921557 0.049890164
000090 b6 bc 4f 3d 0b e1 11 bc b9 11 33 3b d4 7d a4 bd
       0.05071708 -0.008903752 0.0027323796 -0.08031812
0000a0 8c 3d 5e 3d 61 ed 99 3c 1c 1b 15 bd b8 e5 92 3c
       0.054257914 0.018789949 -0.036402807 0.017931804
0000b0 71 d1 f1 bb b8 3f 8f bd e2 e9 a8 3c 63 fc 37 bd
       -0.0073797037 -0.06994575 0.020619337 -0.04491843
0000c0 d6 f0 52 bd c0 2b 26 bd 63 49 07 bd aa 26 3e bd
       -0.05149921 -0.040569067 -0.03302897 -0.04642359
0000d0 9c 85 05 3d d6 27 49 3d 7e 3f 16 3d f9 e8 94 bd
       0.032598123 0.049110256 0.036681645 -0.072709985
0000e0 2c 26 bb bc 42 fb 5c bc c7 8e ac 3a 46 28 53 3b
       -0.02284535 -0.013487639 0.001316511 0.003222005
0000f0 5c 6f 79 bc 3d 73 87 bd c1 3a 63 bd f0 29 4f 3d
       -0.015224304 -0.06613777 -0.055475954 0.050577104
000100 fa 71 3a bd 6a 00 81 3b 3a c6 ab bc 1a 0f 14 bd
       -0.045518853 0.003936817 -0.020968545 -0.036147214
000110 5c b5 94 bd 9c 8f ab 3c 00 ca a7 3b f2 94 a7 3c
       -0.07261154 0.020942502 0.005120516 0.020456765
000120 d2 bd 9b bd 8a 64 ed bc fc 76 a4 bc af ce a9 bd
       -0.07604565 -0.028978605 -0.020076267 -0.08291375
000130 a2 6a 94 3c be 78 50 bd 5b 4e 29 3c ea 98 22 3d
       0.018117253 -0.0508964 0.010333623 0.03969661
000140 1e fa 4d 3d 50 3d de 3c 30 f1 2d 3b e6 47 16 3b
       0.05028736 0.027128845 0.0026541464 0.0022931038
000150 64 6a a9 bd 34 25 2a bd 8b 59 f4 bc 72 4e 68 bd
       -0.082722455 -0.041539386 -0.029827854 -0.056715436
000160 03 49 f4 bb 44 87 39 bd 67 92 1f bd cf 80 9e bc
       -0.0074549927 -0.045295015 -0.03895798 -0.01934853
000170 00 f8 3f 3a 4c 96 47 3d d0 63 4a 3c ec 7c fa 3c
       0.00073230267 0.04872732 0.012352899 0.030577146
000180 64 38 7a bd 86 fa ee bb 2c 23 db 3c 24 86 b4 3c
       -0.061088935 -0.0072930483 0.02675017 0.02203662
000190 f6 6b 3e 3b 98 45 e3 bb c0 1b 39 3c 30 5f 12 bd
       0.002905605 -0.0069357865 0.01129812 -0.03573531
0001a0 42 4a f6 bc 8a 06 0e 3c 60 3e ba bc 80 02 1b 3d
       -0.030064706 0.008668551 -0.02273482 0.03784418
0001b0 d9 bf 39 3b 80 5e a2 bc 4b ab 17 3d f2 67 65 bd
       0.002834311 -0.019820452 0.037028592 -0.056007333
0001c0 6c 2f 72 bc 3a 54 3b 3d b0 c2 98 ba 60 d7 92 bc
       -0.014781814 0.04573462 -0.0011654701 -0.017924964
0001d0 fc 41 c2 3c 52 1c c2 bc 6d a1 05 3d 88 8b 21 bd
       0.023713104 -0.023695145 0.03262465 -0.039439708
0001e0 f4 64 d4 3c 38 f7 a6 bc 86 b9 a1 3c bf 7a c5 bc
       0.025927044 -0.020381555 0.019741785 -0.024106381
0001f0 00 8a 58 3d e3 b7 77 bd c0 93 97 ba a8 e4 ba bb
       0.052865982 -0.060478102 -0.0011564419 -0.0057035275
000200 e2 5c c8 3c 1f 16 89 bb e0 e9 b6 3b a8 17 4b bc
       0.024458352 -0.0041835452 0.0055820793 -0.012395777
000210 31 56 aa bb 98 b3 34 3c 90 c7 65 3d 57 eb f9 bc
       -0.005198263 0.011029147 0.05609852 -0.030507727
000220 2f 7a 6d bd c4 9d 07 3d 38 4b 27 3c d0 da 7c bd
       -0.05797785 0.03310944 0.010210805 -0.061732113
000230 16 af 63 bd 4b f8 5d bd 0d 76 a4 bc f8 91 92 3c
       -0.055586897 -0.05419187 -0.020075822 0.017891869
000240 b8 70 08 3c e8 af 38 bd b0 8e f1 3c f8 13 b7 bc
       0.0083276555 -0.045089632 0.029486984 -0.022348389
000250 3e 39 48 bd 52 2a 45 bd db e8 44 bc 50 c6 bb 3c
       -0.048882715 -0.048136063 -0.012018408 0.022921711
000260 89 06 14 bd 66 8d b4 3c 07 42 77 bd e1 11 d0 bc
       -0.036139045 0.02204008 -0.060365703 -0.02539915
000270 03 51 81 3a c4 a3 90 bd 37 fe 42 bd ee c2 9f 39
       0.0009866062 -0.07062486 -0.04760572 0.00030472077
000280 40 c9 50 3c 1b d9 0c 3d 9c 8e 08 3d f4 ab 0e 3d
       0.012743294 0.034386735 0.033339128 0.034831956
000290 e4 bd 98 3c c0 da 64 3b 02 21 9f 3c 01 58 75 bd
       0.018645234 0.0034920424 0.019424919 -0.05989838
0002a0 0e d6 24 bd c8 1c 00 bd 14 00 63 bd a3 b7 57 bb
       -0.0402432 -0.031277448 -0.055419996 -0.0032915852
0002b0 a8 5c a3 3c d6 20 f8 3c 43 8b 11 3a 28 13 f1 bb
       0.019941643 0.030289095 0.00055520626 -0.00735702
0002c0 7d 9a 8f bd 0e 68 b5 ba b0 df 0b 3d fa 9d d7 3c
       -0.07011888 -0.0013840215 0.034148872 0.026320446
0002d0 f4 7b 68 3b d0 57 af bb 7d b5 42 bd 5e 12 58 3d
       0.0035474272 -0.0053510442 -0.047536362 0.05275189
0002e0 d9 63 5a bd d0 1a 8c 3c 9f 5a 78 3c 0c 78 8b 3c
       -0.05331788 0.017102629 0.0151583245 0.017025016
0002f0 00 b6 15 3d 8a 88 23 bd 45 de 35 bd af 69 57 bd
       0.03655052 -0.039925136 -0.044401426 -0.052591022
000300 9f d3 9d 3c 3c e0 07 bd 3b cf 9e bc bc b7 7f b9
       0.019265948 -0.03317283 -0.019385925 -0.00024387141
000310 36 a9 1b bd fe 10 4d bc 76 6d 05 bd 80 38 52 bd
       -0.03800317 -0.012516258 -0.032575093 -0.051323414
000320 b0 c2 23 3d 22 a0 66 bd 52 bf 56 bc 27 ad 98 bd
       0.03998059 -0.05630506 -0.013107138 -0.07454901
000330 f9 31 33 bd 32 ce d1 bb 89 53 0d bd aa 24 d0 bc
       -0.04374883 -0.006402754 -0.034503493 -0.025408108
000340 80 3c 0d 3d 52 8e 43 3d 28 a8 d4 39 d0 6b 04 bc
       0.034481525 0.04774315 0.00040561077 -0.008082345
000350 99 ee a2 bd 68 8f 28 bd fa 11 90 bc 9d 68 eb bb
       -0.07955665 -0.041152388 -0.017586697 -0.0071841017
000360 10 40 29 3d cb 15 0c bd 55 57 82 bd 4a 0f 34 3c
       0.04132086 -0.03420047 -0.063643135 0.010989973
000370 b7 ce 2d bc 88 28 f6 bc 49 ee 33 bc dc f7 79 bd
       -0.010608367 -0.030048624 -0.010982105 -0.061027393
000380 24 a6 f2 3c 45 51 22 bd 06 b6 63 bd 00 1e 57 bd
       0.029620238 -0.039628286 -0.055593513 -0.052518845
000390 50 72 da 3b a1 7f 9d bd 3a 99 80 bd be 66 5b bd
       0.006666459 -0.07690359 -0.06279226 -0.05356478
0003a0 00 82 dc b9 a4 e8 62 3d 9b 3c bb bc 44 fd f3 3c
       -0.00042058527 0.055397645 -0.022856047 0.029783852
0003b0 54 2e ae bd 62 96 c5 bc 3c 0d 23 3d 38 c5 1f bc
       -0.0850493 -0.02411956 0.039807543 -0.00975161
0003c0 f2 67 c4 bc 0a ba e0 bc 54 99 3a 3d d8 50 5e bd
       -0.023975346 -0.02743246 0.04555638 -0.054276317
0003d0 11 b2 a5 bd 9c 0c 1a bc 04 dc ef bc f0 93 53 3d
       -0.08090604 -0.00940242 -0.029279716 0.051654756
0003e0 2e 7e 9a bd 0a 80 ce bc 7a 58 8d bc a8 56 a4 bd
       -0.07543598 -0.025207538 -0.017254103 -0.08024341
0003f0 db 25 74 bd be b7 58 bd 30 7a 28 3d 67 b7 9e bd
       -0.059606414 -0.052909605 0.041132152 -0.07749825

fca1.bias f4 [300]
000000 a0 f4 49 bd 67 e5 14 bd b2 18 b6 3b 9a 56 12 3d
       -0.04930556 -0.036351588 0.005557143 0.03572712
000010 94 0b 26 3d ee 24 c0 3b 14 6b bc bc 52 5e a5 3d
       0.040538386 0.0058637774 -0.023000278 0.08074631
000020 4f 31 08 3d 7f 9e c7 bb f4 ce 1b 3d be 2b 95 3c
       0.03325015 -0.0060918923 0.038039163 0.018209334
000030 9a 07 69 bd 6b 62 38 bc db 8a a1 3d 55 43 af 3c
       -0.056892015 -0.011253933 0.07887813 0.021394411
000040 aa 43 01 3d 45 18 35 bd 5d 0d e5 3c cb 76 1f 3d
       0.03155867 -0.0442126 0.027960474 0.03893165
000050 52 02 37 bd 0b 63 ac 3d 4c 83 6e bb 18 52 9c 3c
       -0.044679947 0.084173284 -0.0036394177 0.019082114
000060 6a f4 13 bd 90 2d 1b bc e4 7a b3 3d 7b 4b 0d bd
       -0.036121763 -0.009471312 0.08763674 -0.034495812
000070 6b dc 3b bc 3c 22 20 bd eb 44 5d 3d f2 1d 94 3c
       -0.011466126 -0.03909515 0.054020803 0.018080685
000080 b0 c4 02 3e 12 cf 1e be 21 b6 27 3d 83 7d 3a 3c
       0.12770343 -0.15508679 0.040945176 0.011382463
000090 93 9a 92 3b 57 29 52 bd 56 38 37 3d c3 69 c8 bd
       0.004473993 -0.051308956 0.04473146 -0.097857974
0000a0 aa ab 95 3d 86 d1 b5 bd e3 3e a8 bd 6a 0a ce 3c
       0.07308133 -0.08877854 -0.0821512 0.02515145
0000b0 86 ca f8 3c a3 00 e1 bc 96 7d d2 3b a9 51 b2 3e
       0.030370008 -0.027466124 0.0064236624 0.34827927
0000c0 43 85 c0 bc b9 a5 1f 3c c2 5b 9d bd cc 98 95 bc
       -0.023501044 0.009744101 -0.07683517 -0.018261336
0000d0 99 5e 37 3d 9b f5 d7 3d 3e 2d 7e bb 48 a3 41 3d
       0.04476795 0.105448924 -0.003878429 0.047274858
0000e0 e0 25 5e bd 1d 5e 0c bd 3e d4 07 3f 40 41 bf 3b
       -0.05423534 -0.03426944 0.5305823 0.005836636
0000f0 a4 e3 1e bd b6 13 92 3d 41 a3 72 3d 3c ba 74 bc
       -0.038791314 0.07132666 0.059237722 -0.01493698
000100 3e 55 59 bd 40 e7 64 bc 6b 21 5a bd 9c 19 b6 3d
       -0.05305981 -0.01397115 -0.053254526 0.08891603
000110 cf ba af bd 49 51 94 3d b7 ee 1b 3d 29 79 61 bd
       -0.08580553 0.072420664 0.038069453 -0.055047188
000120 74 e0 2e 3d a1 e0 81 3d 56 0f 41 3d 3b e5 e3 3c
       0.042694524 0.06341673 0.047133766 0.027819267
000130 8f c3 88 bc 7b a9 ed bb f5 ff 2a bc 79 86 88 3c
       -0.016694812 -0.0072528697 -0.0104370015 0.016665684
000140 31 7c bd 3c e9 24 98 3d 74 4f 54 bd c4 2b 06 3d
       0.023130508 0.07428915 -0.051833585 0.032756582
000150 34 39 d8 3d db b6 81 bd ea 50 e1 3c 21 f4 39 bd
       0.10557786 -0.06333705 0.027504403 -0.045398835
000160 23 2b 75 3d ee ab 94 3d 89 f1 e0 3d ea 73 8c 3c
       0.05985559 0.072593555 0.10983569 0.017145116
000170 89 1b dd bb eb 2c 3c bc 9d f6 37 3d 4c 66 38 3d
       -0.006747667 -0.011485319 0.044912923 0.045019433
000180 a0 4f af 3d 40 b9 fc 3c 11 aa ba 3c 4c f3 83 bd
       0.08560109 0.030850053 0.022786172 -0.064428896
000190 e5 17 c8 3c 3f 79 91 3c b8 1e ba 3c 8d 14 90 3b
       0.024425456 0.01775801 0.022719726 0.004396981
0001a0 b0 45 08 3b 2b ea 40 bc d9 9e 09 3d 3f 9a 44 bd
       0.002079349 -0.01177458 0.033598755 -0.047998663
0001b0 63 fc f3 3c 43 53 88 bd b6 5d bd 3c c7 92 39 bd
       0.029783433 -0.06656506 0.023115974 -0.045305993
0001c0 eb 9d 3b bd 57 b9 2b 3d 24 24 a6 3d b0 d5 17 3d
       -0.0458049 0.0419248 0.08112362 0.037069023
0001d0 20 3b ab 3d ab 56 7a 3d 61 c4 5f bc 43 90 18 bd
       0.083608866 0.06111781 -0.01365766 -0.037246954
0001e0 52 a6 61 bd d1 a5 22 3d 25 45 a8 ba ac 26 2f bd
       -0.055090256 0.039708916 -0.001283799 -0.04276149
0001f0 1c 28 0e bd 2f 2f 90 3d ea 49 c8 3e 8f 03 90 bc
       -0.03470622 0.070402496 0.39118892 -0.017579822
000200 00 1e c2 3c 25 1f 6e bd 80 f3 77 bc 86 6f ee 3c
       0.023695946 -0.05813517 -0.0151337385 0.029105913
000210 fc f4 19 3e c3 0a a0 3d 4b 7b e4 bc 72 d9 7f 3c
       0.1503486 0.07814553 -0.027890822 0.015615808
000220 70 f4 bf 3c 5b 3a df bc 80 40 55 bc ba a7 08 3c
       0.023431987 -0.027249506 -0.013015866 0.00834077
000230 77 7f 9c 3d e8 53 18 3d 8b e4 99 3d 2d 33 4f bd
       0.076414995 0.037189394 0.07514294 -0.050585914
000240 9b 46 45 bd 8b c0 02 3c 6e e4 2f bc db 1d 96 3d
       -0.048163038 0.007980476 -0.010735614 0.07329913
000250 7b 92 25 3d 27 dd f4 3b 65 ac 5e 3d b9 e6 7d 3d
       0.040422898 0.0074726525 0.054363627 0.061987612
000260 4a 58 8a 3d 10 78 a0 3c 7f 5f d1 39 a4 29 89 bd
       0.06755121 0.0195885 0.00039934737 -0.066973954
000270 96 d4 68 bd 81 e9 44 3a 4c 3c 9d 3b d7 00 1c bd
       -0.056843363 0.00075116014 0.0047984477 -0.03808674
000280 48 6a 1e bc 32 bc 73 3d 3b 9e 1d bd 68 fc 8a 3d
       -0.009668894 0.05950565 -0.03848098 0.06786424
000290 58 62 95 3b 9b aa b3 3c 24 e6 24 3d 38 15 98 bd
       0.0045588426 0.021931937 0.04025854 -0.07425922
0002a0 dd c1 e8 3b e7 3a b7 3b bc 9d 4f 3b 16 07 9e 3d
       0.0071031884 0.0055917385 0.003167971 0.07716195
0002b0 f9 b9 64 bd 0e 86 ed 3b 17 34 ef 3d c1 eb 83 bd
       -0.05584142 0.0072486466 0.11679857 -0.06441451
0002c0 8d 52 94 bb e4 50 23 bd d1 51 4a bd 9c f2 2f bd
       -0.0045264424 -0.039872065 -0.049394432 -0.04295598
0002d0 62 02 44 3c f2 53 d6 bc 5e 16 86 3c c3 92 d8 bd
       0.011963459 -0.026163075 0.016368087 -0.105748676
0002e0 b8 a3 1a 3d 49 53 11 3d e6 3b d7 bc 40 5e f8 3e
       0.03775379 0.035479818 -0.026273679 0.48509407
0002f0 33 69 fd 3c 20 19 2f bd f3 83 8c 3c db 5d 50 bb
       0.030933952 -0.04274857 0.017152762 -0.0031794223
000300 90 a9 b1 bd d1 47 69 3c 5d e5 98 bd f1 c2 b4 3d
       -0.086749196 0.014238314 -0.074656226 0.088262446
000310 6a 1c 8b 3c cf d0 d6 3c 32 09 8a 3d 97 3d 98 3c
       0.016981322 0.026222615 0.06740035 0.018584056
000320 70 56 a9 3d 8c b8 c0 bc 67 60 12 3d f9 26 d6 3c
       0.0826844 -0.023525499 0.035736468 0.02614163
000330 44 d7 1d bd c8 b5 6f 3d 63 a6 a8 bd db 88 97 3c
       -0.03853537 0.05852297 -0.08234861 0.018497875
000340 df b1 0c bd 4d 45 b7 bb 4d eb 0b be c8 ac ba bc
       -0.03434932 -0.005592978 -0.13663979 -0.022787467
000350 bc 21 91 bd ab bf 7f 3d c1 66 8b 3d b9 68 85 bd
       -0.070865124 0.06243865 0.06806708 -0.06514115
000360 d0 91 2b 3d 36 29 a6 bc c0 14 b0 3c ea 92 db bc
       0.041887105 -0.020283323 0.02149427 -0.026803453
000370 2a 9d 01 3d d7 6c ea 3e c6 49 35 bd ce 07 8c bd
       0.031644024 0.45786163 -0.04425981 -0.06837426
000380 0a 91 c0 3c 2d 76 8f bd 39 28 87 3c 63 ab c6 3d
       0.02350666 -0.07004962 0.016498672 0.09700658
000390 c8 a6 5e bc 85 fb e8 3d 1d bd 97 3c 62 b1 76 bd
       -0.013589568 0.113760985 0.018522793 -0.06022776
0003a0 b2 cb 2a bd c0 16 62 3c 0c 51 12 bc 9f b0 5b bc
       -0.041698165 0.013799369 -0.008930456 -0.013408809
0003b0 e3 4a ec bc 4c fe 94 3c d8 5a af bc 76 f0 84 3c
       -0.028844303 0.018187664 -0.021405622 0.016227942
0003c0 f9 f4 76 3d 9f 7b 34 bd 65 f5 b1 3c 83 1e 2b 3c
       0.060292218 -0.044063207 0.021723459 0.010444286
0003d0 ae 44 76 bd f0 3d ea bc d0 d9 7f bc eb 54 6b bd
       -0.06012409 -0.028593987 -0.015615895 -0.05745403
0003e0 ad 55 82 3d 3e 72 4c bd 38 b4 19 3d 39 1e b8 3c
       0.063639976 -0.049913637 0.037525386 0.022475349
0003f0 a3 1a 8c bd c8 64 85 3d c1 99 c8 bd fe d7 0a bd
       -0.06841018 0.06513363 -0.09794951 -0.033897392

fca2.weight f4 [1, 300]
000000 84 b1 2e 3b 50 8e a8 bb 9b fb 28 c0 00 b0 80 36
       0.00266561 -0.005143918 -2.6403568 3.8351864e-06
000010 62 44 c3 bb 86 0a d2 bf 1a f4 82 bb 19 99 11 c0
       -0.0059590796 -1.6409461 -0.0039963843 -2.2749693
000020 5e 7c f3 bf a4 65 04 c0 38 ef e5 bf 04 e8 cf 3c
       -1.9022329 -2.0687037 -1.7963629 0.025379188
000030 b9 32 c1 3c 29 95 89 b9 cd 61 04 c0 63 8b 16 c0
       0.023583757 -0.0002624181 -2.0684693 -2.3522575
000040 43 96 13 c0 93 7e a5 bb ea 75 55 3b 57 2e 97 bb
       -2.3060462 -0.005050489 0.0032571503 -0.0046136784
000050 4f fb 6d bb 1d 75 05 c0 c4 d0 05 c0 d2 16 ca bb
       -0.0036313122 -2.085273 -2.090867 -0.006167271
000060 75 bb da bf 46 11 f0 bf 1b a8 16 c0 59 1f 77 3c
       -1.7088457 -1.8755271 -2.3540103 0.015083157
000070 38 91 c6 bb 80 93 04 c0 6b b8 20 c0 75 c5 2b c0
       -0.006059792 -2.0715027 -2.511256 -2.6839268
000080 2c d8 32 c0 f5 e1 69 bf ff 20 ae bb 90 97 27 c0
       -2.794444 -0.9136041 -0.005313992 -2.6186256
000090 da c4 bc bb e0 ca 2c bf 53 f0 fc bf 42 f1 8c bf
       -0.005760771 -0.6749706 -1.9760841 -1.1011126
0000a0 67 d5 12 c0 77 72 f1 3c 73 4b a2 bf aa 37 f4 bf
       -2.294275 0.029473526 -1.2679275 -1.9079487
0000b0 b6 b5 18 c0 05 1e ba bb 32 0b 0d c0 4c 02 c2 3e
       -2.3860908 -0.005679848 -2.2038083 0.37892377
0000c0 2d ec 16 c0 e4 40 16 c0 37 73 d3 3c 9e 6a 54 3b
       -2.358165 -2.3477106 0.025811775 0.0032412182
0000d0 41 60 20 c0 b2 c6 1b c0 b3 e2 10 c0 58 97 02 c0
       -2.5058749 -2.4340024 -2.2638366 -2.0404873
0000e0 0e c9 c8 bb 51 9a da bc 70 dc 6d 3f 20 ab bd b9
       -0.006127483 -0.026684912 0.92914486 -0.00036176387
0000f0 18 3f 2d 3b cb b6 0d c0 68 ee fd bf 24 78 d6 ba
       0.0026435312 -2.2142818 -1.9838381 -0.0016362709
000100 9e 72 cc bb e4 e9 a0 bc 02 23 9d b9 d9 3a 31 c0
       -0.0062392494 -0.019642778 -0.00029971456 -2.7692168
000110 a1 90 25 bf 45 25 1e c0 1b 5f 2a c0 2e 15 3c 3d
       -0.6467381 -2.4710248 -2.6620548 0.045918636
000120 54 e0 28 c0 d4 e6 27 c0 e0 b2 34 c0 8b 10 32 c0
       -2.638692 -2.6234636 -2.8234177 -2.7822597
000130 a8 1d 65 bf a9 cf 09 c0 62 11 2b 3b 45 93 e2 bf
       -0.89498377 -2.1532996 0.002610289 -1.7701193
000140 98 7c 1f bb 0b cb 07 c0 7f 49 82 bf a8 38 2d c0
       -0.0024335738 -2.1217678 -1.0178679 -2.706583
000150 15 74 0c c0 51 d3 5b bf da a0 18 c0 39 4f 48 bb
       -2.194585 -0.8586932 -2.3848176 -0.0030564799
000160 72 96 1f c0 08 49 20 c0 e2 47 2f c0 59 1e 0b c0
       -2.4935575 -2.5044575 -2.7387624 -2.1737273
000170 0a 3b 0e c0 8a 13 1a c0 52 b6 22 c0 9a 97 e9 38
       -2.2223535 -2.4074426 -2.542378 0.00011138544
000180 88 66 25 c0 ec 2b af bf 92 aa d1 bb ef ae 37 bb
       -2.584383 -1.3685279 -0.0063985074 -0.0028027853
000190 e9 35 16 c0 0b cf e4 bf 56 e7 fb 3c 52 af 28 3c
       -2.3470404 -1.7875684 0.030749958 0.010295706
0001a0 14 f3 b4 3a cb 5d 04 c0 36 7d c9 bb b9 53 4f bf
       0.0013805353 -2.0682247 -0.0061489595 -0.80987126
0001b0 9b 89 11 c0 21 93 a6 bc 97 4f 32 c0 04 40 35 bb
       -2.2740238 -0.020333828 -2.7861078 -0.0027656564
0001c0 b1 9e 9a bb 98 1a 2f c0 33 72 1f c0 d8 78 2b c0
       -0.0047186245 -2.7359982 -2.4913452 -2.6792507
0001d0 47 d2 01 c0 d7 33 1f c0 3f 43 b7 bb 0f c8 7a bb
       -2.0284593 -2.487539 -0.005592733 -0.0038266217
0001e0 69 17 cc bc 7e c5 ae bb 27 88 17 c0 00 4f 99 bb
       -0.024913507 -0.0053336015 -2.367685 -0.004678607
0001f0 3b 1a 88 bf 9b 7b 1f c0 60 ae c0 3e 18 73 fd bf
       -1.0633005 -2.4919193 0.37633038 -1.9800749
000200 8a c5 85 3b 9a 5f e1 bf 10 6b de 3a ca c5 9c 3b
       0.0040823864 -1.76073 0.0016969163 0.0047843205
000210 b5 f4 39 c0 0c 4d 1f c0 3d 7b 0b c0 a3 83 0a c0
       -2.9055607 -2.4890776 -2.1793969 -2.1642845
000220 4e e7 01 c0 59 4b 07 c0 68 23 e6 bb 0f b0 01 bc
       -2.0297427 -2.1139739 -0.0070232637 -0.007915511
000230 b2 0c 1f c0 a2 d2 d5 bf 99 0f 10 c0 c1 e3 a2 3b
       -2.4851499 -1.6704905 -2.250952 0.004970998
000240 b7 8b dc 3c 37 3f 16 c0 43 7c eb 3c 68 24 1d c0
       0.02692209 -2.3476083 0.028745776 -2.455347
000250 9b d6 1a c0 76 f7 14 c0 61 47 04 c0 57 8d 18 c0
       -2.4193485 -2.3276038 -2.0668566 -2.3836267
000260 5f 79 08 c0 7c 72 11 c0 9f ff 90 bb 75 99 94 bc
       -2.132408 -2.2726126 -0.0044250037 -0.01813958
000270 28 dd fb 39 d1 f3 86 3c 05 83 25 c0 ab 54 9b bb
       0.00048039225 0.016473683 -2.5861218 -0.004740318
000280 2d 1c ca 3c b5 c1 00 c0 6d df 71 bb b7 cb 19 c0
       0.024671638 -2.011823 -0.0036906854 -2.4030588
000290 b1 17 0d 3c df 38 f1 bf b6 f7 14 c0 92 b9 53 bf
       0.0086116055 -1.8845481 -2.327619 -0.8270503
0002a0 13 36 01 c0 7f eb 8f 3c a1 37 18 c0 af 2c 2c c0
       -2.0189254 0.017568348 -2.3783953 -2.6902273
0002b0 e8 5e ea bf 16 78 21 c0 3f 74 2f c0 f9 0f 33 bf
       -1.8310213 -2.5229545 -2.74147 -0.6994625
0002c0 6a 71 28 bc e7 48 85 bb 00 e6 f6 b6 8a 56 ef bf
       -0.010280946 -0.0040675285 -7.358147e-06 -1.8698285
0002d0 94 e4 66 bb 94 b6 54 bb 04 5f ae bf b1 10 3e 40
       -0.0035231458 -0.0032457458 -1.3622746 2.9697688
0002e0 de fe 19 c0 73 36 e7 bf 39 81 ff bf 80 89 69 3f
       -2.4061809 -1.8063492 -1.9961311 0.91225433
0002f0 57 5c f2 bf 00 a1 89 bb 62 b9 10 c0 c5 f3 11 c0
       -1.893443 -0.004200101 -2.2613149 -2.2805035
000300 49 be f1 3c f2 96 d0 bb 9c 22 84 3c 03 51 18 c0
       0.02950968 -0.0063656503 0.016129784 -2.3799446
000310 5b aa 18 c0 03 96 1c c0 da 20 fc bf 39 40 c0 bb
       -2.3853977 -2.446656 -1.9697526 -0.005867031
000320 3d 26 1a c0 95 de 12 c0 e5 19 e6 bf 7d 54 98 3c
       -2.4085839 -2.2948353 -1.7976652 0.018594975
000330 18 52 9c 3c 16 24 2a c0 d9 3d 93 3c 25 77 20 c0
       0.019082114 -2.6584525 0.017973827 -2.507272
000340 57 8a f5 bf b9 16 81 3b 7f 36 71 bf 52 f6 4e bc
       -1.9182843 0.0039394763 -0.9422378 -0.0126319695
000350 6f e5 b7 3c 0c 24 80 be aa 01 0f c0 22 26 c5 ba
       0.02244827 -0.25027502 -2.2344766 -0.0015041272
000360 8e c7 fa be f9 df 34 bf bf 04 c1 3c a2 01 8a bb
       -0.48980373 -0.70654255 0.023561833 -0.0042116204
000370 fe 2e 0f bc 85 fe d8 3e 53 ad a2 bc 75 71 d3 3c
       -0.008739231 0.42381683 -0.019858038 0.025810936
000380 c7 ab 11 c0 d1 7c dd 3c 23 65 bc 3c cb 91 1e c0
       -2.2761095 0.027037056 0.022997444 -2.4776485
000390 2e e1 47 ba 63 e6 1c c0 d1 77 ff 3b 87 3d ee 3c
       -0.0007624802 -2.4515617 0.0077962657 0.029082073
0003a0 26 19 22 3b 37 f2 0e c0 e7 8e 53 bc e2 64 d2 3c
       0.0024734228 -2.2335336 -0.012912489 0.02568287
0003b0 7b c2 20 c0 b3 65 13 c0 46 d9 af bb 68 93 f1 bf
       -2.5118701 -2.3030822 -0.005366477 -1.887311
0003c0 ad cd 01 c0 a0 38 40 bf 90 1f 18 c0 f1 9a 1d c0
       -2.0281785 -0.750864 -2.3769264 -2.4625819
0003d0 8e a7 b4 3b b9 e5 19 bb d8 e6 10 c0 5c 10 d0 bc
       0.005513138 -0.0023482873 -2.2640896 -0.025398426
0003e0 11 23 c6 bf 15 c7 1c 3d d4 5e f0 bf ab e7 e2 bf
       -1.5479451 0.038275797 -1.8778939 -1.772695
0003f0 96 5e 86 bb 79 be 20 c0 26 70 8a bf d5 d0 71 bf
       -0.004100631 -2.5116255 -1.0815475 -0.9445928
